deepsets/best_model.pt (torch, 25698 bytes, 33 tensors)

phi.0.weight f4 [16, 2]
00000000: c576 06bf 2b49 c1bd 865f fd3b 2039 2d3f
00000010: 9c93 4c3e 88b3 5b3d f9b8 1cbe 3f2b a6be
00000020: a520 2dbf cde7 673e ed52 25bf cc87 8dbe
00000030: 6c38 1a3d 2053 b8be aefe a4be 1449 52be
00000040: e4d1 aa3d 14b7 123f 93c5 81bd 83e8 db3e
00000050: c4ce df3e 9b27 323f f861 dcbe b245 2a3f
00000060: 9c80 c13d f795 5cbd b458 27bf 1916 25bf
00000070: 7d4a 893e 486a 513e 8c32 b7be 7bc7 eebe
-0.5252498 -0.09437784 0.0077323345 0.6766529 0.19978184 0.05363801 -0.15304936 -0.3245487
-0.67627937 0.22647019 -0.6457966 -0.27642667 0.037651464 -0.3600092 -0.32225555 -0.2053569
0.08340815 0.57310605 -0.063365124 0.4295083 0.43712437 0.69591683 -0.43043494 0.66512597
0.094483584 -0.053853955 -0.65369725 -0.64486843 0.26814643 0.204507 -0.35780752 -0.46636567

phi.0.bias f4 [16]
00000000: 29cc f3be 2a05 1c3f c2f7 a4be 0d21 6dbe
00000010: 70fe 26be c995 223f 0aaa ac3e a151 efbe
00000020: c86c 8bbd 3abc 25bf 1790 903d b140 a9be
00000030: c8a3 683e da27 b7be e452 143f 8864 9ebe
-0.476167 0.6094538 -0.32220274 -0.23157139 -0.16307998 0.63509804 0.3372348 -0.46741965
-0.06807858 -0.64740336 0.07058733 -0.33057168 0.22718728 -0.35772592 0.5793898 -0.30936074

phi.2.weight f4 [8, 16]
00000000: 9e66 563e 1784 3ebd c250 27be 28cd cc3d
00000010: f04c 6bbe e2d2 2ebe 40e6 1b3e b4e4 e83d
00000020: 2938 153e 6ce9 b8bd eb77 043d d86f 81be
00000030: 54a4 263e dcda 14be 8dac 213e 825a 6ebe
00000040: a012 3cbc 6c85 d2bd 5296 083e 7cb4 a0bd
00000050: 3c70 31be 609b 783c c205 7cbe d0ff 43be
00000060: c050 c33d acd9 f83d 80d8 ffbb 20b9 b73c
00000070: b0ce 34bd 8458 55be ba97 5bbe b413 9d3d
00000080: b02d 963c 2459 803e ff1c c73d eafb 39be
00000090: 2676 7cbe 905b 93bd e0a0 a6bc 142c 4a3e
000000a0: 3268 813e ce9b 593e b1e4 513e 49fb fabd
000000b0: b299 0abe d055 c33c c39e 413e 00b1 48bd
000000c0: 803a 373b f80b 51be c093 533e 0c0a d73d
000000d0: bedb 64be 2086 32be 4217 793e eac5 72be
000000e0: 00a9 f6bc 48c1 173e 28e7 6cbe a67c 62be
000000f0: bc4d 0abe ea75 633e fc87 4e3e 3a26 0abe
00000100: 7c52 ae3d 7a45 71bd 6eaa 4c3d 8a01 76be
00000110: c27a 73be e484 4ebe 603b b9bc 806b a5bc
00000120: fc1d 303e ecf7 5cbb 6231 24bc 76b9 cd3d
00000130: 120e 6bbe c87f ed3d dd28 d73d fa90 703e
00000140: c80d 523d f04d 9e3d 5830 57bd 12a4 153e
00000150: 5af7 2f3e f8b2 76bd 00e9 99bc ba09 273e
00000160: 2ab3 423e c87c 273d 7205 69be e4ad 37be
00000170: beed 1abe 00b1 573c c093 71bc d6f3 34be
00000180: 1854 01bd 23da 623e 9198 803e 30a9 3c3e
00000190: 34c6 1b3e e4a8 7f3e cc75 0d3e e0bc 3bbc
000001a0: 505d 923e 7faf 92bd 95ae 993e 4541 af3e
000001b0: 1002 863e 80f2 413e dacb 703e 5c31 f6bd
000001c0: 4cbe 073e 082c 5cbe a0c5 1a3d 7469 f63d
000001d0: c021 5bbc 0068 c63d a6fd 0f3e 52b5 193e
000001e0: 5a37 5c3e 8e30 76be 44b4 6fbe 0e87 2b3e
000001f0: 6e51 53be 6803 273d 1424 16be b060 18bd
0.20937583 -0.04651269 -0.163394 0.10000068 -0.22978568 -0.17072633 0.15224552 0.11371747
0.14572205 -0.09028897 0.032340925 -0.25280643 0.16273624 -0.14536613 0.15788479 -0.23276713
-0.01147905 -0.102793545 0.13338593 -0.07846925 -0.1732797 0.015173763 -0.24611571 -0.19140553
0.09536886 0.121508926 -0.0078077912 0.022427142 -0.044142425 -0.20834547 -0.21444598 0.07669774
0.018332332 0.2506801 0.097223274 -0.18162504 -0.24654445 -0.071951985 -0.020340383 0.19743377
0.25274807 0.21250841 0.20497395 -0.1225496 -0.13535193 0.02384463 0.18908219 -0.048996925
0.0027958453 -0.20414722 0.20661831 0.10499963 -0.2234945 -0.17433977 0.24325278 -0.2370831
-0.030109882 0.14819825 -0.23135054 -0.22117862 -0.13506216 0.2221295 0.20169061 -0.13491145
0.085118264 -0.05890415 0.049967222 -0.24024025 -0.23777297 -0.20167881 -0.02261132 -0.020192862
0.17198938 -0.003371711 -0.010021539 0.100451395 -0.22954586 0.11596638 0.10505841 0.23492804
0.051282674 0.07729709 -0.05253634 0.14613369 0.17184201 -0.06022927 -0.01878786 0.16312304
0.19013658 0.040890485 -0.22755983 -0.17937428 -0.15129754 0.013164759 -0.014744699 -0.17671141
-0.03157434 0.22153525 0.251164 0.18423915 0.15212327 0.2496677 0.13814467 -0.0114586055
0.28586817 -0.071623795 0.30016008 0.34229484 0.2617345 0.18940163 0.23515263 -0.12021133
0.13256186 -0.21501172 0.037786126 0.12031832 -0.013374746 0.09687805 0.14061603 0.15010574
0.2150549 -0.2404196 -0.2340861 0.16750738 -0.20636532 0.040774733 -0.146622 -0.037201583

phi.2.bias f4 [8]
00000000: bdb0 42be 4c4a 89bd 0680 093c 1272 063e
00000010: abdf 06be 9001 e5bd 7d8c 793e 069e 71be
-0.19012733 -0.06703624 0.00839234 0.13129452 -0.1317126 -0.11181939 0.24369998 -0.23595437

rho.0.weight f4 [32, 10]
00000000: aa0f 503d a334 efbc 3c2c 28be 0c65 96bb
00000010: b17d 48be a332 65be d637 63be ea8e 2f3e
00000020: f528 57be 7729 88be a500 13be 11ff 453e
00000030: d242 d4bd 0b4a 4c3e cfcf a43e 7e35 8cbe
00000040: 39ec ccbd 917b be3d e946 46bd 8bdf 073e
00000050: 9bb0 91be c852 7bbe c9f9 9d3e a412 903e
00000060: af3d febc 9dc8 76be 016c 16bc 04b9 81bd
00000070: 1aea 4abd 3b61 a6bd 7553 2bbe 8718 a53e
00000080: a585 72be 290c 883d 5012 2abd 9b7a 8ebe
00000090: 75ca 723e a74e 4bbe 4381 103e ddf8 fdbd
000000a0: bd42 5e3e 6070 8bbe 3015 9cbe 9c61 163d
000000b0: db9a e5bd a2f7 c93c 805b 893d 3348 31be
000000c0: 15d8 03be eba6 0cbd 1b19 153e 6220 fc3c
000000d0: 6d18 80be ab75 93bd 6b8b 8bbe acf3 0c3e
000000e0: e462 7c3d ffc3 9b3e 9e7d 493e 3660 563e
000000f0: 573c 3ebc 95f5 583e b015 69be fd3c ba3d
00000100: e408 7ebe c94c 11be 5cee 683d ba8e 8fbc
00000110: fa03 9dbe 91a7 0b3e c135 a0be e998 ed3d
00000120: e45e 68be 0026 b33d cfc6 9ebc 997e 8f3b
00000130: 53e5 0f3e 5e7b 6bbd 01cc 1a3d bbcd 6a3e
00000140: 7df2 8fbe 3f98 993e 73d4 d7bd 217f 1d3e
00000150: bf94 973e 53e9 c9b8 b07a 8b3e d41c 63be
00000160: 69f5 303e 0860 643e 4eb2 253e 7f4c e03e
00000170: 6be1 88bd a834 283e 4d28 9d3e 735d 253e
00000180: 3155 6c3e 9a25 46be 3ad7 2c3e d601 053e
00000190: cb91 653e 6d0a aabe e3f7 5fbd a5f7 8e3e
000001a0: cb47 af3d 2bba 9c3d 3b4d 703e cbfb d4bd
000001b0: f698 973e 5e6e b53d a530 28be d218 b33e
000001c0: e9e5 793e 1769 353d 1e63 9ebd e5a7 5ebc
000001d0: 3a81 1abe bab4 893e a255 933e 4656 8bbd
000001e0: 96a3 f53d 4a43 e03d eaae 7b3d 09cb e13c
000001f0: aea3 30be 1591 133e abfd 0bbd e6af 15be
00000200: 6fb6 8b3a 1a23 953e d3a6 873e 21bb 9c3d
00000210: 4c9d f13d 35dc 943e 7fd0 453e 6b86 893e
00000220: 6c64 aebd 0783 36be 1b21 023e de53 8e3e
00000230: 6193 a23e b751 9b3c 3686 20be b189 f43d
00000240: 23dc b63d b8ef 9a3e 7e43 13bd fb2d ac3d
00000250: 9543 923e fdb2 183e 7698 0e3e e2f5 6dbe
00000260: d2b5 74bd fc8a 68bc 26d8 8e3e 6c5b bd3c
00000270: cb6b 0cbe b32f c9bc 7124 d93c 7ee2 823e
00000280: 7a11 1d3d e17c f2bd da2a 503e 3728 643e
00000290: e37a da3d f40b 32be 6118 21be d662 a13e
000002a0: a246 ffbd 52ea 203e e80f 323e c6db ddbd
000002b0: 352d 463e b6fc 74be dc66 55be 5f4c 2ebc
000002c0: 8563 133d 8e01 333e fb3a 97be 7972 debd
000002d0: 652b 3d3d a114 94be 0605 483d 5b50 eabd
000002e0: 42e9 e8bd c32c 4abe e183 23be 99db 123e
000002f0: fbe3 bbbd 5913 07bd a5a4 9b3e 7427 33bc
00000300: 062b f9bd 7ab3 74be e31b 9e3e 3309 e6bd
00000310: 0522 30bd 2b6c 643d 8aa5 c63c b8ae 6fbe
00000320: e019 913e 7127 6fbe 0edc b73d 72af 05be
00000330: 4f92 43be 102c d9bd d411 a93e 7e48 593e
00000340: 5037 863e 025b 3bbe 404a 42be 6c7b 5abe
00000350: f798 5bbe 4d43 1bbc ef39 20be db5e 8a3e
00000360: 4c02 873e 7e01 173e 73cd 903e 2742 f53c
00000370: 9f95 1dbe 15bd 0d3d 2ef7 8a3e 0bf0 bc3d
00000380: 983c 27be ef4a 833e b5c4 93be 75e8 43be
00000390: 16eb 19bd a8df 4d3e 437c 8dbe 9117 0f3e
000003a0: 8688 503e e232 e33d 5ee3 b1bd 4894 d33d
000003b0: 76b3 ab3d 87a1 d7bd 9d4b 25be e8ca bc3d
000003c0: ebfc 20be fef9 6a3d 852e 88be 6ce1 70be
000003d0: c6c5 10bd 0afb 23bd 505f bcbd d267 a7bb
000003e0: 9b77 bdbd 56b4 54be 1310 3cbe 3138 3e3c
000003f0: 1f06 83be 25d1 31be 5688 843e b55b a1be
0.05079619 -0.029199904 -0.16423124 -0.0045896824 -0.19579197 -0.22382598 -0.22189268 0.17144361
-0.21011718 -0.26594135 -0.14355715 0.19335581 -0.103643075 0.1995012 0.32189795 -0.2738456
-0.100059934 0.09300912 -0.04840747 0.13268869 -0.28455052 -0.24543297 0.30854633 0.28139222
-0.031035272 -0.24099965 -0.009181024 -0.06334117 -0.049539663 -0.08124014 -0.16731055 0.32245275
-0.23683794 0.06642944 -0.04152137 -0.27827916 0.23710044 -0.19854222 0.1411181 -0.124009825
0.21705146 -0.27234173 -0.30484915 0.03671418 -0.11211177 0.024654213 0.06706905 -0.17312698
-0.12875398 -0.034338873 0.14560358 0.03077716 -0.25018635 -0.07200178 -0.27254805 0.13764828
0.061617747 0.3042297 0.19676825 0.20935139 -0.011611066 0.21187432 -0.2276218 0.09093664
-0.24808079 -0.14189447 0.056867942 -0.017524112 -0.30667096 0.1363814 -0.3129101 0.11601431
-0.22692448 0.08747482 -0.019381909 0.0043791053 0.14052324 -0.0574907 0.03779221 0.22930042
-0.2811469 0.29998967 -0.10538568 0.15380527 0.29605672 -9.627887e-05 0.2724204 -0.22178966
0.17281117 0.22302258 0.16181299 0.43808362 -0.0668362 0.16426337 0.3069481 0.1614893
0.23079373 -0.19350281 0.16878977 0.12988982 0.22418897 -0.3321108 -0.054679763 0.27923313
0.08558615 0.07652696 0.23466961 -0.10399588 0.29608887 0.088589415 -0.16424806 0.34979874
0.2440411 0.044289675 -0.07733749 -0.013589834 -0.15088359 0.26895696 0.2877627 -0.06803565
0.11994092 0.10950334 0.061446108 0.027562635 -0.17249939 0.14410813 -0.034177464 -0.14617881
0.0010659228 0.29128343 0.26494464 0.076528795 0.1179758 0.29074255 0.19317816 0.26860365
-0.08515248 -0.1782342 0.12707941 0.2779836 0.31753066 0.018959863 -0.15676197 0.11940325
0.089287065 0.30261016 -0.035953037 0.084072076 0.28567186 0.14912029 0.13925347 -0.23238328
-0.05974371 -0.014193293 0.27899283 0.023114882 -0.13712995 -0.024558878 0.026506634 0.25563425
0.038346745 -0.11840225 0.20328847 0.22280966 0.1066797 -0.17387372 -0.15731956 0.31520718
-0.12464644 0.15714386 0.1738888 -0.10832934 0.19353183 -0.23924527 -0.20840019 -0.0106383255
0.03598358 0.17481062 -0.29537186 -0.10861678 0.046183962 -0.2892199 0.048832916 -0.11441108
-0.113726154 -0.19743638 -0.15968277 0.14341582 -0.09174343 -0.032977436 0.3039905 -0.010934699
-0.12166409 -0.2389659 0.3088065 -0.11232223 -0.043001194 0.05576722 0.024248857 -0.23406494
0.28340054 -0.2335489 0.08977519 -0.13055208 -0.19098781 -0.106041074 0.33021414 0.2121906
0.26214075 -0.18296435 -0.18973637 -0.21336144 -0.2144507 -0.009476495 -0.156471 0.27025494
0.2636894 0.14746663 0.28281745 0.02993877 -0.15389107 0.03460415 0.27141708 0.09225472
-0.16331708 0.25643107 -0.28861013 -0.19131644 -0.03757771 0.2010485 -0.27633867 0.13973834
0.2036458 0.110936895 -0.08685945 0.10331017 0.08383839 -0.10528856 -0.16142125 0.09218389
-0.1572148 0.057367317 -0.26597992 -0.23523492 -0.03534486 -0.04003433 -0.09197867 -0.005108812
-0.092513286 -0.20771918 -0.18365507 0.011610077 -0.25590608 -0.17364939 0.25885266 -0.3151528

rho.0.bias f4 [32]
00000000: dbab 3f3e 4d4d 83be 49cb 6bbe 6048 a03d
00000010: 3e99 21be 639c 703e 29fc bcbc 0fc2 4d3b
00000020: 7d36 3b3d efce 133e 0958 533e bd61 3fbe
00000030: 55c0 673e b6d0 593e a456 903e 001b 913e
00000040: 967b 533e 52e0 ec3d 269a 3a3e e5d7 5c3e
00000050: 4d05 97bd 3970 533e 698e 4c3d 96ea 3a3e
00000060: d511 003e e933 8f3e 73f0 87bd ffd7 38be
00000070: 4c02 2bbd d4c4 4f3e 59fa a6be c2b4 31bc
0.18717901 -0.25644913 -0.23026766 0.078263044 -0.15781114 0.23497157 -0.023069458 0.0031396186
0.04570626 0.14434408 0.20639051 -0.18689628 0.22631963 0.21271023 0.28191102 0.28340912
0.20652613 0.11566223 0.18222865 0.21566732 -0.07374058 0.20648278 0.0499405 0.1825355
0.12506802 0.27969292 -0.06637659 -0.18051146 -0.041750237 0.20289928 -0.32612875 -0.010846319

rho.2.weight f4 [8, 32]
00000000: e11b aaba 5717 233d 181a 043e 1cef 7a3c
00000010: d52b 7bbd 6a6b 12be b851 da37 60db 14be
00000020: 5a50 853e 3a1d ecbd c15f 8dbe 6af8 fabc
00000030: 52f7 883d 4271 c0bd f037 0bbe 4a3f 8bbd
00000040: e212 553d fbe6 8c3d e2da e5bd b14b 873d
00000050: 2ae5 5abe 11f6 2e3d 6e7a b7bd a72a 333e
00000060: b6ec f53d ef65 913d 0bd9 07bd 8219 163d
00000070: 112a febc 1250 3bbd 5a03 d5bd 01ea 953d
00000080: eaaa c9bd 5324 093d d515 e33d f557 7dbe
00000090: 5338 1abd 6552 243e 3c52 33bd 11c6 3b3d
000000a0: 6b5c bfbd 9183 0d3e 1d55 523e b5eb 69be
000000b0: 6858 9a3d dca1 9c3d 0294 3a3e a74a 573e
000000c0: 613a bbbd 3488 67bd 7de7 c83d 74f7 e93c
000000d0: 96d7 e73d dd54 723d 6b76 63bc a394 823d
000000e0: cf50 c43d 15bb 163e 7a19 a63d 433a 65be
000000f0: 6e6d 343d ebee d83d d475 683d 4d30 9cbd
00000100: 1948 09be 11d9 5fbd fa80 b63d eb9a 7c3e
00000110: 3950 3fbe 95ab b7bd b254 0b3e 8536 213e
00000120: 6840 b7bd 0a05 813d bf96 7abd e4fb 1cbc
00000130: ec81 f5bd 6f8b 5ebe 5b2b 90be 2ca6 28be
00000140: f2dd 79bd b19b 1b3e 158a 153e b0d0 49be
00000150: b642 a8be 179c 793d 7e5f ee3b f420 b43c
00000160: 935c a23d de45 16be 68cd e1bd cc14 453e
00000170: b948 393b 1ddf 8fbd 2393 b33c 31dc cb3c
00000180: ec49 0dbe 720a 72be 77b7 b6bc 94ac 94be
00000190: a8ff da3d 252f b23d eba0 a7bd dc9d 0b3e
000001a0: e7d8 c1bd 84aa 48be 8ec2 823e 0979 79be
000001b0: ce76 1cbd 5153 babd 4816 ba3d b9c4 783d
000001c0: b3bf 18be 7387 0f3e 4c70 af3d 5a41 803d
000001d0: 47d7 dc3d b52e 1e3e b490 11bd 4e7f 9b3d
000001e0: 4880 383d 0d5d b4bd b865 c5bd 06c6 14be
000001f0: 9895 2b3e 883f 04be a61a 4cbe 3116 acbd
00000200: 70b0 1fbe f14c 1e3d 8dbc ec3d a150 04be
00000210: 907f 0f3d 1ccd d1bd c2c0 73bc b801 f9bd
00000220: f367 65be c874 833d d7d7 803e 4810 93bc
00000230: 4f26 063e 0462 0f3e 2fe1 3c3d fe1c b73e
00000240: 373f fdbd 3109 92bd 3bfc 7a3d 334f 673e
00000250: fd20 933d 1b07 2a3c 5b47 17bc d497 26be
00000260: 8a44 9bbd 8838 89bd 78a4 693e 1acd fbbd
00000270: d5fd 153e c477 d0bd 20aa 83bd 790d 713b
00000280: 672e 1c3e 5837 1dbe 7889 56bd cf1f 21bd
00000290: c71f 26bd 1233 323d 6c08 78bc 845c 293d
000002a0: d5ba 8f3d 2586 1a3e dac0 943e 3ea7 0a3e
000002b0: 37b6 0b3e 3c8b 143e 1697 3d3e 2f0d 283e
000002c0: 60e6 30be 7d9d 90bc d282 8abd d51a ac3d
000002d0: 4d7d 863e 8b59 b0bd eebb 123e 0d10 16bd
000002e0: 2acf 8abd ea86 edbd 6a40 363d 6f32 55be
000002f0: 137f 0d3e 2967 f4bd d866 93bc 2af6 e6bc
00000300: 4fb7 58bd 158f fb3d 1128 0abd 95a1 9e3e
00000310: ebff 123e fadb 643c 16b6 013b 5c27 9dbd
00000320: 0bf6 63bd 72fa dc3d 6688 69be a8d9 8a3e
00000330: ffc8 82bd 8b83 2ebe 32c6 58bc 571b 81be
00000340: d9fe 23bd 94cb 12be b5f5 f0bd a906 d8bc
00000350: 21f8 87bc c9c8 e53c e89f 203e 7094 26bd
00000360: 46c6 be3c c226 b13d e43f 9dbd 26c4 403c
00000370: 16f8 073e da7d bcbb 53d6 88bd dd5a 88bc
00000380: 4c6c a03d 33d6 82be d5fa 143e a5e8 50be
00000390: 6751 673d 11e4 363e b03c 163c 521b 893d
000003a0: c337 81be 2105 2bbe 0675 943c 2747 72be
000003b0: 9743 62bd b882 1d3d de7d 143e 8c88 293e
000003c0: a633 02be 7d9e 523d a9ad 073d 8c37 0b3c
000003d0: fc9c 0c3e 8bfb 1f3e 5256 c0bb b370 30bd
000003e0: 2013 f2bd 76a3 34bc ffe8 d0bc 1d1b 37be
000003f0: 6e46 2b3e e91d 043d e656 c33d 8255 013e
-0.0012978279 0.03981718 0.12900579 0.015315797 -0.0613211 -0.14298788 2.6025678e-05 -0.1453681
0.26037866 -0.11529012 -0.27612117 -0.030636031 0.066877976 -0.09396602 -0.13595557 -0.06799181
0.05201996 0.068799935 -0.11223389 0.06606234 -0.21376482 0.042715136 -0.089588985 0.1749674
0.1200804 0.070995204 -0.033165973 0.03664542 -0.031025918 -0.045730658 -0.1040103 0.07320023
-0.098470524 0.033481907 0.110881485 -0.24740584 -0.03765137 0.16047056 -0.043779597 0.045843188
-0.09343799 0.1381972 0.2054028 -0.22843821 0.075363934 0.0764806 0.18220523 0.21024571
-0.09141994 -0.056526378 0.09809778 0.028560378 0.11320417 0.059162963 -0.0138832135 0.063760065
0.095857255 0.14719804 0.08110328 -0.22385506 0.044049673 0.10592445 0.056752995 -0.076264
-0.1340641 -0.05465037 0.08911319 0.24668472 -0.18682946 -0.089682736 0.13606527 0.15743454
-0.089478314 0.06299789 -0.06117892 -0.00958154 -0.11987671 -0.21732877 -0.28158078 -0.1646964
-0.06100268 0.1519611 0.14603455 -0.19708514 -0.32863396 0.060939875 0.007274567 0.02198837
0.079278134 -0.1467509 -0.11025506 0.19246215 0.0028272106 -0.07024977 0.021920746 0.024885269
-0.1379773 -0.23636797 -0.02230428 -0.29037917 0.10693294 0.08700398 -0.081849895 0.13634437
-0.09465199 -0.19596297 0.25539058 -0.24362577 -0.03819924 -0.090979226 0.09086281 0.060734484
-0.14916877 0.14016514 0.08566341 0.06262465 0.107832484 0.15447505 -0.03553839 0.07592641
0.045044214 -0.088068105 -0.09638542 -0.14528665 0.16756284 -0.1291486 -0.1993204 -0.0840267
-0.1559465 0.038647596 0.11559401 -0.12921382 0.035033762 -0.102442 -0.0148775 -0.12158531
-0.22402935 0.06418759 0.25164673 -0.0179521 0.13100551 0.14002234 0.04611319 0.35764307
-0.12365573 -0.07130659 0.061275702 0.22588806 0.071840264 0.010377671 -0.009233321 -0.16268855
-0.07581432 -0.067002356 0.22816646 -0.122949794 0.1464761 -0.101790935 -0.06428933 0.0036781712
0.15252076 -0.15353143 -0.052377194 -0.039336976 -0.04055765 0.043505736 -0.015138727 0.041347995
0.07018057 0.15090235 0.29053384 0.1354036 0.13643728 0.14506239 0.18514666 0.16411279
-0.17275381 -0.017653221 -0.06763233 0.08403555 0.26267472 -0.08610829 0.14329502 -0.0366364
-0.06777795 -0.115979984 0.044495024 -0.2082002 0.13818006 -0.11933739 -0.017993376 -0.028193552
-0.05290919 0.1228315 -0.033729617 0.30982652 0.14355437 0.013968462 0.001979237 -0.07673523
-0.055654567 0.10789956 -0.22805938 0.27119184 -0.06385993 -0.17042367 -0.013230847 -0.2521617
-0.040037964 -0.14335471 -0.11765615 -0.026370363 -0.01659781 0.028049843 0.15686 -0.040668905
0.023287904 0.086499706 -0.07678202 0.011765515 0.13278231 -0.0057523074 -0.06681504 -0.01664489
0.07833156 -0.25554046 0.1454881 -0.20401247 0.056474116 0.17860438 0.009169742 0.06694664
-0.25237855 -0.16701175 0.018122207 -0.23659955 -0.05524024 0.03845474 0.1450114 0.16555995
-0.12715015 0.051420677 0.0331246 0.00849713 0.1373176 0.156233 -0.005869665 -0.04307623
-0.11820054 -0.0110253 -0.025501726 -0.17881437 0.16726086 0.032255087 0.09538059 0.12630275

rho.2.bias f4 [8]
00000000: 8f85 d3bd 7f3e 9abc 7b42 fbbd 8b32 f1bd
00000010: 33ec debd fc74 203e f301 97bd ffe0 943d
-0.10328209 -0.018828629 -0.122685395 -0.117772184 -0.10884895 0.15669626 -0.07373419 0.07269477

decoder.0.weight f4 [16, 8]
00000000: b331 b43c 3ef1 863e 7166 703e 0c8d aa3e
00000010: 417c 00be 1fff 89bd a30c 51be 42cd a1be
00000020: c437 8d3e 5af4 d23d 972d b4bd cc84 ed3d
00000030: b4aa 00be bfaf 1cbe 072f ae3e b8fc 4bbc
00000040: e38a c3be 46b8 ebbc 164b 64bd 33fa 5abd
00000050: 992a ae3e 2d33 973e 4ae3 e0be b7fc 633e
00000060: f0e6 893e d9c0 6e3d 463b 0e3e e574 a0be
00000070: 6792 ac3e f532 c43d 33ee 8a3e 54d7 b9be
00000080: 2481 62be 08fe e93e 0fb0 c3be c102 2f3d
00000090: f8df ee3e a91b 523e 2b88 4ebe b3fd 8c3e
000000a0: 04c1 c1be b62f e63e 07ed a9be 381c 4f3e
000000b0: 3d6a 453e 9c6a 913e c54b 79be e13b aa3e
000000c0: 4a87 9bbe 5447 bebc 9ea2 a3be 6ac2 4a3e
000000d0: 5fd5 a5be 5c21 0bbe adc1 ac3e bfaf 863e
000000e0: 95ab 483e e17c eabd 4172 bbbd 913f 473e
000000f0: d74a 68be b276 76bd 1a1b aebe 8804 a13e
00000100: 7721 53be 8c60 b6be bc37 21bd 057a 8bbe
00000110: 59d9 8d3e 3a2f b3bd eff5 663e c8a0 88bd
00000120: 3136 813d e77a 9c3d e18f bbbd 0d86 af3e
00000130: 3fd4 e83d 20aa 64be d894 68be 23e0 96be
00000140: 47b6 553e 3b0d 3d3e 716e b13e c326 853e
00000150: fb00 483e 587b b4bd 7e02 10be 7d57 8f3e
00000160: 648c 6dbe afe7 0bbc b886 6abe c6d4 403e
00000170: 1003 47bd 1c5b 41be c600 833e beb8 7bbe
00000180: 71f1 a83d dced 72bd 9d8e 0f3e 0585 8fbd
00000190: 52a0 49be d13e 993d 5683 d2bd 0c7a 3abd
000001a0: b1e2 f0bd c2d3 02be a5a5 02be 9811 9cbe
000001b0: f7d2 65be 2f09 4e3e 5930 a63e 7468 24be
000001c0: a2fa 87bd 0c67 24be 82bd e2bd 48b5 38be
000001d0: 6fec 803d e212 a73c cdec 213e 34db bdbe
000001e0: 1293 8c3e 3496 e43b d74d abbe ff7a 9fbd
000001f0: c231 9fbe bbf5 903e e2cd 493e 08d6 e4be
0.021996355 0.26355928 0.23476578 0.33310735 -0.12547399 -0.067381136 -0.20414977 -0.31601912
0.27581608 0.103005126 -0.08797758 0.115975946 -0.12565118 -0.15301417 0.34020254 -0.01245039
-0.381919 -0.028774392 -0.05573567 -0.053461265 0.34016874 0.29531232 -0.43923408 0.22264372
0.26934004 0.058289383 0.13889799 -0.31339183 0.33705446 0.09580032 0.27134857 -0.36297095
-0.22119576 0.45701623 -0.3822026 0.042727236 0.4665525 0.20518364 -0.20169131 0.27537307
-0.37842572 0.44958276 -0.3318865 0.20225608 0.19278808 0.2840165 -0.2434531 0.3324881
-0.30376655 -0.023227371 -0.31960005 0.19800726 -0.32389352 -0.13586944 0.33741513 0.2630596
0.19596703 -0.114496 -0.091526516 0.19457842 -0.22684799 -0.06017179 -0.34005052 0.3144877
-0.20618235 -0.35620534 -0.039359793 -0.2724153 0.27704886 -0.08749242 0.22554754 -0.066712916
0.06309164 0.07640629 -0.09158302 0.3428196 0.11368608 -0.22330523 -0.2271303 -0.29467878
0.20870315 0.18462078 0.34654573 0.26006135 0.19531624 -0.088125885 -0.1406345 0.27996436
-0.23198086 -0.008539124 -0.22902954 0.18831167 -0.048586905 -0.18882412 0.25586528 -0.24582192
0.08249176 -0.05930887 0.14019246 -0.07007793 -0.19690064 0.074826844 -0.102789566 -0.04552655
-0.11761988 -0.12776092 -0.12758501 -0.30482173 -0.22443758 0.20120691 0.3245876 -0.1605547
-0.06639601 -0.16054934 -0.11071302 -0.18037903 0.06295096 0.020394746 0.15812989 -0.370813
0.27455956 0.0069759134 -0.33457825 -0.077871315 -0.3109265 0.28312477 0.19707444 -0.44694543

decoder.0.bias f4 [16]
00000000: a4a5 7c3b 8354 4e3e 5992 7a3d dc3a 3dbe
00000010: bf47 413e 9030 923d 2573 003e 9f09 1abe
00000020: 6cb9 3fbe 5104 8c3b cb4e 283e 2104 1fbe
00000030: db37 8b3e 3369 dcbd ecac da3d 125d b0bd
0.0038550878 0.20149426 0.061174724 -0.18479484 0.18875025 0.07138169 0.12543924 -0.15042733
-0.18723077 0.0042729755 0.16436307 -0.15528919 0.27191052 -0.10762253 0.106775135 -0.08611502

decoder.2.weight f4 [1, 16]
00000000: f843 823d e8ea 8f3d 012e 4c3e b0a4 3abe
00000010: 20b2 b33e 407e ba3e 2136 5dbe a46d 893d
00000020: 89f0 b5be 5e66 12bd cbd6 1dbe a7e0 e23d
00000030: 3da7 4c3e b204 c4be e1d2 c8be 7423 71be
0.0636062 0.07027227 0.19939424 -0.18226886 0.35096836 0.36424446 -0.2160268 0.067103654
-0.35535076 -0.035742156 -0.15413968 0.11078005 0.19985671 -0.38284832 -0.39223388 -0.2354868

exp_avg f4 [16, 2]
00000000: 0000 0000 0000 0000 b00d 89ba f8b5 82ba
00000010: bb8b 7f38 2040 c838 0000 0000 0000 0000
00000020: 0000 0000 0000 0000 0000 0000 0000 0000
00000030: 0000 0000 0000 0000 0000 0000 0000 0000
00000040: d093 f7ba d5e7 f2ba b41f dabb 4989 d1bb
00000050: a3aa a63a e1a5 9f3a e799 8d3b 3374 903b
00000060: 8a67 4f3c 9e43 473c 0000 0000 0000 0000
00000070: 3621 6eb9 6871 85b9 0000 0000 0000 0000
0.0 0.0 -0.001045635 -0.0009972444 6.092687e-05 9.5486874e-05 0.0 0.0
0.0 0.0 0.0 0.0 0.0 0.0 0.0 0.0
-0.0018888656 -0.0018532226 -0.0066566113 -0.0063945395 0.0012715649 0.0012180173 0.004321325 0.0044083833
0.012658963 0.012162117 0.0 0.0 -0.00022709821 -0.0002545223 0.0 0.0

exp_avg_sq f4 [16, 2]
00000000: 0000 0000 0000 0000 6de2 1739 6a7a 0039
00000010: 3e98 ca38 9302 a538 0000 0000 0000 0000
00000020: 0000 0000 0000 0000 0000 0000 0000 0000
00000030: 0000 0000 0000 0000 0000 0000 0000 0000
00000040: 7884 b439 d593 9d39 7890 5d3b 1592 413b
00000050: c6da 3c39 1e28 2139 608c da3a 7963 c93a
00000060: 5171 473c c41b 2e3c 0000 0000 0000 0000
00000070: 82be 1838 ba16 ff37 0000 0000 0000 0000
0.0 0.0 0.00014484832 0.00012252634 9.660468e-05 7.8682926e-05 0.0 0.0
0.0 0.0 0.0 0.0 0.0 0.0 0.0 0.0
0.00034430972 0.00030055517 0.0033808034 0.0029536535 0.00018010577 0.00015369101 0.0016673915 0.0015364728
0.012173013 0.010626737 0.0 0.0 3.641705e-05 3.0408952e-05 0.0 0.0

exp_avg f4 [16]
00000000: 0000 0000 8172 23b7 6867 7235 0000 0000
00000010: 0000 0000 0000 0000 0000 0000 0000 0000
00000020: 4687 97b7 f5ec 82b8 168b 4737 6573 3438
00000030: d602 f938 0000 0000 ede4 24b6 0000 0000
0.0 -9.742217e-06 9.03025e-07 0.0 0.0 0.0 0.0 0.0
-1.8063594e-05 -6.24302e-05 1.1893708e-05 4.3022814e-05 0.000118737735 0.0 -2.4571157e-06 0.0

exp_avg_sq f4 [16]
00000000: 0000 0000 0cda 4132 c916 fb31 0000 0000
00000010: 0000 0000 0000 0000 0000 0000 0000 0000
00000020: e622 ed32 6d41 9134 30dd 7232 3409 1734
00000030: 60a6 8235 0000 0000 01a4 4131 0000 0000
0.0 1.1283657e-08 7.307652e-09 0.0 0.0 0.0 0.0 0.0
2.7606301e-08 2.7055958e-07 1.4136546e-08 1.4066319e-07 9.734176e-07 0.0 2.8178422e-09 0.0

exp_avg f4 [8, 16]
00000000: 0000 0000 dbd9 bd3b 8cc0 103b 0000 0000
00000010: 0000 0000 0000 0000 0000 0000 0000 0000
00000020: fcbb b53b a278 433b f1b7 1f3c 75f8 e13a
00000030: 1bae d739 0000 0000 3f47 883b 0000 0000
00000040: 0000 0000 0000 0000 0000 0000 0000 0000
00000050: 0000 0000 0000 0000 0000 0000 0000 0000
00000060: 0000 0000 0000 0000 0000 0000 0000 0000
00000070: 0000 0000 0000 0000 0000 0000 0000 0000
00000080: 0000 0000 a508 6ebc 17b6 b1bb 0000 0000
00000090: 0000 0000 0000 0000 0000 0000 0000 0000
000000a0: 7e21 63bc b663 f6bb c837 c6bc 07e3 95bb
000000b0: 91f1 7fba 0000 0000 9f56 28bc 0000 0000
000000c0: 0000 0000 0000 0000 0000 0000 0000 0000
000000d0: 0000 0000 0000 0000 0000 0000 0000 0000
000000e0: 0000 0000 0000 0000 0000 0000 0000 0000
000000f0: 0000 0000 0000 0000 0000 0000 0000 0000
00000100: 0000 0000 8373 2cbc a8bf 80bb 0000 0000
00000110: 0000 0000 0000 0000 0000 0000 0000 0000
00000120: 618d 24bc 3781 b2bb f99a 8fbc 422e 59bb
00000130: 386d 39ba 0000 0000 92ea f3bb 0000 0000
00000140: 0000 0000 0000 0000 0000 0000 0000 0000
00000150: 0000 0000 0000 0000 0000 0000 0000 0000
00000160: 0000 0000 0000 0000 0000 0000 0000 0000
00000170: 0000 0000 0000 0000 0000 0000 0000 0000
00000180: 0000 0000 487a 403c aeb3 8f3b 0000 0000
00000190: 0000 0000 0000 0000 0000 0000 0000 0000
000001a0: 6ba9 373c d13b c73b 7148 a03c 9164 723b
000001b0: 78f7 4e3a 0000 0000 461f 083c 0000 0000
000001c0: 0000 0000 0000 0000 0000 0000 0000 0000
000001d0: 0000 0000 0000 0000 0000 0000 0000 0000
000001e0: 0000 0000 0000 0000 0000 0000 0000 0000
000001f0: 0000 0000 0000 0000 0000 0000 0000 0000
0.0 0.0057937927 0.0022087423 0.0 0.0 0.0 0.0 0.0
0.005546091 0.0029826541 0.009748445 0.0017240184 0.00041137714 0.0 0.004158884 0.0
0.0 0.0 0.0 0.0 0.0 0.0 0.0 0.0
0.0 0.0 0.0 0.0 0.0 0.0 0.0 0.0
0.0 -0.014528428 -0.005423318 0.0 0.0 0.0 0.0 0.0
-0.013862966 -0.0075192107 -0.02419652 -0.004574183 -0.0009763474 0.0 -0.010274558 0.0
0.0 0.0 0.0 0.0 0.0 0.0 0.0 0.0
0.0 0.0 0.0 0.0 0.0 0.0 0.0 0.0
0.0 -0.010525587 -0.003929097 0.0 0.0 0.0 0.0 0.0
-0.010043473 -0.0054475325 -0.017529951 -0.0033139144 -0.0007073465 0.0 -0.0074437344 0.0
0.0 0.0 0.0 0.0 0.0 0.0 0.0 0.0
0.0 0.0 0.0 0.0 0.0 0.0 0.0 0.0
0.0 0.011747904 0.004385433 0.0 0.0 0.0 0.0 0.0
0.011209826 0.0060801287 0.019565793 0.0036986212 0.0007895152 0.0 0.008308237 0.0
0.0 0.0 0.0 0.0 0.0 0.0 0.0 0.0
0.0 0.0 0.0 0.0 0.0 0.0 0.0 0.0

exp_avg_sq f4 [8, 16]
00000000: 0000 0000 47e4 323b e53e d539 0000 0000
00000010: 0000 0000 0000 0000 0000 0000 0000 0000
00000020: e594 243b d5bd 3c3a 1e22 003c 7476 7039
00000030: d3bf 7537 0000 0000 8c77 bb3a 0000 0000
00000040: 0000 0000 0000 0000 0000 0000 0000 0000
00000050: 0000 0000 0000 0000 0000 0000 0000 0000
00000060: 0000 0000 0000 0000 0000 0000 0000 0000
00000070: 0000 0000 0000 0000 0000 0000 0000 0000
00000080: 0000 0000 6d63 783c cf1d 113b 0000 0000
00000090: 0000 0000 0000 0000 0000 0000 0000 0000
000000a0: fdcf 633c f9b5 833b f92b 303d 1de4 af3a
000000b0: cb45 a238 0000 0000 044f 003c 0000 0000
000000c0: 0000 0000 0000 0000 0000 0000 0000 0000
000000d0: 0000 0000 0000 0000 0000 0000 0000 0000
000000e0: 0000 0000 0000 0000 0000 0000 0000 0000
000000f0: 0000 0000 0000 0000 0000 0000 0000 0000
00000100: 0000 0000 9350 033c 4b82 993a 0000 0000
00000110: 0000 0000 0000 0000 0000 0000 0000 0000
00000120: 24e4 f03b c33e 0b3b a450 ba3c 75e0 393a
00000130: 18c9 2b38 0000 0000 e0b5 873b 0000 0000
00000140: 0000 0000 0000 0000 0000 0000 0000 0000
00000150: 0000 0000 0000 0000 0000 0000 0000 0000
00000160: 0000 0000 0000 0000 0000 0000 0000 0000
00000170: 0000 0000 0000 0000 0000 0000 0000 0000
00000180: 0000 0000 07b3 223c 5527 be3a 0000 0000
00000190: 0000 0000 0000 0000 0000 0000 0000 0000
000001a0: 123a 153c 1589 2c3b 9dd1 e63c ae5b 663a
000001b0: edb6 5438 0000 0000 2d1e a83b 0000 0000
000001c0: 0000 0000 0000 0000 0000 0000 0000 0000
000001d0: 0000 0000 0000 0000 0000 0000 0000 0000
000001e0: 0000 0000 0000 0000 0000 0000 0000 0000
000001f0: 0000 0000 0000 0000 0000 0000 0000 0000
0.0 0.0027296708 0.00040673386 0.0 0.0 0.0 0.0 0.0
0.0025113162 0.0007199918 0.007820634 0.00022932311 1.46478005e-05 0.0 0.0014302596 0.0
0.0 0.0 0.0 0.0 0.0 0.0 0.0 0.0
0.0 0.0 0.0 0.0 0.0 0.0 0.0 0.0
0.0 0.015160424 0.0022143011 0.0 0.0 0.0 0.0 0.0
0.013904569 0.0040194956 0.043010686 0.0013419423 7.737762e-05 0.0 0.007831339 0.0
0.0 0.0 0.0 0.0 0.0 0.0 0.0 0.0
0.0 0.0 0.0 0.0 0.0 0.0 0.0 0.0
0.0 0.008014816 0.0011711804 0.0 0.0 0.0 0.0 0.0
0.007351415 0.0021247126 0.02274353 0.00070906366 4.095686e-05 0.0 0.0041415542 0.0
0.0 0.0 0.0 0.0 0.0 0.0 0.0 0.0
0.0 0.0 0.0 0.0 0.0 0.0 0.0 0.0
0.0 0.009930379 0.0014507571 0.0 0.0 0.0 0.0 0.0
0.009108083 0.0026326824 0.028176123 0.0008787465 5.07151e-05 0.0 0.0051305504 0.0
0.0 0.0 0.0 0.0 0.0 0.0 0.0 0.0
0.0 0.0 0.0 0.0 0.0 0.0 0.0 0.0

exp_avg f4 [8]
00000000: 6c08 ac38 0000 0000 244e 57b9 0000 0000
00000010: 1dfc 1bb9 0000 0000 ee18 2e39 0000 0000
8.203168e-05 0.0 -0.00020533107 0.0 -0.00014875871 0.0 0.0001660322 0.0

exp_avg_sq f4 [8]
00000000: e0c5 0c35 0000 0000 9654 4336 0000 0000
00000010: f18c ce35 0000 0000 7de8 ff35 0000 0000
5.244201e-07 0.0 2.91065e-06 0.0 1.5389215e-06 0.0 1.9066644e-06 0.0

exp_avg f4 [32, 10]
00000000: 0000 0000 0000 0000 0000 0000 0000 0000
00000010: 0000 0000 0000 0000 0000 0000 0000 0000
00000020: 0000 0000 0000 0000 5991 63bd b0fe 48bd
00000030: bbc2 31bb 0000 0000 95c3 13bd 0000 0000
00000040: 7541 d7bb 0000 0000 cba3 3abd 0000 0000
00000050: 0000 0000 0000 0000 0000 0000 0000 0000
00000060: 0000 0000 0000 0000 0000 0000 0000 0000
00000070: 0000 0000 0000 0000 1f3d e1bd 03f0 c6bd
00000080: 09f1 afbb 0000 0000 6540 92bd 0000 0000
00000090: 650d 55bc 0000 0000 bcba b8bd 0000 0000
000000a0: 0400 0000 0400 0000 0400 0000 0000 0000
000000b0: 0400 0000 0000 0000 0400 0000 0000 0000
000000c0: 0400 0000 0000 0000 d347 343d 933a 1f3d
000000d0: cbd2 0c3b 0000 0000 501e ea3c 0000 0000
000000e0: b886 aa3b 0000 0000 54db 133d 0000 0000
000000f0: 0000 0000 0000 0000 0000 0000 0000 0000
00000100: 0000 0000 0000 0000 0000 0000 0000 0000
00000110: 0000 0000 0000 0000 0000 0000 0000 0000
00000120: 0000 0000 0000 0000 0000 0000 0000 0000
00000130: 0000 0000 0000 0000 0000 0000 0000 0000
00000140: 595a 6bbd eede 4fbd 8ad7 37bb 0000 0000
00000150: a7d1 18bd 0000 0000 929e debb 0000 0000
00000160: 5006 41bd 0000 0000 6ade b3bc c7dd 9ebc
00000170: 4180 8cba 0000 0000 c295 69bc 0000 0000
00000180: 5623 2abb 0000 0000 1a85 93bc 0000 0000
00000190: 1dea bd3d dfbc a73d 4959 943b 0000 0000
000001a0: 1fa1 763d 0000 0000 90a3 333c 0000 0000
000001b0: 0dc2 9b3d 0000 0000 9e88 b6bd 2138 a1bd
000001c0: 4495 8ebb 0000 0000 7f0b 6dbd 0000 0000
000001d0: 6ba8 2cbc 0000 0000 7ab4 95bd 0000 0000
000001e0: c332 3b3c 6056 253c 563a 123a 0000 0000
000001f0: bb19 f33b 0000 0000 7811 b13a 0000 0000
00000200: 7d87 193c 0000 0000 4c4c 1d3d 03ee 0a3d
00000210: fdbd f53a 0000 0000 b145 cc3c 0000 0000
00000220: 73c9 943b 0000 0000 e701 013d 0000 0000
00000230: 8607 6d3d d359 513d e526 393b 0000 0000
00000240: 3ae8 193d 0000 0000 5b34 e03b 0000 0000
00000250: 2c66 423d 0000 0000 e7fe bb3d 060b a63d
00000260: 95d9 923b 0000 0000 3a23 743d 0000 0000
00000270: efd2 313c 0000 0000 2f2f 9a3d 0000 0000
00000280: 0400 0000 0400 0000 0400 0000 0000 0000
00000290: 0400 0000 0000 0000 0400 0000 0000 0000
000002a0: 0400 0000 0000 0000 0400 0000 0400 0000
000002b0: 0400 0000 0000 0000 0400 0000 0000 0000
000002c0: 0400 0000 0000 0000 0400 0000 0000 0000
000002d0: 0000 0000 0000 0000 0000 0000 0000 0000
000002e0: 0000 0000 0000 0000 0000 0000 0000 0000
000002f0: 0000 0000 0000 0000 d8b4 c03c 0534 aa3c
00000300: ac87 963a 0000 0000 2b41 7a3c 0000 0000
00000310: 7d47 363b 0000 0000 250c 9e3c 0000 0000
00000320: 5400 733d 17a0 563d 19d1 3d3b 0000 0000
00000330: e8c8 1d3d 0000 0000 6cda e53b 0000 0000
00000340: 024c 473d 0000 0000 0000 0000 0000 0000
00000350: 0000 0000 0000 0000 0000 0000 0000 0000
00000360: 0000 0000 0000 0000 0000 0000 0000 0000
00000370: 0000 0000 0000 0000 0000 0000 0000 0000
00000380: 0000 0000 0000 0000 0000 0000 0000 0000
00000390: 0000 0000 0000 0000 0000 0000 0000 0000
000003a0: 0000 0000 0000 0000 0000 0000 0000 0000
000003b0: 0000 0000 0000 0000 0000 0000 0000 0000
000003c0: 0000 0000 0000 0000 0000 0000 0000 0000
000003d0: 0000 0000 0000 0000 0000 0000 0000 0000
000003e0: 0000 0000 0000 0000 d78b fbbb da2c debb
000003f0: 637d c4b9 0000 0000 ac55 a3bb 0000 0000
0.0 0.0 0.0 0.0 0.0 0.0 0.0 0.0
0.0 0.0 -0.055558536 -0.049071014 -0.0027124125 0.0 -0.036075193 0.0
-0.0065690824 0.0 -0.04556636 0.0 0.0 0.0 0.0 0.0
0.0 0.0 0.0 0.0 0.0 0.0 -0.10997986 -0.09713747
-0.00536931 0.0 -0.071411885 0.0 -0.013003682 0.0 -0.09019992 0.0
6e-45 6e-45 6e-45 0.0 6e-45 0.0 6e-45 0.0
6e-45 0.0 0.04401381 0.03887422 0.0021487947 0.0 0.028578907 0.0
0.005204048 0.0 0.03609784 0.0 0.0 0.0 0.0 0.0
0.0 0.0 0.0 0.0 0.0 0.0 0.0 0.0
0.0 0.0 0.0 0.0 0.0 0.0 0.0 0.0
-0.05745921 -0.05074971 -0.0028052055 0.0 -0.037309315 0.0 -0.0067938054 0.0
-0.04712516 0.0 -0.021956641 -0.019392861 -0.0010719375 0.0 -0.014256896 0.0
-0.0025961003 0.0 -0.018007804 0.0 0.09273169 0.08190321 0.004527245 0.0
0.06021225 0.0 0.010964289 0.0 0.076053716 0.0 -0.089127764 -0.07872034
-0.00435129 0.0 -0.05787229 0.0 -0.010538201 0.0 -0.07309814 0.0
0.011425677 0.010091394 0.0005578151 0.0 0.007418839 0.0 0.0013509234 0.0
0.009370682 0.0 0.03840284 0.033918392 0.0018748638 0.0 0.024935575 0.0
0.004540616 0.0 0.031495955 0.0 0.057868503 0.051111054 0.0028251943 0.0
0.037574984 0.0 0.0068421788 0.0 0.04746072 0.0 0.09179478 0.08107571
0.004481504 0.0 0.059603907 0.0 0.010853513 0.0 0.07528531 0.0
6e-45 6e-45 6e-45 0.0 6e-45 0.0 6e-45 0.0
6e-45 0.0 6e-45 6e-45 6e-45 0.0 6e-45 0.0
6e-45 0.0 6e-45 0.0 0.0 0.0 0.0 0.0
0.0 0.0 0.0 0.0 0.0 0.0 0.023523733 0.020776758
0.0011484525 0.0 0.015274326 0.0 0.0027813606 0.0 0.0192929 0.0
0.059326485 0.052398767 0.0028963743 0.0 0.038521677 0.0 0.0070145633 0.0
0.04865647 0.0 0.0 0.0 0.0 0.0 0.0 0.0
0.0 0.0 0.0 0.0 0.0 0.0 0.0 0.0
0.0 0.0 0.0 0.0 0.0 0.0 0.0 0.0
0.0 0.0 0.0 0.0 0.0 0.0 0.0 0.0
0.0 0.0 0.0 0.0 0.0 0.0 0.0 0.0
0.0 0.0 -0.0076765823 -0.006780249 -0.00037477454 0.0 -0.004984578 0.0

exp_avg_sq f4 [32, 10]
00000000: 0000 0000 0000 0000 0000 0000 0000 0000
00000010: 0000 0000 0000 0000 0000 0000 0000 0000
00000020: 0000 0000 0000 0000 d0cd 803e 60ea 2e3e
00000030: acdc 213a 0000 0000 9db7 c13d 0000 0000
00000040: bfc9 483b 0000 0000 006e 193e 0000 0000
00000050: 0000 0000 0000 0000 0000 0000 0000 0000
00000060: 0000 0000 0000 0000 0000 0000 0000 0000
00000070: 0000 0000 0000 0000 965d 7c3f 7f3c 2b3f
00000080: 1d74 1e3b 0000 0000 7ca4 bd3e 0000 0000
00000090: 8990 443c 0000 0000 b333 163f 0000 0000
000000a0: 2c78 b336 8ae8 5335 ee28 5b31 0000 0000
000000b0: 6887 f034 0000 0000 8f76 7632 0000 0000
000000c0: d01b 3f35 0000 0000 15a6 223e d5df da3d
000000d0: c77d ca39 0000 0000 2d66 723d 0000 0000
000000e0: 0c41 fb3a 0000 0000 3efc bf3d 0000 0000
000000f0: 0000 0000 0000 0000 0000 0000 0000 0000
00000100: 0000 0000 0000 0000 0000 0000 0000 0000
00000110: 0000 0000 0000 0000 0000 0000 0000 0000
00000120: 0000 0000 0000 0000 0000 0000 0000 0000
00000130: 0000 0000 0000 0000 0000 0000 0000 0000
00000140: 76ad 893e f405 3b3e ca0f 2d3a 0000 0000
00000150: 5720 cf3d 0000 0000 e1af 563b 0000 0000
00000160: cb0c 243e 0000 0000 0881 213d 0df6 d93c
00000170: aea4 c938 0000 0000 a662 713c 0000 0000
00000180: 0d34 fa39 0000 0000 a92e bf3c 0000 0000
00000190: 2e1a 353f 3cfc f23e b2ce e03a 0000 0000
000001a0: 6b8d 863e 0000 0000 8e77 0b3c 0000 0000
000001b0: 0023 d53e 0000 0000 1932 273f c080 e03e
000001c0: 23b5 cf3a 0000 0000 a6a2 783e 0000 0000
000001d0: c9db 003c 0000 0000 a2ec c43e 0000 0000
000001e0: 536e 323c cf76 ec3b 5fd3 da37 0000 0000
000001f0: f9f2 823b 0000 0000 b4ba 0739 0000 0000
00000200: 446e cf3b 0000 0000 e7d7 f83d efb7 a63d
00000210: 3740 9a39 0000 0000 22a4 383d 0000 0000
00000220: 6b62 bf3a 0000 0000 6b3d 923d 0000 0000
00000230: cccf 8c3e 7532 3d3e d809 2f3a 0000 0000
00000240: 8188 d13d 0000 0000 0330 593b 0000 0000
00000250: 7ef4 253e 0000 0000 6aca 313f c02c ee3e
00000260: 345d dc3a 0000 0000 c5e3 833e 0000 0000
00000270: d2b4 083c 0000 0000 31eb d03e 0000 0000
00000280: f401 0000 f401 0000 f401 0000 0000 0000
00000290: f401 0000 0000 0000 f401 0000 0000 0000
000002a0: f401 0000 0000 0000 f401 0000 f401 0000
000002b0: f401 0000 0000 0000 f401 0000 0000 0000
000002c0: f401 0000 0000 0000 f401 0000 0000 0000
000002d0: 0000 0000 0000 0000 0000 0000 0000 0000
000002e0: 0000 0000 0000 0000 0000 0000 0000 0000
000002f0: 0000 0000 0000 0000 0d18 3b3d e637 fa3c
00000300: 8e82 e738 0000 0000 5c8f 8a3c 0000 0000
00000310: c79e 0f3a 0000 0000 337c db3c 0000 0000
00000320: 41e9 933e 30d5 463e 8af3 373a 0000 0000
00000330: 5034 dc3d 0000 0000 8e3f 643b 0000 0000
00000340: fe67 2e3e 0000 0000 0000 0000 0000 0000
00000350: 0000 0000 0000 0000 0000 0000 0000 0000
00000360: 0000 0000 0000 0000 0000 0000 0000 0000
00000370: 0000 0000 0000 0000 0000 0000 0000 0000
00000380: 0000 0000 0000 0000 0000 0000 0000 0000
00000390: 0000 0000 0000 0000 0000 0000 0000 0000
000003a0: 0000 0000 0000 0000 0000 0000 0000 0000
000003b0: 0000 0000 0000 0000 0000 0000 0000 0000
000003c0: 0000 0000 0000 0000 0000 0000 0000 0000
000003d0: 0000 0000 0000 0000 0000 0000 0000 0000
000003e0: 0000 0000 0000 0000 ba91 9f3b 208c 553b
000003f0: 1c98 4537 0000 0000 8f81 ec3a 0000 0000
0.0 0.0 0.0 0.0 0.0 0.0 0.0 0.0
0.0 0.0 0.25157022 0.17081594 0.0006174545 0.0 0.094588496 0.0
0.0030637828 0.0 0.14983368 0.0 0.0 0.0 0.0 0.0
0.0 0.0 0.0 0.0 0.0 0.0 0.985803 0.66889185
0.0024178096 0.0 0.37039554 0.0 0.0119973505 0.0 0.58672637 0.0
5.3486056e-06 7.8942014e-07 3.189196e-09 0.0 4.4802005e-07 0.0 1.4346042e-08 0.0
7.119352e-07 0.0 0.15883668 0.10687224 0.00038622154 0.0 0.059179474 0.0
0.0019169166 0.0 0.09374283 0.0 0.0 0.0 0.0 0.0
0.0 0.0 0.0 0.0 0.0 0.0 0.0 0.0
0.0 0.0 0.0 0.0 0.0 0.0 0.0 0.0
0.26890153 0.1826399 0.0006601779 0.0 0.1011359 0.0 0.003275864 0.0
0.16020505 0.0 0.039429694 0.026606584 9.615101e-05 0.0 0.014732992 0.0
0.00047722497 0.0 0.023337679 0.0 0.7074307 0.47458065 0.0017151444 0.0
0.26279768 0.0 0.008512391 0.0 0.41628265 0.0 0.6531082 0.43848228
0.001584683 0.0 0.24280795 0.0 0.007864901 0.0 0.38461787 0.0
0.010890561 0.0072163115 2.6086052e-05 0.0 0.0039962498 0.0 0.00012944156 0.0
0.0063302834 0.0 0.12150555 0.08140551 0.00029421013 0.0 0.045078404 0.0
0.0014601474 0.0 0.07140621 0.0 0.27502286 0.18476279 0.0006677187 0.0
0.10231114 0.0 0.003314019 0.0 0.16206548 0.0 0.69449484 0.46518517
0.0016812445 0.0 0.25759712 0.0 0.008343892 0.0 0.40804437 0.0
7e-43 7e-43 7e-43 0.0 7e-43 0.0 7e-43 0.0
7e-43 0.0 7e-43 7e-43 7e-43 0.0 7e-43 0.0
7e-43 0.0 7e-43 0.0 0.0 0.0 0.0 0.0
0.0 0.0 0.0 0.0 0.0 0.0 0.045677233 0.030544233
0.00011039256 0.0 0.016914062 0.0 0.0005478677 0.0 0.026792621 0.0
0.28888896 0.19417262 0.0007017186 0.0 0.10752165 0.0 0.003482792 0.0
0.17031857 0.0 0.0 0.0 0.0 0.0 0.0 0.0
0.0 0.0 0.0 0.0 0.0 0.0 0.0 0.0
0.0 0.0 0.0 0.0 0.0 0.0 0.0 0.0
0.0 0.0 0.0 0.0 0.0 0.0 0.0 0.0
0.0 0.0 0.0 0.0 0.0 0.0 0.0 0.0
0.0 0.0 0.004869667 0.0032584742 1.1777531e-05 0.0 0.0018043983 0.0

exp_avg f4 [32]
00000000: 0000 0000 31d7 fab9 0000 0000 e145 78ba
00000010: 0400 0000 72b7 c639 0000 0000 0000 0000
00000020: fbb5 01ba bb43 46b9 f155 513a 6633 49ba
00000030: f056 ce38 2462 ad39 60a2 023a 8038 4f3a
00000040: 0400 0000 0400 0000 0000 0000 9369 5439
00000050: f0ec 053a 0000 0000 0000 0000 0000 0000
00000060: 0000 0000 17a3 8ab8 33d2 3239 c4e3 15ba
00000070: 0000 0000 0000 0000 26a2 8f38 0400 0000
0.0 -0.00047844046 0.0 -0.0009470862 6e-45 0.0003790218 0.0 0.0
-0.00049480767 -0.00018907983 0.00079855236 -0.00076752005 9.839039e-05 0.00033070252 0.0004983302 0.00079048425
6e-45 6e-45 0.0 0.00020257225 0.0005108854 0.0 0.0 0.0
0.0 -6.6107306e-05 0.00017053708 -0.00057178386 0.0 0.0 6.848974e-05 6e-45

exp_avg_sq f4 [32]
00000000: 0000 0000 74ef 8337 0000 0000 1b29 8138
00000010: 3d7c a22e 1118 2537 0000 0000 0000 0000
00000020: 8011 8d37 3a67 2436 4248 3738 4a57 2938
00000030: 305f 3235 ca82 fb36 a3b5 8e37 95a7 3338
00000040: f401 0000 f401 0000 0000 0000 b2bd 3c36
00000050: 48fa 9537 0000 0000 0000 0000 0000 0000
00000060: 0000 0000 b413 a134 38d8 0536 75f5 bb37
00000070: 0000 0000 0000 0000 61b8 ac34 d862 0b29
0.0 1.5727921e-05 0.0 6.158856e-05 7.388976e-11 9.84037e-06 0.0 0.0
1.6816659e-05 2.449799e-06 4.3697895e-05 4.0374034e-05 6.6448683e-07 7.4956088e-06 1.70123e-05 4.2833e-05
7e-43 7e-43 0.0 2.81246e-06 1.787873e-05 0.0 0.0 0.0
0.0 3.0002923e-07 1.99444e-06 2.2406437e-05 0.0 0.0 3.217165e-07 3.0949933e-14

exp_avg f4 [8, 32]
00000000: 0000 0000 467e 0cbc 0000 0000 7ae6 30bc
00000010: 0400 0080 ec5b f4bb 0000 0000 0000 0000
00000020: ebae 88bc 127d 34bd 98d0 4abc 3bba 7fbc
00000030: 3791 a8bb 639b ddbc 3450 f4bc 0463 bebb
00000040: 0400 0000 0400 0000 0000 0000 d82a c8bc
00000050: df00 27bc 0000 0000 0000 0000 0000 0000
00000060: 0000 0000 eda5 4abc 0431 cfbc a8d3 18bc
00000070: 0000 0000 0000 0000 d24e 76bc 0400 0000
00000080: 0000 0000 5131 853c 0000 0000 37b5 a73c
00000090: 0400 0000 2da9 673c 0000 0000 0000 0000
000000a0: a794 013d 051c ab3d 8246 c03c 5170 f23c
000000b0: bcce 1f3c 5517 523d 149e 673d 3d7e 343c
000000c0: 0400 0080 0400 0080 0000 0000 fec3 3d3d
000000d0: 2f53 9e3c 0000 0000 0000 0000 0000 0000
000000e0: 0000 0000 211e c03c b66c 443d a0e2 903c
000000f0: 0000 0000 0000 0000 2582 e93c 0400 0080
00000100: 0000 0000 2826 81bb 0000 0000 c79d a2bb
00000110: 0400 0080 ffa0 60bb 0000 0000 0000 0000
00000120: 1d4b fbbb 4fea a5bc 6e70 babb 2914 ebbb
00000130: f0f4 1abb bcb6 4bbc 3796 60bc cb03 2fbb
00000140: 0400 0000 0400 0000 0000 0000 5d01 38bc
00000150: f684 99bb 0000 0000 0000 0000 0000 0000
00000160: 0000 0000 0749 babb 5c76 3ebc 9a7c 8cbb
00000170: 0000 0000 0000 0000 a56b e2bb 0400 0000
00000180: 0000 0000 43b0 603c 0000 0000 f974 8d3c
00000190: 0400 0000 2466 433c 0000 0000 0000 0000
000001a0: 6598 da3c 6a53 903d af2d a23c 7d7d cc3c
000001b0: f7ca 063c a234 313d ca5c 433d 883d 183c
000001c0: 0400 0000 0400 0080 0000 0000 c40f 203d
000001d0: cc8a 853c 0000 0000 0000 0000 0000 0000
000001e0: 0000 0000 be0b a23c a4ad 253d cf69 743c
000001f0: 0000 0000 0000 0000 0ef5 c43c 0400 0080
00000200: 0000 0000 d5c6 043c 0000 0000 212f 273c
00000210: 0400 0000 13f0 e63b 0000 0000 0000 0000
00000220: 0d2d 813c 4593 2a3d e2ac 3f3c 84ae 713c
00000230: 0c4f 9f3b 6f6f d13c fce4 e63c 0dee b33b
00000240: 0400 0080 0400 0080 0000 0000 592c bd3c
00000250: b1d4 1d3c 0000 0000 0000 0000 0000 0000
00000260: 0000 0000 8b84 3f3c c0cf c33c cd6e 103c
00000270: 0000 0000 0000 0000 92c7 683c 0400 0080
00000280: 0000 0000 eab3 133b 0000 0000 5afa 393b
00000290: 0400 0000 3b73 003b 0000 0000 0000 0000
000002a0: 80b2 8f3b 53c0 3d3c 6439 553b e36c 863b
000002b0: 0138 b13a f3fa e83b 0f6d 003c a428 c83a
000002c0: 0400 0080 0400 0080 0000 0000 c370 d23b
000002d0: 3b93 2f3b 0000 0000 0000 0000 0000 0000
000002e0: 0000 0000 1b0c 553b 3fd3 d93b 54ab 203b
000002f0: 0000 0000 0000 0000 8479 813b 0400 0080
00000300: 0000 0000 b056 8ebc 0000 0000 5239 b3bc
00000310: 0400 0080 7891 77bc 0000 0000 0000 0000
00000320: 857a 0abd e9db b6bd 717a cdbc 0c8b 01bd
00000330: eec7 2abc 7284 60bd 9d85 77bd 0ae3 40bc
00000340: 0400 0000 0400 0000 0000 0000 cfcb 4abd
00000350: 4e32 a9bc 0000 0000 0000 0000 0000 0000
00000360: 0000 0000 544f cdbc 94e9 51bd 89d5 9abc
00000370: 0000 0000 0000 0000 e68a f9bc 0400 0000
00000380: 0000 0000 5f0a 9c3c 0000 0000 fe79 c43c
00000390: 0400 0000 22b3 873c 0000 0000 0000 0000
000003a0: 18cf 173d 1976 c83d 0342 e13c 6703 0e3d
000003b0: 7338 3b3c 3721 763d a1ac 873d 4a74 533c
000003c0: 0400 0080 0400 0080 0000 0000 4c51 5e3d
000003d0: c27b b93c 0000 0000 0000 0000 0000 0000
000003e0: 0000 0000 d112 e13c 6f1e 663d 2abd a93c
000003f0: 0000 0000 0000 0000 2dc8 083d 0400 0080
0.0 -0.008575028 0.0 -0.010797137 -6e-45 -0.007457247 0.0 0.0
-0.01668497 -0.04406459 -0.012378834 -0.015608366 -0.005144264 -0.027051633 -0.0298234 -0.0058101434
6e-45 6e-45 0.0 -0.024434492 -0.010193079 0.0 0.0 0.0
0.0 -0.012368661 -0.025291927 -0.0093278065 0.0 0.0 -0.015033441 6e-45
0.0 0.016258867 0.0 0.020472152 6e-45 0.014139456 0.0 0.0
0.031635907 0.08354954 0.02347112 0.029594572 0.009753879 0.051291782 0.05654724 0.011016426
-6e-45 -6e-45 0.0 0.04632949 0.019326774 0.0 0.0 0.0
0.0 0.023451867 0.047955237 0.017686188 0.0 0.0 0.02850444 -6e-45
0.0 -0.003941316 0.0 -0.004962656 -6e-45 -0.0034275649 0.0 0.0
-0.0076688663 -0.020253329 -0.005689672 -0.007174034 -0.002364453 -0.012433704 -0.013707689 -0.0026705142
6e-45 6e-45 0.0 -0.011230794 -0.0046850396 0.0 0.0 0.0
0.0 -0.005684975 -0.011624899 -0.0042873146 0.0 0.0 -0.006909805 6e-45
0.0 0.013713899 0.0 0.017267691 6e-45 0.011926208 0.0 0.0
0.026683996 0.0704716 0.019797174 0.024962181 0.0082271015 0.043263085 0.047695912 0.009292014
6e-45 -6e-45 0.0 0.039077535 0.016301535 0.0 0.0 0.0
0.0 0.01978099 0.0404488 0.014917805 0.0 0.0 0.024042632 -6e-45
0.0 0.008104046 0.0 0.0102041075 6e-45 0.007047662 0.0 0.0
0.015768552 0.041644353 0.011698933 0.01475108 0.004861718 0.025565831 0.02818536 0.0054910243
-6e-45 -6e-45 0.0 0.023092436 0.009633229 0.0 0.0 0.0
0.0 0.011689316 0.023902774 0.008815479 0.0 0.0 0.0142077375 -6e-45
0.0 0.0022537657 0.0 0.002837798 6e-45 0.0019599933 0.0 0.0
0.0043852925 0.011581498 0.0032535428 0.004102336 0.0013520719 0.0071099936 0.007838502 0.0015270901
-6e-45 -6e-45 0.0 0.0064221337 0.0026790637 0.0 0.0 0.0
0.0 0.0032508436 0.006647497 0.0024516182 0.0 0.0 0.0039512534 -6e-45
0.0 -0.01737532 0.0 -0.021877918 -6e-45 -0.015110366 0.0 0.0
-0.03380825 -0.08928663 -0.025082799 -0.031626746 -0.0104236435 -0.05481381 -0.060430158 -0.01177288
6e-45 6e-45 0.0 -0.049510773 -0.02065387 0.0 0.0 0.0
0.0 -0.02506224 -0.051248148 -0.01890065 0.0 0.0 -0.03046174 6e-45
0.0 0.019047914 0.0 0.023983952 6e-45 0.01656491 0.0 0.0
0.037062734 0.0978815 0.027497297 0.034671213 0.011427033 0.06009027 0.06624723 0.012906143
-6e-45 -6e-45 0.0 0.05427675 0.02264202 0.0 0.0 0.0
0.0 0.027474793 0.056181367 0.020720083 0.0 0.0 0.033394028 -6e-45
