deepsets/best_model.pt (torch, 25698 bytes, 33 tensors)

phi.0.weight f4 [16, 2]
000000 77 e5 66 be d5 f9 93 3c fe 92 70 3e f5 0f 9f 3e
       -0.22548471 0.018063465 0.23493573 0.31066862
000010 e5 ad e5 3e 1a 2c c0 3e 60 9e 23 3e 89 25 b5 be
       0.44859233 0.37533647 0.15978384 -0.353802
000020 7a 04 a6 be 09 ea c5 be 14 76 0b 3f 32 34 60 be
       -0.3242529 -0.38655117 0.5447705 -0.21894911
000030 f6 3e e2 be 2b 20 08 bd 3c 8a 79 be e3 63 a7 be
       -0.4418866 -0.033233803 -0.24369138 -0.32693395
000040 3f 13 91 be a5 ef f7 3d fe da 33 3e 1f dc a3 3e
       -0.28334996 0.121062554 0.17564008 0.32003877
000050 48 56 3c 3f 88 1d 10 3f d8 fe 51 be d4 0c b9 3d
       0.73569155 0.5629506 -0.20507371 0.0903565
000060 b2 f3 34 3f 48 c2 51 3e 6f c9 c4 3e 93 d6 5c be
       0.7068435 0.20484269 0.38434932 -0.21566229
000070 53 32 0d bf 9b ef c2 be 28 36 ec be 36 f0 31 bf
       -0.55154914 -0.3807343 -0.46135068 -0.6950716

phi.0.bias f4 [16]
000000 ef 69 12 bf 17 30 5a 3e b0 a9 ef 3e ce e7 28 bf
       -0.5719289 0.21307407 0.4680915 -0.65978706
000010 6c 6e d6 3d 3a 1c 13 3f 82 d4 a8 3e fe da 0b 3f
       0.1047028 0.57464945 0.3297463 0.5463103
000020 b6 31 82 3e 57 f5 12 bf 86 f5 22 3e 63 bf be bd
       0.2542855 -0.5740561 0.15913972 -0.09313848
000030 c3 12 1d 3f 63 22 90 bd 31 a1 75 be 55 90 1d 3e
       0.61356753 -0.07037809 -0.23987271 0.1538709

phi.2.weight f4 [8, 16]
000000 54 ec dd 3d d6 64 c7 bd 05 1c d3 bc 2a d1 2e 3c
       0.10836092 -0.0973603 -0.025770197 0.010669986
000010 4a 7e 3a be 00 90 90 3c 74 ce e6 bd 4e 7a 4f be
       -0.18212238 0.01764679 -0.112698466 -0.202615
000020 35 00 ea bc d9 ac 3e be e5 ac b1 3d b4 f1 8a bd
       -0.028564552 -0.18620624 0.08675555 -0.067843825
000030 85 07 27 3e a6 5f da 3c 38 7b 34 3d 7c f6 5d be
       0.16311462 0.026656937 0.044062823 -0.21676058
000040 5e 42 41 3e 50 df ec 3c d0 c1 6f 3d d8 4d 2c be
       0.18872973 0.028915077 0.058534443 -0.1682657
000050 7c d3 0a 3e 98 8e 22 3d cc fa 78 be 30 48 72 be
       0.13557237 0.03968677 -0.24314421 -0.2366035
000060 68 fe 8f bd 7c fc d2 3d 10 66 66 be 10 ed 3b 3d
       -0.07030946 0.10302064 -0.22499871 0.045880377
000070 00 cc 85 bc 44 91 bd 3d ae dd 12 be 5e de 1c be
       -0.016332626 0.09256223 -0.14342377 -0.15319201
000080 16 9f 07 3e 5e 82 91 3e 52 09 a1 3e ec 03 63 be
       0.1324428 0.28419775 0.31452423 -0.22169465
000090 88 22 f8 bd dc 18 2c be 56 ea 1c 3e 1a 0c 73 3e
       -0.12115961 -0.16806358 0.15323767 0.23735085
0000a0 23 ec 78 3e 35 4f dd bd 6a 8d 55 3e 36 6c 42 bb
       0.24308829 -0.10806123 0.20854726 -0.002966655
0000b0 95 4b 19 be 3e 9f 16 3e 10 ba 53 be e0 6f 5a 3c
       -0.14970239 0.14709184 -0.20676446 0.013332337
0000c0 14 66 7b 3e 12 66 53 be 84 19 1e be e0 23 88 3e
       0.24550658 -0.20644405 -0.15439421 0.2658987
0000d0 a8 ff a2 bd 13 54 d5 3c 54 ca 37 3e 7e f1 41 be
       -0.07958919 0.026041066 0.17948276 -0.18939778
0000e0 6b 7b 05 bd 41 92 84 3e c3 32 28 3e 9f e2 36 3e
       -0.032588404 0.25892833 0.16425614 0.17859887
0000f0 7a 17 43 3e c0 c8 d5 3b 90 3c c2 bc 30 ba 57 3e
       0.19051924 0.0065241754 -0.02371052 0.21067119
000100 88 8a 03 be 8e a4 28 3e 11 62 90 3e c9 bd 26 3e
       -0.12845814 0.16469023 0.2819982 0.16283335
000110 a0 08 5e 3c f2 28 2c 3e 98 cd 2f be 7c 65 cf 3d
       0.013551861 0.16812494 -0.17168272 0.101267785
000120 17 c5 75 be b1 13 08 3e d4 82 3d 3e d6 49 3b be
       -0.24000965 0.13288762 0.18506938 -0.18289885
000130 1d 39 4b 3e 03 e4 91 3d 2c 6c 1e be 58 1b 68 be
       0.19846006 0.07123568 -0.15470952 -0.22666681
000140 24 b1 d4 bd a6 18 fd bd 93 40 55 3e 10 65 d5 bb
       -0.103853494 -0.12358217 0.20825414 -0.0065122917
000150 f0 03 e9 3d d1 56 60 bd 0a 83 2b 3e 4a 47 29 3e
       0.11377704 -0.054770295 0.16749206 0.16531101
000160 19 28 3f be 11 d7 08 bd 8c b6 2d 3e b6 f8 61 bd
       -0.1866764 -0.03340823 0.16964167 -0.05516883
000170 6c 2e 4e bd 1d 87 2d 3d 68 92 4d bd 44 ce fc 3d
       -0.05033724 0.042365182 -0.050188452 0.123440295
000180 b6 95 5c 3e 49 6c 43 3e 95 5c ce 3b 93 53 b8 3d
       0.21541485 0.19084276 0.0062976577 0.090003155
000190 d4 9c 80 3d 6c 6d 2e 3e 00 52 29 bb 04 31 0c 3e
       0.062799126 0.17033929 -0.002583623 0.13690573
0001a0 da ec 33 be d5 e5 04 3e 50 5c 18 3e 0a 41 96 3d
       -0.1757082 0.12978299 0.14878964 0.07336624
0001b0 81 10 59 3e 83 96 07 bd d0 5a 64 3e 1c ec d4 bd
       0.21197702 -0.033102524 0.22300267 -0.10396597
0001c0 78 d0 2c 3e 3e 21 01 be 62 41 f7 3d e2 80 b1 bd
       0.168764 -0.12610337 0.12073018 -0.086671606
0001d0 cc 04 2f 3e a1 ea a2 3d 56 32 4b 3e e6 ee 00 3e
       0.17091674 0.07954908 0.1984342 0.12591133
0001e0 7e bf 5a be 3c 35 0b be 98 3a 96 3d 6b 0f 52 3e
       -0.21362111 -0.13594526 0.073353946 0.20513694
0001f0 b0 cf 86 3d fa 36 7c 3e fc 79 1d be e8 7b f3 3d
       0.06582582 0.24630347 -0.15378565 0.118888676

phi.2.bias f4 [8]
000000 a7 55 31 bd bc 3c d8 bd ec bf f3 bd 9a c9 82 3e
       -0.043294575 -0.10558459 -0.119018406 0.25544435
000010 03 a0 4b 3e c4 db a5 3d f3 4d d9 3c 65 c5 0a be
       0.19885258 0.080985576 0.026526427 -0.13551863

rho.0.weight f4 [32, 10]
000000 ff 04 ad bc ed d3 42 be ed b0 f7 bd 6b 6b 9b 3e
       -0.021120546 -0.19026156 -0.12094293 0.3035539
000010 e6 55 0e 3e e1 da 36 be b8 a7 49 be e3 78 73 be
       0.13899955 -0.17856933 -0.19692886 -0.23776583
000020 af 5c 66 3c 99 a7 67 be dc d6 8d 3e 5c d4 7b be
       0.014060183 -0.22622527 0.27702987 -0.24592727
000030 a5 53 08 bd 96 14 63 3e d2 df 17 3e b9 7a 7c 3e
       -0.033282895 0.22175822 0.14831474 0.2465619
000040 14 2c 27 be 92 3e 32 3e 89 68 23 3e 9b 4e dc bd
       -0.16325408 0.17406681 0.15957846 -0.1075718
000050 f5 7f 2b bd c0 61 85 be 54 d6 a5 bd b3 62 8f 3e
       -0.041870076 -0.2605114 -0.080975205 0.2800499
000060 37 ab 0d be f1 86 c3 3d 3d 98 35 3e 7c b1 0b be
       -0.13834845 0.095472224 0.17733856 -0.13641924
000070 4c a6 07 be 3a 7d 70 be 0d 6a 77 be 75 38 5e be
       -0.13247031 -0.2348527 -0.24161549 -0.21701224
000080 3a 13 ba bd 34 3c c8 3c d1 8a 9a be 24 24 4d 3d
       -0.090856984 0.02444277 -0.30184034 0.050083295
000090 b3 60 58 3e 04 f9 1d be 51 e3 b9 3d 8d 76 37 3e
       0.21130638 -0.15427023 0.0907656 0.17916317
0000a0 94 1c b0 3e fa f4 b4 3c 50 4d bc bd 22 72 55 3e
       0.34396803 0.02208947 -0.09194434 0.2084432
0000b0 e1 42 04 3d 12 07 9c 3e ae 1c 4a 3e 3a e2 04 3e
       0.032290343 0.30474144 0.19737503 0.12976924
0000c0 69 85 39 be 68 26 2d bd dc 40 4f 3e 3a 21 b1 3e
       -0.18117298 -0.042272955 0.20239586 0.34595662
0000d0 3e 6f 0a be 43 26 34 be a6 91 68 be cd 2f 73 bd
       -0.13518998 -0.1759272 -0.2271181 -0.05937176
0000e0 78 2f 5a be dc ad 98 3e 9e 6c 09 3e 1a 21 87 3e
       -0.2130717 0.29820144 0.1342034 0.26392442
0000f0 a5 57 a8 3e d6 be a4 bc c9 be 04 3e dd 24 bb bd
       0.32879367 -0.020110529 0.12963404 -0.091378905
000100 ae 82 6f be fb cf 96 be 19 af a9 bd 47 0c a3 3e
       -0.23389694 -0.29455552 -0.0828535 0.31845304
000110 7d 3f a9 3d 10 71 5a 3e 91 3b 9c 3d f0 20 05 3e
       0.082640626 0.21332192 0.07628549 0.13000846
000120 6e 93 07 3d b1 74 83 3e c8 1f f6 3a 73 96 86 3e
       0.033099584 0.25674966 0.0018777782 0.2628666
000130 75 00 83 3c 3f 3a 99 3e d3 cf 58 be 0c 55 98 3e
       0.015991429 0.2992725 -0.21173029 0.29752386
000140 49 51 e7 3c 1a cd 9c be c3 2e 39 be 61 25 28 3e
       0.028237002 -0.3062523 -0.18084244 0.16420509
000150 08 35 3d be 0b ed 63 be 7e 01 f6 3d 8e 16 8a 3e
       -0.18477261 -0.22258393 0.12012003 0.26970333
000160 74 4e 7b be b7 29 86 3d 0f 29 be bd d9 bc d0 bd
       -0.24541646 0.06550925 -0.09285175 -0.1019227
000170 a8 ff 18 be 34 6a 3e be b2 e1 96 bd 99 a1 32 3e
       -0.14941275 -0.18595201 -0.07367267 0.17444457
000180 3d 1e 9c 3e 47 fc 84 3e fa a3 e7 3c 11 80 93 be
       0.3049182 0.25973722 0.028276432 -0.28808644
000190 e8 d2 dc 3d f3 a4 e5 3c 1a b4 1e 3e d8 c0 d5 bc
       0.10782415 0.028032755 0.15498391 -0.026092932
0001a0 30 10 3b 3e 59 78 94 be 34 7a e5 3d c0 80 76 3d
       0.18267894 -0.28998068 0.11204949 0.06018138
0001b0 54 c8 2b be a6 21 78 3e b9 00 f0 3d 7a 3b 80 be
       -0.16775638 0.24231586 0.11718888 -0.25045377
0001c0 31 bc 8d 3e 9a 4d 4f be e8 c2 26 3d 6a 87 51 3e
       0.2768264 -0.20244446 0.04071322 0.20461813
0001d0 f5 12 01 be 11 8d 53 be 47 c1 4a be ab 02 76 be
       -0.12604888 -0.20659281 -0.19800292 -0.24024455
0001e0 8e 69 13 3e a0 4b 98 3d 00 a8 8a be be 70 dc bb
       0.14395735 0.07436299 -0.270813 -0.006727307
0001f0 95 37 64 be b7 f9 3a be 94 b2 2e be 66 9c 7c be
       -0.22286828 -0.18259321 -0.1706031 -0.24669036
000200 d8 28 95 be 5e 6a 94 be 83 22 9b 3d 00 3f 86 be
       -0.29132724 -0.28987402 0.07574942 -0.2621994
000210 ed 76 a0 be cf a4 15 3e dd 0f 77 be 99 09 81 be
       -0.31340733 0.1461365 -0.24127145 -0.25202635
000220 18 05 93 be 99 a8 54 be 99 a4 9e 3d bc 43 8b bd
       -0.28714824 -0.2076744 0.07746238 -0.06800029
000230 0d bd 10 3d c0 92 a6 3d b0 f7 8b bd e3 cc b3 bd
       0.035336543 0.08133459 -0.06834352 -0.087793134
000240 2a 37 bc 3d a6 b2 99 bd 15 cd 83 3e ea 3d ee bd
       0.09190209 -0.075047776 0.25742403 -0.11632903
000250 9b 28 00 3e d3 5d ef 3d 38 49 38 be c9 de 4d 3e
       0.1251549 0.116878174 -0.1799668 0.20104517
000260 7c 9e 77 3e c5 a7 16 3d 6e 37 6d 3d 7b 08 75 bd
       0.2418155 0.03678109 0.05791419 -0.05982254
000270 23 ad 75 be b8 fc 7a be 23 a5 44 3e 6e 5e 17 3e
       -0.23991828 -0.24510467 0.1920362 0.14782116
000280 3b 50 5c be 7f eb fc 3d 21 6f dd 3d ec 74 0a be
       -0.2151498 0.12349605 0.10812212 -0.13521165
000290 90 00 39 3e 77 42 6e 3e 8b 3b 6d 3b 1f c0 82 be
       0.18066621 0.23267542 0.003619882 -0.25537202
0002a0 5d 23 0b be 7a 78 20 3e 3d 5a 6a 3e b2 0f 0a be
       -0.13587709 0.15670958 0.22885986 -0.1348255
0002b0 30 00 88 3d 88 64 8d 3e e0 62 ee bc 78 46 a5 3e
       0.06640661 0.27615762 -0.029099882 0.32280326
0002c0 c0 e9 87 be c7 96 99 3d b0 24 35 3e b9 89 4c 3e
       -0.26545525 0.074994616 0.17689776 0.19974412
0002d0 c3 30 8b bd 78 a4 91 be 53 ea 93 3e d2 0e 85 3e
       -0.0679641 -0.28445792 0.28889713 0.2598787
0002e0 2b f4 f8 bd e7 2b 67 be e4 e6 4d 3e 1d 76 7a be
       -0.12155946 -0.22575341 0.20107609 -0.24459119
0002f0 9f 00 a1 be 8b 7e 9a 3e 83 47 bc 3e f5 78 94 3e
       -0.31445786 0.3017467 0.3677331 0.28998533
000300 e9 26 b0 bb 42 5a d7 3d 75 33 2a be 35 07 99 3e
       -0.005375732 0.10515262 -0.16621192 0.2988831
000310 dc cf 94 3e e2 5e 79 be f0 9b 4a be 3e ff c1 3e
       0.29064834 -0.24352601 -0.19786048 0.37890047
000320 c5 6e 0c be 00 ff 78 be a2 43 11 3e d5 bb 6a 3e
       -0.1371413 -0.24316025 0.14185956 0.22923215
000330 99 27 f0 3d 42 c1 48 3d 9e 8c ad 3d 10 2c 59 3e
       0.11726303 0.04901243 0.08474086 0.21208215
000340 9b d3 a9 bd 7c b0 60 3d 34 43 e6 3d 2f cd 24 be
       -0.08292314 0.05485581 0.11243287 -0.16093896
000350 f0 28 db bd 67 1c 82 3e 97 62 d6 3d 00 cf 9f 3e
       -0.107011676 0.25412294 0.10468023 0.31212616
000360 24 0b e0 3d ca 2f 6b 3c 4c a9 3f be d8 26 5f 3d
       0.10939625 0.0143546555 -0.18716925 0.054480404
000370 a3 03 2a 3d e5 5a 37 3d 37 4f 48 be f4 31 94 be
       0.041507374 0.04476442 -0.19561468 -0.2894436
000380 10 1a d9 3c a7 3a 51 3e e8 ba 02 ba ef 47 cf 3d
       0.026501685 0.2043253 -0.00049869576 0.10121142
000390 ea b3 7d 3e ba c6 ad bd 56 cd f2 bd 2b c5 51 bb
       0.24775663 -0.0848517 -0.11855571 -0.003200839
0003a0 c7 75 b8 3d d5 67 86 be 9c 70 a0 3c 1c bd 0d be
       0.09006839 -0.26251093 0.019584946 -0.13841671
0003b0 6f aa 57 be 1f 18 b9 3d e5 45 a2 3b 8c b2 86 be
       -0.21061109 0.09037804 0.0049521797 -0.26308095
0003c0 82 36 8b be d5 90 93 3e ec 70 7b 3e 61 1b e9 bd
       -0.27190024 0.28821436 0.24554795 -0.11382175
0003d0 45 fa 94 be b1 1a 6b 3e 36 c2 74 be 87 03 41 3e
       -0.2909719 0.229594 -0.2390221 0.18849002
0003e0 5f 9b 38 be f0 c1 06 be 17 fd 14 3e 4e 4a d3 bd
       -0.1802802 -0.13159919 0.14549671 -0.10316907
0003f0 0c 13 b5 3e 13 f9 d2 3d 1d 41 da 3d 8d 45 3f bd
       0.35366094 0.103014134 0.106569506 -0.04669719

rho.0.bias f4 [32]
000000 b7 dc 4f 3d 97 3d 8b be 6b af 78 3e 1f 3f 86 be
       0.0507476 -0.27195427 0.24285667 -0.26220033
000010 af c6 79 3e 64 5f 94 be 57 a4 a3 3d 96 74 5e be
       0.24392198 -0.28979027 0.0799033 -0.21724162
000020 e2 20 57 3d 28 4c 69 be 78 17 b2 3d d5 ea 7a 3d
       0.052521594 -0.22782958 0.086958826 0.06125911
000030 a3 7f 8e bb b1 5e 6b be 47 37 72 3d 32 9e 62 3d
       -0.0043487116 -0.2298534 0.059134748 0.055326648
000040 cf aa 7e be 3f ca d8 bc 05 99 c5 bd f5 57 8e 3e
       -0.24869846 -0.026463626 -0.09648327 0.2780148
000050 11 27 a3 3d d2 b9 f9 bd 39 39 39 3d 10 2d 81 be
       0.07966436 -0.121936455 0.045220587 -0.25229692
000060 60 21 35 3e a4 99 cf 3c 2b bd e0 3d 8d 7b ae 3e
       0.17688513 0.025341816 0.10973581 0.34078637
000070 50 cf 43 3e d7 5d 4c be 5c a4 a2 3d b1 9a af 3d
       0.19122052 -0.19957672 0.07941505 0.08574427

rho.2.weight f4 [8, 32]
000000 b4 d5 67 bd 7d a4 a0 3e 09 e4 88 bd 07 71 74 3d
       -0.056600288 0.31375495 -0.06684119 0.059678104
000010 f9 df 94 3d 98 a8 23 be 08 c3 12 3e 2e dc c7 3d
       0.07269282 -0.15982282 0.14332211 0.09758793
000020 8d d5 e2 bb 6c ac 77 bd 7e 6c cc 3d 9a 16 2d bd
       -0.00692243 -0.06046717 0.09981631 -0.042257883
000030 c7 f2 55 bc 2f 76 2b bd 58 05 bc 3d 67 3c 00 bc
       -0.013058371 -0.041860756 0.09180707 -0.007826901
000040 f3 5f 7c bd 1a b0 84 3e 5c 96 0b 3e 5a b9 48 bd
       -0.06161494 0.25915605 0.13631576 -0.04900489
000050 a2 b3 a5 3d dc f0 63 3e 56 13 ad bc 99 25 1c be
       0.08090903 0.2225985 -0.021127384 -0.15248717
000060 ab 63 ea ba 58 3c 9b 3d 3a e5 a6 3d 95 e5 ed 3a
       -0.0017882487 0.07579869 0.0814919 0.0018150086
000070 29 ba cb bd bf 93 f3 bb f8 cb b9 3d fc bf 64 bd
       -0.099476166 -0.007433384 0.09072107 -0.055847153
000080 ff 22 21 be bf 56 88 3e 10 ab d1 bb d7 e2 54 3d
       -0.15736006 0.26628682 -0.006398566 0.051974144
000090 fc 58 4a bc 48 c5 81 bd 79 a8 0b 3e 5b 6d 23 3d
       -0.012350317 -0.063364565 0.13638486 0.03989921
0000a0 41 82 c3 bc 98 b9 30 bd fd 9d 3c 3e 6b 6e c4 bd
       -0.02386582 -0.043145746 0.18419643 -0.09591373
0000b0 9c 40 17 3e 21 c6 d5 3d 16 0f 95 3d c3 c7 a3 bc
       0.1477074 0.10438181 0.07278268 -0.019992715
0000c0 be 07 9c 3d 3a d3 b3 3d 21 18 30 be 90 d3 db bd
       0.07618664 0.08780523 -0.17196704 -0.10733712
0000d0 a7 85 e8 3d ca a0 a7 3e e0 c1 0a 3e 77 f8 08 be
       0.11353617 0.3273986 0.1355052 -0.13376032
0000e0 76 ba d3 3d a9 c5 20 3e e3 96 bd 3c fe 02 f7 bd
       0.10338299 0.15700401 0.023143237 -0.120611176
0000f0 dc 84 11 be 82 51 37 be 43 9e a3 3d 91 3b 54 be
       -0.14210838 -0.17902187 0.079891704 -0.20725848
000100 b7 30 76 bd e0 d9 1b be f9 e0 14 3e a3 95 b8 3d
       -0.06010505 -0.15219831 0.14538945 0.09012916
000110 02 7c f3 3d aa 79 83 3d 5f 93 6c be ff 17 98 bd
       0.11888887 0.0641969 -0.23103093 -0.07426452
000120 81 d6 d1 bc e6 8e 0d 3d ce a3 4a be 0c e4 c3 3d
       -0.025614979 0.034560107 -0.19789049 0.09564981
000130 0a b5 35 bd 2c 50 21 be a0 2e 9a 3c d4 b8 33 be
       -0.044362105 -0.1575324 0.01882106 -0.17550975
000140 9d 9d 10 3d 6f 55 9d bd 21 20 91 3d 1d fd 62 bd
       0.03530656 -0.07682311 0.07086206 -0.05541717
000150 fb 19 1d 3e 56 c5 24 be 18 1b 9e 3c 9d fc db 3d
       0.15341942 -0.16090903 0.019300029 0.107415415
000160 24 fc 15 be a6 b9 9f be 1d b1 bf bd 80 d6 0b be
       -0.14646965 -0.31196326 -0.093599536 -0.13656044
000170 01 87 10 3e e0 10 e6 3a f7 fd 14 bd e9 6c 8c bd
       0.14114 0.0017552637 -0.036375012 -0.068567105
000180 e7 7e 74 3d 00 4a 7e 3e d7 89 d5 3d f2 91 bc 3d
       0.059691336 0.24832916 0.104266815 0.09207524
000190 22 5a 2a 3e 82 1e 04 3d a6 92 48 3e 22 1e a3 3c
       0.16635945 0.032255657 0.19587192 0.01991183
0001a0 b3 ad c5 bd ba 7b 16 3e 65 a7 c8 bb 32 83 23 bd
       -0.09652271 0.14695635 -0.0061234706 -0.03992004
0001b0 2a 1b 80 bd 3a 49 25 bd 6b 50 c0 bd 22 71 25 be
       -0.06255181 -0.040353037 -0.093903385 -0.16156438
0001c0 78 d4 da bd 1d d0 88 3d 98 fc 97 3d aa 63 33 3e
       -0.106850564 0.066803195 0.07421225 0.17518488
0001d0 9a 68 3a 3c 7a 15 9b 3e 97 a7 73 bd 31 d7 0c 3e
       0.011377478 0.30289823 -0.059485998 0.13753964
0001e0 d4 76 00 3b 50 c8 75 3e 68 35 fc 3d d9 12 85 3d
       0.0019602077 0.24002194 0.12314874 0.064977355
0001f0 75 2e 10 be 65 b0 0d be c1 b1 d7 bc ac 63 eb bd
       -0.14080222 -0.1383682 -0.026329877 -0.1149362
000200 d8 69 03 3d d3 8c 3d 3d e0 8d cc 3d 67 90 0b 3e
       0.032083362 0.04627688 0.09987998 0.13629304
000210 20 ab 9d 3d cb 3e b8 3d a7 90 22 3e 96 9c 2c be
       0.07698655 0.08996352 0.15875493 -0.16856608
000220 47 e9 b7 3d 7d a6 44 3e b8 63 43 3d 9d 9d 20 be
       0.08980041 0.19204135 0.04770252 -0.15685125
000230 4c 32 b2 3c 0d d8 2b 3e 8a aa 54 bd 91 22 38 ba
       0.021752499 0.16781636 -0.05192045 -0.0007024194
000240 2d 8b ec 3d a9 88 52 3d 4e 2c 9e 3d 53 7d cb 3c
       0.11549983 0.05139986 0.07723294 0.024840033
000250 d1 de 9e 3d 15 ab 85 3e 79 87 b9 3d bf 53 1d 3e
       0.077573426 0.26107088 0.090590425 0.15363978
000260 31 0d 07 bd 60 d5 97 3e 7b 2f d3 bd 19 6c d7 bd
       -0.032971565 0.2965498 -0.103117906 -0.10518665
000270 2d 81 2f be 3c a2 97 3b 9f d9 35 3e 12 5c 26 be
       -0.1713912 0.004627494 0.17758797 -0.1624606
000280 d4 92 ae 3d 59 2e 7d 3e b1 28 ce bd 1a 6b 81 3d
       0.08524099 0.24724711 -0.10066355 0.06319256
000290 40 c9 8b 3e 0f ba 6c bd ee 52 e6 3d 3c b0 ad 3d
       0.2730198 -0.057794627 0.11246286 0.0848088
0002a0 d4 3e 12 be be 86 90 bc 21 fb 2e 3e dc 32 47 bd
       -0.1428178 -0.017642375 0.17087986 -0.048632488
0002b0 e3 07 d5 bd 7a 7b 15 be ff 00 3b 3e f3 b4 75 bc
       -0.10401895 -0.14597884 0.18262099 -0.014996755
0002c0 58 aa fd 3c 34 09 f0 3d 3a a5 10 3e 43 4b 7f 3e
       0.030965015 0.11720505 0.14125529 0.24931054
0002d0 f0 eb 00 3e 0a 28 66 3d 70 a3 57 3d 95 97 68 bd
       0.12590003 0.056190528 0.0526461 -0.056785185
0002e0 83 15 28 3e 22 c6 49 3e 5f fd 9a bd 3e 7c 70 3e
       0.16414456 0.19704488 -0.07567858 0.23484895
0002f0 3b 1d 00 be ee 05 66 bd 5c 22 a0 bd 23 34 04 3d
       -0.1251115 -0.056158 -0.078190535 0.032276284
000300 55 25 8d bd 8d 72 9b 3e 81 08 be bc b5 0a 0c 3e
       -0.06891886 0.30360833 -0.023197414 0.1367596
000310 0c 07 a4 3d 92 d3 12 be e2 37 84 3d 52 67 bf 3c
       0.080091566 -0.1433852 0.06455971 0.023364697
000320 91 59 ea bd b0 21 be 3d 80 77 dc 3c 43 2a 72 bd
       -0.11442865 0.09283769 0.02691245 -0.059122335
000330 65 a4 0b bd 86 93 d8 3d 82 d5 ea bd 4d f0 11 3e
       -0.034092326 0.10575013 -0.11466505 0.14251824
000340 65 ac 1d 3c bd ff 33 3e 7d fd f6 bc 83 44 a5 bd
       0.009623622 0.17578025 -0.03015017 -0.08069708
000350 d6 fa 15 bb 6c 26 ab 3d 1f 0a 34 3b f9 1c 82 3c
       -0.0022885106 0.08356938 0.0027471853 0.015882956
000360 87 83 23 bd 3b 65 dc 3b 14 2e 04 3d 0c 5d 23 bd
       -0.039920356 0.006725935 0.032270506 -0.03988366
000370 a9 4e 2f be f6 d8 45 be 49 84 cb bd 51 02 c5 bc
       -0.1711985 -0.19321045 -0.09937341 -0.024048956
000380 db 83 39 bd 81 3c 8c bd b7 5b 37 bd 82 c1 67 3d
       -0.045291763 -0.06847478 -0.0447652 0.056581028
000390 5b 9f 45 be a7 88 a8 3d 38 c2 8a bc cc ec 40 3e
       -0.1929907 0.08229189 -0.016938314 0.18840331
0003a0 aa 80 15 3d 0f 2e 3a be c3 53 9b bc d6 bb 0f be
       0.036499657 -0.18181632 -0.01896084 -0.14036497
0003b0 4c b6 da 3d 32 29 01 3d c7 7a aa bb 34 19 b9 3d
       0.106793016 0.031533428 -0.0052026245 0.0903801
0003c0 a5 99 a1 bd c1 e8 7e be ca 20 ad 3d 6e 18 34 be
       -0.078906335 -0.24893476 0.0845352 -0.17587444
0003d0 7d 76 ed bd fc 80 a6 be 12 2a 19 3d b0 01 59 bd
       -0.115948655 -0.32520282 0.037393637 -0.052980125
0003e0 ec ee b3 3d 1d 28 80 bd 05 9f 0e be 9d c2 ef 3d
       0.08785805 -0.06257651 -0.13927849 0.117070414
0003f0 af e7 4e 3d ab d2 8c 3e cd 1c 11 3e 85 e4 56 bc
       0.05051392 0.27504477 0.14171143 -0.013116007

rho.2.bias f4 [8]
000000 fb 77 2b bd 7c ed be bc 31 6f a4 3c 6a 51 cf bd
       -0.04186247 -0.0233066 0.020072551 -0.101229504
000010 50 94 e5 bd 54 eb 70 bd 44 77 45 bd de b7 38 bd
       -0.11209929 -0.058818176 -0.048209444 -0.045097224

decoder.0.weight f4 [16, 8]
000000 5f 2a 94 be c5 d5 52 bd 12 06 44 bd 25 9f 1b be
       -0.28938577 -0.051473398 -0.04785735 -0.15197428
000010 b7 de 65 be 0c c6 74 3e ae 59 cf be 12 c6 b0 bd
       -0.2244824 0.23903674 -0.40498108 -0.08631529
000020 49 2e 65 3e 69 be 2e be 0d 3c 92 be 17 f3 73 3e
       0.22380938 -0.17064823 -0.2856144 0.238232
000030 d1 43 b0 3d 73 bd c1 3e 32 36 00 3f 29 ed f6 bd
       0.08606685 0.3783985 0.50082695 -0.120569535
000040 31 e7 4c 3e 22 f1 43 3e 99 19 8a be f1 ce 24 3e
       0.20010068 0.19134954 -0.26972654 0.16094567
000050 0b 6c 93 3e 39 75 16 bd 3b d9 fd 3d 68 7b d5 3d
       0.28793368 -0.036732886 0.12394949 0.104239285
000060 c5 b6 ca 3e 71 b6 e4 3e 3e e8 25 bc d0 75 4a 3e
       0.39592567 0.44670442 -0.010126172 0.19771504
000070 22 72 fb 3e cc 30 6f 3e 07 1f d8 3e 62 2f 9e be
       0.49110514 0.23358458 0.42211172 -0.30895525
000080 4a 32 d5 be a7 94 89 bc 62 03 7d 3d fd 55 3c 3e
       -0.4163993 -0.016794516 0.061770804 0.18392177
000090 15 bf 1d be c6 b4 56 3e ad bf df be dc bb 8f 3e
       -0.15404923 0.20967397 -0.43700925 0.28073013
0000a0 dd ec b9 be 92 b4 99 bd de 7a bc bd 91 5e 67 3d
       -0.36313525 -0.07505144 -0.092031226 0.05648667
0000b0 0a 36 b3 be 5a 2d 5f 3e 35 e1 08 3e 48 ee 9b 3e
       -0.35002166 0.21794644 0.1336716 0.30455232
0000c0 48 5e 14 3d f5 11 b5 3d d5 86 7d bd 85 56 f1 bd
       0.036222726 0.08841316 -0.061896164 -0.117840804
0000d0 bd 12 00 be ae 97 16 bd bd 8b fa bd 6e 29 a8 be
       -0.12507148 -0.036765747 -0.12233684 -0.32844108
0000e0 50 b2 98 3e e1 c2 c7 3e db 7c c0 bd 89 52 8c bd
       0.29823542 0.39015868 -0.09398814 -0.0685168
0000f0 1a e3 2e 3e 21 a1 3b 3e cd 7c c9 bd 05 d5 47 be
       0.1707882 0.18323185 -0.09838257 -0.19514854
000100 74 1c f1 3e 14 29 e7 3e 42 af a3 3d 67 01 75 3e
       0.4709202 0.45148528 0.07992412 0.23926316
000110 37 f2 3a be 08 f8 ec 3d f6 ad 23 3e 07 8b bb bd
       -0.1825646 0.11570746 0.1598433 -0.09157377
000120 6c ed 29 3e 40 ae 85 be c2 66 1f bd 23 b8 83 be
       0.16594476 -0.26109505 -0.038916357 -0.25726423
000130 5a 0e 19 3b f0 b5 9f 3d a6 d6 80 be e6 65 5d be
       0.0023354501 0.07798374 -0.25163764 -0.21620902
000140 89 cb 5b bd 93 72 84 3e 1b 51 fb bd 6f 61 a5 be
       -0.053660903 0.25868663 -0.12271329 -0.32300898
000150 27 36 99 bd 0c 0b aa be 17 13 83 be 08 0d 90 bb
       -0.07481032 -0.33211553 -0.25600502 -0.0043960847
000160 60 dd 97 3e cb a7 0b be 9a 47 99 3e 83 2f 58 be
       0.29661083 -0.13638227 0.2993744 -0.21111874
000170 5b 7f 59 3c c7 cf 87 3d 17 04 99 3e 18 63 11 3c
       0.013274993 0.06631427 0.29885933 0.008873723
000180 b1 f0 b2 be ff 9e 7e be c5 0a f7 bd 04 06 cf bd
       -0.34949258 -0.2486534 -0.12062601 -0.10108569
000190 1f d5 98 3d eb d3 2e 3e 80 a9 a9 be 18 d6 a9 bc
       0.074625246 0.17073028 -0.3313713 -0.02073197
0001a0 f7 41 89 bd 75 36 c4 3e b9 46 a8 3c 82 2d b4 3e
       -0.06702035 0.38322797 0.020541536 0.3519097
0001b0 dd e7 c5 3e fb 32 8d 3e 13 7b a9 3d 81 07 b8 be
       0.3865346 0.27577958 0.08275428 -0.35943225
0001c0 d2 08 24 3e 5e 00 92 3e 69 d4 c5 be b7 06 7f 3e
       0.1601899 0.28515905 -0.3863862 0.24904905
0001d0 4e a2 97 bc 89 2c 51 3e 04 c1 b3 3e 11 32 d3 be
       -0.01851001 0.20427145 0.35108197 -0.41249135
0001e0 62 ab 02 be 5d 7f e5 be 0d 89 88 bc dc f5 c8 bc
       -0.1276069 -0.44823733 -0.016666913 -0.024531297
0001f0 6c 9b ab 3c 50 44 cf 3d f0 6b b4 be 85 81 00 be
       0.020948134 0.101204515 -0.352386 -0.12549408

decoder.0.bias f4 [16]
000000 fc 09 ec bd c8 31 69 3c c7 22 9f 3e 60 81 7e be
       -0.11525342 0.01423306 0.3108122 -0.2485404
000010 a5 78 12 bd 81 2b 8b 3e 54 bd a4 be 83 29 b3 3e
       -0.035759587 0.27181628 -0.32175696 0.34992608
000020 4a 57 63 be 0d 92 b4 3e c0 bc c6 bd bf a3 ab 3e
       -0.22201267 0.35267678 -0.0970397 0.33523366
000030 e3 2e f1 3d cc f7 40 3c f4 b2 8e 3e a1 40 2b 3e
       0.11776521 0.011777829 0.27870905 0.16723873

decoder.2.weight f4 [1, 16]
000000 78 1c e0 bd 4e a5 68 3e e5 40 c2 3e 49 24 68 3e
       -0.1094293 0.22719309 0.37940136 0.22670092
000010 78 c0 a7 be ec 2b 8d be 4b 22 c8 bc d9 2a cc 3d
       -0.3276403 -0.27572572 -0.024430415 0.0996911
000020 aa 8e 81 3e b0 6d 5f be 14 54 ab bd 3c d2 8b 3d
       0.25304157 -0.21819186 -0.08365646 0.068272084
000030 31 8d cb bd 20 48 af 3e 27 bc 8b 3e c6 a6 c0 be
       -0.099390395 0.34234715 0.27291986 -0.37627238

exp_avg f4 [16, 2]
000000 00 00 00 00 00 00 00 00 29 ef a7 3d 08 1e 9f 3d
       0.0 0.0 0.08199913 0.077694
000010 52 48 84 3c 93 b7 79 3c 08 fe c8 29 ef a1 2f 29
       0.016147766 0.015241521 8.9258516e-14 3.899826e-14
000020 00 00 00 00 00 00 00 00 aa a8 15 3d 36 b1 0d 3d
       0.0 0.0 0.036537804 0.03459283
000030 00 00 00 00 00 00 00 00 00 00 00 00 00 00 00 00
       0.0 0.0 0.0 0.0
000040 04 00 00 00 04 00 00 00 c2 d7 1e 3a bd 96 d7 39
       6e-45 6e-45 0.0006059372 0.00041120304
000050 b4 02 69 bd 62 30 5d bd 04 00 00 00 04 00 00 00
       -0.056887344 -0.05400122 6e-45 6e-45
000060 81 60 eb bb 14 f0 e0 bb 8f f4 61 bc a0 44 55 bc
       -0.007183135 -0.006864557 -0.0137912175 -0.01301685
000070 00 00 00 00 00 00 00 00 00 00 00 00 00 00 00 00
       0.0 0.0 0.0 0.0

exp_avg_sq f4 [16, 2]
000000 00 00 00 00 00 00 00 00 a7 90 99 3c 7c c2 88 3c
       0.0 0.0 0.018745733 0.0166943
000010 05 10 82 3a 28 29 68 3a ed a2 e2 33 39 13 6e 32
       0.0009922987 0.00088562304 1.0553581e-07 1.3857794e-08
000020 00 00 00 00 00 00 00 00 fb f9 7c 3b 5a 33 61 3b
       0.0 0.0 0.0038601148 0.0034362883
000030 00 00 00 00 00 00 00 00 00 00 00 00 00 00 00 00
       0.0 0.0 0.0 0.0
000040 f4 01 00 00 f4 01 00 00 39 aa 1b 39 e2 cd 0b 39
       7e-43 7e-43 0.00014845365 0.0001333277
000050 fe fb 0e 3c 2a 50 ff 3b f4 01 00 00 f4 01 00 00
       0.008727072 0.0077915387 7e-43 7e-43
000060 9b 10 40 39 4b 27 2e 39 f2 7e 93 3a 6e 5d 83 3a
       0.00018316733 0.00016608571 0.0011253043 0.0010022351
000070 00 00 00 00 00 00 00 00 00 00 00 00 00 00 00 00
       0.0 0.0 0.0 0.0

exp_avg f4 [16]
000000 00 00 00 00 e3 19 44 3a 9b 1d 1a 39 ac 3b d9 25
       0.0 0.0007480664 0.00014697613 3.7683935e-16
000010 00 00 00 00 04 ae ae 39 00 00 00 00 00 00 00 00
       0.0 0.00033317518 0.0 0.0
000020 04 00 00 00 28 ef 99 36 d2 32 08 ba 04 00 00 00
       6e-45 4.587597e-06 -0.0005195561 6e-45
000030 21 23 8a b8 d5 a0 03 b9 00 00 00 00 00 00 00 00
       -6.586896e-05 -0.00012553048 0.0 0.0

exp_avg_sq f4 [16]
000000 00 00 00 00 2f 3f cd 35 a9 74 ae 33 8e a6 bd 2b
       0.0 1.5292079e-06 8.123727e-08 1.3475486e-12
000010 00 00 00 00 a3 db a8 34 00 00 00 00 00 00 00 00
       0.0 3.1452245e-07 0.0 0.0
000020 f4 01 00 00 f7 0b 51 32 ba 4e 40 35 f4 01 00 00
       7e-43 1.2168122e-08 7.1640136e-07 7e-43
000030 d7 a8 85 32 13 dc c7 33 00 00 00 00 00 00 00 00
       1.5560017e-08 9.306691e-08 0.0 0.0

exp_avg f4 [8, 16]
000000 00 00 00 00 26 a4 51 bd a8 8d 9f bd 18 57 25 27
       0.0 -0.051181935 -0.07790691 2.2945563e-15
000010 00 00 00 00 20 6a 07 bd 00 00 00 00 00 00 00 00
       0.0 -0.033060193 0.0 0.0
000020 04 00 00 00 d5 e3 3a bd 1e be fa bd 04 00 00 00
       6e-45 -0.045627434 -0.12243293 6e-45
000030 67 f5 b2 bd bc ea 8d bc 00 00 00 00 00 00 00 00
       -0.08738213 -0.017323844 0.0 0.0
000040 00 00 00 00 00 00 00 00 00 00 00 00 00 00 00 00
       0.0 0.0 0.0 0.0
000050 00 00 00 00 00 00 00 00 00 00 00 00 00 00 00 00
       0.0 0.0 0.0 0.0
000060 00 00 00 00 00 00 00 00 00 00 00 00 00 00 00 00
       0.0 0.0 0.0 0.0
000070 00 00 00 00 00 00 00 00 00 00 00 00 00 00 00 00
       0.0 0.0 0.0 0.0
000080 00 00 00 00 f4 cd ff bc 12 ae 42 bd da aa c7 26
       0.0 -0.031226136 -0.047529288 1.3854708e-15
000090 00 00 00 00 9f 2b a5 bc 00 00 00 00 00 00 00 00
       0.0 -0.020162402 0.0 0.0
0000a0 04 00 00 00 95 0c e4 bc b1 f8 98 bd 04 00 00 00
       6e-45 -0.02783803 -0.07469309 6e-45
0000b0 5c 57 5a bd 1c 12 2d bc 00 00 00 00 00 00 00 00
       -0.05330597 -0.0105634 0.0 0.0
0000c0 00 00 00 00 05 0b d8 bd 2b 60 24 be f7 da 9b 27
       0.0 -0.10548977 -0.1605231 4.3258544e-15
0000d0 00 00 00 00 4c 1e 8b bd 00 00 00 00 00 00 00 00
       0.0 -0.06792888 0.0 0.0
0000e0 04 00 00 00 fc a2 c0 bd 1d 27 81 be 04 00 00 00
       6e-45 -0.09406087 -0.25225154 6e-45
0000f0 89 41 38 be 06 96 11 bd 00 00 00 00 00 00 00 00
       -0.1799375 -0.035543464 0.0 0.0
000100 00 00 00 00 b4 ed 99 3d 2b 52 ea 3d 51 f5 77 a7
       0.0 0.075160414 0.114414535 -3.4411122e-15
000110 00 00 00 00 2f 02 47 3d 00 00 00 00 00 00 00 00
       0.0 0.048586067 0.0 0.0
000120 04 00 00 80 69 37 89 3d b0 1f 38 3e 04 00 00 80
       -6e-45 0.06700022 0.17980838 -6e-45
000130 f8 6d 03 3e d1 a3 d0 3c 00 00 00 00 00 00 00 00
       0.12834918 0.025468739 0.0 0.0
000140 00 00 00 00 a7 c9 bf bd 00 e9 11 be 8b 36 87 27
       0.0 -0.09364634 -0.14249039 3.7529163e-15
000150 00 00 00 00 ad cf 76 bd 00 00 00 00 00 00 00 00
       0.0 -0.06025665 0.0 0.0
000160 04 00 00 00 8d 04 ab bd f1 48 65 be 04 00 00 00
       6e-45 -0.08350477 -0.22391106 6e-45
000170 72 88 23 be b1 18 01 bd 00 00 00 00 00 00 00 00
       -0.15970019 -0.03151769 0.0 0.0
000180 00 00 00 00 98 a0 7d 3b 26 16 c1 3b 4a f6 57 a5
       0.0 0.0038700458 0.005892533 -1.8731723e-16
000190 00 00 00 00 fe 4f 24 3b 00 00 00 00 00 00 00 00
       0.0 0.0025072093 0.0 0.0
0001a0 04 00 00 80 d6 0e 62 3b ae ba 17 3c 04 00 00 80
       -6e-45 0.0034493706 0.0092608165 -6e-45
0001b0 14 b2 d8 3b 1c 71 ac 3a 00 00 00 00 00 00 00 00
       0.0066130254 0.0013156268 0.0 0.0
0001c0 00 00 00 00 ba ca ff bb 22 1e 43 bc 22 ee 24 26
       0.0 -0.0078061493 -0.01190904 5.722166e-16
0001d0 00 00 00 00 75 05 a9 bb 00 00 00 00 00 00 00 00
       0.0 -0.005158121 0.0 0.0
0001e0 04 00 00 00 03 af e3 bb 6c 62 99 bc 04 00 00 00
       6e-45 -0.0069483533 -0.018723689 6e-45
0001f0 33 d4 5b bc 10 02 33 bb 00 00 00 00 00 00 00 00
       -0.013417291 -0.0027314462 0.0 0.0

exp_avg_sq f4 [8, 16]
000000 00 00 00 00 9d 19 05 3c 40 44 9a 3c 41 55 f2 31
       0.0 0.008123782 0.018831372 7.052819e-09
000010 00 00 00 00 36 98 5f 3b 00 00 00 00 00 00 00 00
       0.0 0.0034117824 0.0 0.0
000020 f4 01 00 00 3f 80 d3 3b 50 89 3e 3d f4 01 00 00
       7e-43 0.006454497 0.04651767 7e-43
000030 f8 4a c2 3c 7d c8 76 3a 00 00 00 00 00 00 00 00
       0.023717389 0.00094140304 0.0 0.0
000040 00 00 00 00 00 00 00 00 00 00 00 00 00 00 00 00
       0.0 0.0 0.0 0.0
000050 00 00 00 00 00 00 00 00 00 00 00 00 00 00 00 00
       0.0 0.0 0.0 0.0
000060 00 00 00 00 00 00 00 00 00 00 00 00 00 00 00 00
       0.0 0.0 0.0 0.0
000070 00 00 00 00 00 00 00 00 00 00 00 00 00 00 00 00
       0.0 0.0 0.0 0.0
000080 00 00 00 00 69 db 61 3b 25 d4 02 3c a6 f5 5f 32
       0.0 0.0034463054 0.0079851495 1.3036162e-08
000090 00 00 00 00 5b dc bc 3a 00 00 00 00 00 00 00 00
       0.0 0.0014408933 0.0 0.0
0000a0 f4 01 00 00 99 79 33 3b c8 92 a1 3c f4 01 00 00
       7e-43 0.002738571 0.019723311 7e-43
0000b0 18 a2 24 3c b1 f2 cf 39 00 00 00 00 00 00 00 00
       0.010048412 0.00039662936 0.0 0.0
0000c0 00 00 00 00 70 8c f0 3c e3 64 8b 3d 9c 25 4b 33
       0.0 0.02936384 0.06806352 4.7298826e-08
0000d0 00 00 00 00 b7 f2 49 3c 00 00 00 00 00 00 00 00
       0.0 0.012325934 0.0 0.0
0000e0 f4 01 00 00 9d 1e bf 3c 57 2a 2c 3e f4 01 00 00
       7e-43 0.023330027 0.16813026 7e-43
0000f0 b6 8b af 3d da d2 5e 3b 00 00 00 00 00 00 00 00
       0.085715696 0.003400019 0.0 0.0
000100 00 00 00 00 6a 4e 92 3c 26 96 29 3d f9 82 b5 31
       0.0 0.017859656 0.04140296 5.282683e-09
000110 00 00 00 00 c9 f8 f5 3b 00 00 00 00 00 00 00 00
       0.0 0.007506464 0.0 0.0
000120 f4 01 00 00 25 7b 68 3c 1c 76 d1 3d f4 01 00 00
       7e-43 0.014189516 0.10227606 7e-43
000130 9f 9e 55 3d 56 cc 07 3b 00 00 00 00 00 00 00 00
       0.052153226 0.002072116 0.0 0.0
000140 00 00 00 00 50 5a ac 3c ea c8 47 3d 13 a4 82 32
       0.0 0.021039158 0.04877559 1.5208604e-08
000150 00 00 00 00 0e f0 10 3c 00 00 00 00 00 00 00 00
       0.0 0.008846296 0.0 0.0
000160 f4 01 00 00 7e ed 88 3c 1a c3 f6 3d f4 01 00 00
       7e-43 0.016714808 0.120489314 7e-43
000170 f7 ad 7b 3d 5e 0f 20 3b 00 00 00 00 00 00 00 00
       0.061445203 0.0024423222 0.0 0.0
000180 00 00 00 00 97 a0 5e 38 fa 05 01 39 e7 3b cd 2b
       0.0 5.3078486e-05 0.00012304625 1.4582752e-12
000190 00 00 00 00 02 1b bb 37 00 00 00 00 00 00 00 00
       0.0 2.2304714e-05 0.0 0.0
0001a0 f4 01 00 00 bb e1 30 38 24 5c 9f 39 f4 01 00 00
       7e-43 4.2171898e-05 0.00030395493 7e-43
0001b0 7b 84 22 39 87 95 ce 36 00 00 00 00 00 00 00 00
       0.00015498877 6.1566857e-06 0.0 0.0
0001c0 00 00 00 00 a9 5f b3 3a 56 76 4f 3b 3f e5 96 32
       0.0 0.0013685125 0.0031656227 1.7566547e-08
0001d0 00 00 00 00 4f 83 13 3a 00 00 00 00 00 00 00 00
       0.0 0.00056271715 0.0 0.0
0001e0 f4 01 00 00 f7 a0 8e 3a b6 10 00 3c f4 01 00 00
       7e-43 0.0010881711 0.007816484 7e-43
0001f0 31 1f 82 3b d8 fb 20 39 00 00 00 00 00 00 00 00
       0.0039710035 0.00015352608 0.0 0.0

exp_avg f4 [8]
000000 74 64 66 ba 00 00 00 00 89 90 0c ba 9c 74 ed ba
       -0.00087887724 0.0 -0.00053621136 -0.0018116417
000010 f5 28 a9 3a 58 cd d2 ba 97 59 8b 38 55 6f 0c b9
       0.0012905883 -0.0016082926 6.644724e-05 -0.00013392915

exp_avg_sq f4 [8]
000000 f1 63 1e 36 00 00 00 00 49 48 87 35 1c 5d 0f 37
       2.3602008e-06 0.0 1.0079322e-06 8.545143e-06
000010 f7 de ad 36 7d 00 cd 36 28 38 84 32 26 7a db 34
       5.1817583e-06 6.109533e-06 1.539236e-08 4.0880803e-07

exp_avg f4 [32, 10]
000000 00 00 00 00 00 00 00 00 00 00 00 00 00 00 00 00
       0.0 0.0 0.0 0.0
000010 00 00 00 00 00 00 00 00 00 00 00 00 00 00 00 00
       0.0 0.0 0.0 0.0
000020 00 00 00 00 00 00 00 00 14 d6 68 be 41 0e a1 be
       0.0 0.0 -0.22737914 -0.31456187
000030 e9 3c 15 bd 00 00 00 00 3f 31 1c be 35 42 c3 bd
       -0.03643504 0.0 -0.15253161 -0.09534112
000040 4f df 95 be 6f 9e aa bd 57 62 50 be 21 11 83 bd
       -0.29271933 -0.08331 -0.20350014 -0.063997515
000050 00 00 00 00 00 00 00 00 00 00 00 00 00 00 00 00
       0.0 0.0 0.0 0.0
000060 00 00 00 00 00 00 00 00 00 00 00 00 00 00 00 00
       0.0 0.0 0.0 0.0
000070 00 00 00 00 00 00 00 00 00 00 00 00 00 00 00 00
       0.0 0.0 0.0 0.0
000080 00 00 00 00 00 00 00 00 00 00 00 00 00 00 00 00
       0.0 0.0 0.0 0.0
000090 00 00 00 00 00 00 00 00 00 00 00 00 00 00 00 00
       0.0 0.0 0.0 0.0
0000a0 4b 04 9a bd b0 13 d5 bd 35 71 45 bc 00 00 00 00
       -0.0752035 -0.10404146 -0.012050916 0.0
0000b0 96 a4 4e bd f3 29 01 bd 10 48 c6 bd b2 ba e1 bc
       -0.05044993 -0.031534147 -0.096817136 -0.027554844
0000c0 ae d8 89 bd e4 66 ad bc 32 c1 8e 3d df 7a c5 3d
       -0.067307815 -0.021167226 0.06970443 0.096425764
0000d0 38 fd 36 3c 00 00 00 00 35 84 3f 3d f7 6a ef 3c
       0.0111687705 0.0 0.04675694 0.02922581
0000e0 5e c4 b7 3d a5 34 d1 3c 02 83 7f 3d 67 b5 a0 3c
       0.08973001 0.025537798 0.0623808 0.01961775
0000f0 1f 18 01 be 5d 98 32 be 96 7d a5 bc 00 00 00 00
       -0.12606858 -0.17440934 -0.020201486 0.0
000100 cc 33 ad bd eb 85 58 bd ab 31 26 be 32 33 3d bd
       -0.08457145 -0.05286209 -0.16229884 -0.0461914
000110 f9 13 e7 bd 35 57 11 bd df 1b 1d 3b 60 3e 59 3b
       -0.11283106 -0.035483558 0.0023972911 0.003314875
000120 f9 4c c9 39 00 00 00 00 58 ae d2 3a 1d b0 83 3a
       0.00038395057 0.0 0.0016073687 0.0010046993
000130 01 28 4a 3b f1 23 66 3a 49 8a 0c 3b 64 ca 30 3a
       0.0030846598 0.00087791594 0.002144473 0.0006744026
000140 00 00 00 00 00 00 00 00 00 00 00 00 00 00 00 00
       0.0 0.0 0.0 0.0
000150 00 00 00 00 00 00 00 00 00 00 00 00 00 00 00 00
       0.0 0.0 0.0 0.0
000160 00 00 00 00 00 00 00 00 72 7d 0e be 57 32 ec bd
       0.0 0.0 -0.13915041 -0.11533039
000170 94 2a 54 bc 00 00 00 00 f1 a4 5f bd f1 73 0b bd
       -0.012949605 0.0 -0.05460066 -0.034046117
000180 1d 24 d6 bd 02 14 f4 bc 27 dd 94 bd 0b 45 ba bc
       -0.10456107 -0.029794697 -0.07268744 -0.022738
000190 03 a6 ab bd 77 77 ed bd d1 0a 5c bc 00 00 00 00
       -0.083812736 -0.11595052 -0.013430313 0.0
0001a0 d1 4b 66 bd d1 f2 0f bd 47 fa dc bd 34 91 fb bc
       -0.056224648 -0.035143677 -0.10789924 -0.030708887
0001b0 f9 9f 99 bd 0e 40 c1 bc 00 00 00 00 00 00 00 00
       -0.075012155 -0.023590114 0.0 0.0
0001c0 00 00 00 00 00 00 00 00 00 00 00 00 00 00 00 00
       0.0 0.0 0.0 0.0
0001d0 00 00 00 00 00 00 00 00 00 00 00 00 00 00 00 00
       0.0 0.0 0.0 0.0
0001e0 04 00 00 00 04 00 00 00 04 00 00 00 00 00 00 00
       6e-45 6e-45 6e-45 0.0
0001f0 04 00 00 00 04 00 00 00 04 00 00 00 04 00 00 00
       6e-45 6e-45 6e-45 6e-45
000200 04 00 00 00 04 00 00 00 00 00 00 00 00 00 00 00
       6e-45 6e-45 0.0 0.0
000210 00 00 00 00 00 00 00 00 00 00 00 00 00 00 00 00
       0.0 0.0 0.0 0.0
000220 00 00 00 00 00 00 00 00 00 00 00 00 00 00 00 00
       0.0 0.0 0.0 0.0
000230 63 19 9a 3b d1 19 d5 3b 3e 76 45 3a 00 00 00 00
       0.0047027334 0.0065033217 0.0007532573 0.0
000240 e7 a9 4e 3b 43 2d 01 3b 25 4d c6 3b 7d c0 e1 3a
       0.0031534375 0.0019710816 0.006051677 0.0017223504
000250 36 dc 89 3b 4f 6b ad 3a 00 00 00 00 00 00 00 00
       0.0042071594 0.0013230833 0.0 0.0
000260 00 00 00 00 00 00 00 00 00 00 00 00 00 00 00 00
       0.0 0.0 0.0 0.0
000270 00 00 00 00 00 00 00 00 00 00 00 00 00 00 00 00
       0.0 0.0 0.0 0.0
000280 00 00 00 00 00 00 00 00 00 00 00 00 00 00 00 00
       0.0 0.0 0.0 0.0
000290 00 00 00 00 00 00 00 00 00 00 00 00 00 00 00 00
       0.0 0.0 0.0 0.0
0002a0 00 00 00 00 00 00 00 00 1a 6d 17 be 34 7d 51 be
       0.0 0.0 -0.14787713 -0.20457917
0002b0 16 1e c2 bc 00 00 00 00 d0 29 cb bd 52 fa 7d bd
       -0.023695987 0.0 -0.099200845 -0.062006302
0002c0 53 f1 42 be a4 ed 5d bd 76 86 07 be 67 7b 2a bd
       -0.1903737 -0.05418171 -0.13234887 -0.041621592
0002d0 00 00 00 00 00 00 00 00 00 00 00 00 00 00 00 00
       0.0 0.0 0.0 0.0
0002e0 00 00 00 00 00 00 00 00 00 00 00 00 00 00 00 00
       0.0 0.0 0.0 0.0
0002f0 00 00 00 00 00 00 00 00 db c5 49 bb e1 bc 8b bb
       0.0 0.0 -0.0030788097 -0.0042644595
000300 75 7d 01 ba 00 00 00 00 f7 85 07 bb 9b 6b a9 ba
       -0.0004939654 0.0 -0.0020679215 -0.0012925746
000310 35 0a 82 bb 79 0a 94 ba 15 cf 34 bb 78 72 63 ba
       -0.003968502 -0.0011294625 -0.002758925 -0.000867642
000320 00 00 00 00 00 00 00 00 00 00 00 00 00 00 00 00
       0.0 0.0 0.0 0.0
000330 00 00 00 00 00 00 00 00 00 00 00 00 00 00 00 00
       0.0 0.0 0.0 0.0
000340 00 00 00 00 00 00 00 00 e2 62 70 be 5c 47 a6 be
       0.0 0.0 -0.23475221 -0.32476318
000350 e9 13 1a bd 00 00 00 00 fc 41 21 be 4a 97 c9 bd
       -0.037616644 0.0 -0.15747827 -0.09843309
000360 97 bb 9a be f4 26 b0 bd 63 24 57 be 46 51 87 bd
       -0.30221245 -0.0860118 -0.21009974 -0.066072986
000370 83 16 d1 bc 9f a2 10 bd c7 05 86 bb 00 00 00 00
       -0.02552343 -0.035311338 -0.004090044 0.0
000380 98 44 8c bc ec 59 2f bc 9e 97 06 bd 40 39 19 bc
       -0.017122552 -0.010702591 -0.032859437 -0.009352028
000390 7b 23 bb bc 86 68 eb bb 00 00 00 00 00 00 00 00
       -0.022844067 -0.007184091 0.0 0.0
0003a0 00 00 00 00 00 00 00 00 00 00 00 00 00 00 00 00
       0.0 0.0 0.0 0.0
0003b0 00 00 00 00 00 00 00 00 00 00 00 00 00 00 00 00
       0.0 0.0 0.0 0.0
0003c0 00 00 00 00 00 00 00 00 00 00 00 00 00 00 00 00
       0.0 0.0 0.0 0.0
0003d0 00 00 00 00 00 00 00 00 00 00 00 00 00 00 00 00
       0.0 0.0 0.0 0.0
0003e0 00 00 00 00 00 00 00 00 c8 8e 0f be dd 9a 46 be
       0.0 0.0 -0.1401931 -0.19395013
0003f0 37 08 b8 bc 00 00 00 00 9f 9b c0 bd 45 c8 70 bd
       -0.022464855 0.0 -0.09404682 -0.058784742

exp_avg_sq f4 [32, 10]
000000 00 00 00 00 00 00 00 00 00 00 00 00 00 00 00 00
       0.0 0.0 0.0 0.0
000010 00 00 00 00 00 00 00 00 00 00 00 00 00 00 00 00
       0.0 0.0 0.0 0.0
000020 00 00 00 00 00 00 00 00 fb 99 10 3f 9e d6 91 3e
       0.0 0.0 0.56484956 0.28484052
000030 3a 3c 74 3b 00 00 00 00 03 cf 84 3d 89 0e d0 3c
       0.0037267343 0.0 0.06484797 0.025397556
000040 b2 04 75 3e df 9c 9e 3c bd d6 ec 3d 26 68 3c 3c
       0.23927572 0.019361911 0.115643956 0.01149944
000050 00 00 00 00 00 00 00 00 00 00 00 00 00 00 00 00
       0.0 0.0 0.0 0.0
000060 00 00 00 00 00 00 00 00 00 00 00 00 00 00 00 00
       0.0 0.0 0.0 0.0
000070 00 00 00 00 00 00 00 00 00 00 00 00 00 00 00 00
       0.0 0.0 0.0 0.0
000080 00 00 00 00 00 00 00 00 00 00 00 00 00 00 00 00
       0.0 0.0 0.0 0.0
000090 00 00 00 00 00 00 00 00 00 00 00 00 00 00 00 00
       0.0 0.0 0.0 0.0
0000a0 2b 66 8f 3d 26 04 04 3d 5f 02 dd 39 00 00 00 00
       0.07001909 0.03223052 0.0004215417 0.0
0000b0 2f 84 f0 3b 76 63 3c 3b e1 d6 dd 3c 47 9f 0f 3b
       0.0073399763 0.0028745807 0.027080001 0.0021915005
0000c0 ac 6d 56 3c 90 75 aa 3a b3 4c 4e 3d 8f 5b d8 3c
       0.013087671 0.0013005007 0.050366115 0.026410846
0000d0 a6 2c b5 39 00 00 00 00 ff fd c4 3b 93 4d 1a 3b
       0.00034556276 0.0 0.006011724 0.0023544773
0000e0 a8 b8 b5 3c 40 44 eb 3a 0c a8 2f 3c 5c c5 8b 3a
       0.022182778 0.0017949417 0.010721218 0.0010663676
0000f0 f4 8a 38 3e 9a 16 b5 3d a5 9e 97 3a 00 00 00 00
       0.18021756 0.088422015 0.0011567665 0.0
000100 a6 ec a4 3c ef 2e 01 3c 51 21 98 3d af f7 c4 3b
       0.020132374 0.007884725 0.074282296 0.0060109715
000110 e0 0c 13 3d 3b e9 69 3b ed 45 79 38 90 d4 02 38
       0.03590095 0.0035691995 5.943135e-05 3.119238e-05
000120 55 be db 34 00 00 00 00 d1 a5 ee 36 f6 01 3b 36
       4.0930414e-07 0.0 7.1122563e-06 2.7866313e-06
000130 82 39 dc 37 c3 87 0e 36 00 e0 54 37 7f 86 a9 35
       2.6252823e-05 2.1238673e-06 1.2688339e-05 1.2630625e-06
000140 00 00 00 00 00 00 00 00 00 00 00 00 00 00 00 00
       0.0 0.0 0.0 0.0
000150 00 00 00 00 00 00 00 00 00 00 00 00 00 00 00 00
       0.0 0.0 0.0 0.0
000160 00 00 00 00 00 00 00 00 58 0c b9 3c 2d 3a 7f 3c
       0.0 0.0 0.022588894 0.015577835
000170 81 2d 57 39 00 00 00 00 18 70 69 3b 4e f0 b6 3a
       0.0002052095 0.0 0.0035619792 0.0013957114
000180 76 75 57 3c 0e 6c 8b 3a c4 46 d0 3b bd 0e 26 3a
       0.013150563 0.0010637061 0.006356092 0.00063345936
000190 7c a2 a6 3d 19 fc 20 3d 77 c6 06 3a 00 00 00 00
       0.0813646 0.03930292 0.0005141268 0.0
0001a0 da 9e 12 3c 89 b0 65 3b 10 3e 07 3d 68 1b 2f 3b
       0.008949006 0.003504785 0.03301817 0.0026719216
0001b0 e4 b9 82 3c f1 ea cf 3a 00 00 00 00 00 00 00 00
       0.01595778 0.0015862865 0.0 0.0
0001c0 00 00 00 00 00 00 00 00 00 00 00 00 00 00 00 00
       0.0 0.0 0.0 0.0
0001d0 00 00 00 00 00 00 00 00 00 00 00 00 00 00 00 00
       0.0 0.0 0.0 0.0
0001e0 f4 01 00 00 f4 01 00 00 f4 01 00 00 00 00 00 00
       7e-43 7e-43 7e-43 0.0
0001f0 f4 01 00 00 f4 01 00 00 f4 01 00 00 f4 01 00 00
       7e-43 7e-43 7e-43 7e-43
000200 f4 01 00 00 f4 01 00 00 00 00 00 00 00 00 00 00
       7e-43 7e-43 0.0 0.0
000210 00 00 00 00 00 00 00 00 00 00 00 00 00 00 00 00
       0.0 0.0 0.0 0.0
000220 00 00 00 00 00 00 00 00 00 00 00 00 00 00 00 00
       0.0 0.0 0.0 0.0
000230 5e 4f b6 39 39 e6 0d 39 f6 0a ed 35 00 00 00 00
       0.00034772878 0.00013532572 1.7661066e-06 0.0
000240 52 3a 01 38 e1 62 4a 37 b3 4a ee 38 95 51 1a 37
       3.081031e-05 1.206316e-05 0.00011362638 9.19811e-06
000250 f6 51 66 38 09 c2 b6 36 00 00 00 00 00 00 00 00
       5.4912605e-05 5.4466113e-06 0.0 0.0
000260 00 00 00 00 00 00 00 00 00 00 00 00 00 00 00 00
       0.0 0.0 0.0 0.0
000270 00 00 00 00 00 00 00 00 00 00 00 00 00 00 00 00
       0.0 0.0 0.0 0.0
000280 00 00 00 00 00 00 00 00 00 00 00 00 00 00 00 00
       0.0 0.0 0.0 0.0
000290 00 00 00 00 00 00 00 00 00 00 00 00 00 00 00 00
       0.0 0.0 0.0 0.0
0002a0 00 00 00 00 00 00 00 00 48 97 70 3e 56 b2 f5 3d
       0.0 0.0 0.23495209 0.119969055
0002b0 3a b9 cd 3a 00 00 00 00 5d b9 df 3c 8d 3d 2f 3c
       0.0015695461 0.0 0.027310068 0.010695827
0002c0 f7 5f ce 3d 81 98 05 3c 5e 7c 47 3d a3 b3 9e 3b
       0.100768976 0.008154036 0.04870259 0.0048431917
0002d0 00 00 00 00 00 00 00 00 00 00 00 00 00 00 00 00
       0.0 0.0 0.0 0.0
0002e0 00 00 00 00 00 00 00 00 00 00 00 00 00 00 00 00
       0.0 0.0 0.0 0.0
0002f0 00 00 00 00 00 00 00 00 ad df 97 3b b1 a5 27 3a
       0.0 0.0 0.0046348185 0.00063952344
000300 d7 e3 0a 37 00 00 00 00 e2 e1 19 39 cc ce 70 38
       8.278489e-06 0.0 0.00014675365 5.7413054e-05
000310 2b 7f 0d 3a 2b b6 37 38 9d af 88 39 ec 32 d5 37
       0.00053976726 4.3800257e-05 0.00026070783 2.5415291e-05
000320 00 00 00 00 00 00 00 00 00 00 00 00 00 00 00 00
       0.0 0.0 0.0 0.0
000330 00 00 00 00 00 00 00 00 00 00 00 00 00 00 00 00
       0.0 0.0 0.0 0.0
000340 00 00 00 00 00 00 00 00 95 4f 1a 3f d4 7f 9b 3e
       0.0 0.0 0.6027768 0.30370963
000350 6f 33 82 3b 00 00 00 00 69 9a 8d 3d 2f d5 dd 3c
       0.0039734165 0.0 0.06914217 0.027079193
000360 06 9f 82 3e 9d 1d a9 3c 57 85 fc 3d a5 e0 48 3c
       0.2551195 0.020644004 0.1233012 0.012260591
000370 b7 09 e3 3b b6 a4 69 3b 3d a8 43 38 00 00 00 00
       0.0069286483 0.0035651154 4.6648307e-05 0.0
000380 79 c1 54 3a ea a6 a6 39 ff 42 44 3b 2a 18 7e 39
       0.0008115988 0.00031786348 0.002994716 0.0002423233
000390 f7 b5 bd 3a 65 f0 16 39 00 00 00 00 00 00 00 00
       0.0014473785 0.00014394669 0.0 0.0
0003a0 00 00 00 00 00 00 00 00 00 00 00 00 00 00 00 00
       0.0 0.0 0.0 0.0
0003b0 00 00 00 00 00 00 00 00 00 00 00 00 00 00 00 00
       0.0 0.0 0.0 0.0
0003c0 00 00 00 00 00 00 00 00 00 00 00 00 00 00 00 00
       0.0 0.0 0.0 0.0
0003d0 00 00 00 00 00 00 00 00 00 00 00 00 00 00 00 00
       0.0 0.0 0.0 0.0
0003e0 00 00 00 00 00 00 00 00 a8 32 70 3e cc 0d e3 3d
       0.0 0.0 0.23456824 0.11086616
0003f0 39 14 be 3a 00 00 00 00 54 d0 ce 3c 23 fe 21 3c
       0.0014501876 0.0 0.025245823 0.009887251

exp_avg f4 [32]
000000 00 00 00 00 58 2e 4a bb 00 00 00 00 00 00 00 00
       0.0 -0.0030850377 0.0 0.0
000010 38 be 85 ba e1 e7 77 3a 0b 33 e0 ba 1d 5b 08 38
       -0.0010203784 0.0009456855 -0.0017105056 3.2509783e-05
000020 00 00 00 00 68 ce 90 ba 45 0d 95 ba 00 00 00 00
       0.0 -0.0011047842 -0.0011371752 0.0
000030 04 00 00 00 00 00 00 00 8d c1 85 38 00 00 00 00
       6e-45 0.0 6.377986e-05 0.0
000040 00 00 00 00 b0 7d 03 bb 00 00 00 00 67 6d 2f b8
       0.0 -0.002006393 0.0 -4.182514e-05
000050 00 00 00 00 e5 bc 50 bb 66 91 b5 b9 00 00 00 00
       0.0 -0.0031850871 -0.0003463134 0.0
000060 00 00 00 00 93 51 f9 ba 04 00 00 00 f4 9e 04 3a
       0.0 -0.0019021503 6e-45 0.0005059086
000070 ef 8c f0 3a a0 50 d8 3a 04 00 00 80 e7 99 95 3a
       0.0018352548 0.001650352 -6e-45 0.0011413664

exp_avg_sq f4 [32]
000000 00 00 00 00 d6 66 db 37 00 00 00 00 00 00 00 00
       0.0 2.6154721e-05 0.0 0.0
000010 10 03 47 36 19 9d 22 36 f3 4b 08 37 ce ab 44 31
       2.9655093e-06 2.4231324e-06 8.123915e-06 2.8619414e-09
000020 00 00 00 00 6c 32 c0 35 6d 6a 72 36 00 00 00 00
       0.0 1.431979e-06 3.6122758e-06 0.0
000030 f4 01 00 00 00 00 00 00 20 c4 56 32 00 00 00 00
       7e-43 0.0 1.2501033e-08 0.0
000040 00 00 00 00 54 c4 38 37 00 00 00 00 1e 30 85 33
       0.0 1.1012966e-05 0.0 6.2020476e-08
000050 00 00 00 00 e3 f0 e9 37 5e ac af 34 00 00 00 00
       0.0 2.7887936e-05 3.2721704e-07 0.0
000060 00 00 00 00 1d 09 2b 37 f4 01 00 00 2b b6 31 35
       0.0 1.0194516e-05 7e-43 6.620273e-07
000070 a3 ff 11 37 e3 19 ec 36 d3 9d d8 30 88 d5 6c 36
       8.702194e-06 7.0363617e-06 1.5760925e-09 3.5291032e-06
