deepsets/best_model.pt (torch, 22050 bytes, 33 tensors)

phi.0.weight f4 [16, 2]
00000000: a3ae 3f3e 779e 073f 81fd 01bd e4a0 cebc
00000010: 2abe 233f 67aa ba3e 4332 a4be fecf 04bd
00000020: d7f9 31bf 4318 f0be 3533 2f3e 7834 2fbf
00000030: cdc0 23be a1c0 1ebf ec81 1dbe 98c9 223f
00000040: de01 0d3f 42fd cabe 50d2 1dbf 931c 09bf
00000050: 625a 0f3e 8f06 c9bc 7167 583e 2882 4abe
00000060: fefd 1a3f ec83 0bbf 127d 14bf 43ec ddbe
00000070: ca17 ccbe eb33 25bf c5c4 10be c328 0abf
0.18718962 0.52976173 -0.0317359 -0.025223203 0.6396204 0.36458132 -0.32069597 -0.03242492
-0.6952185 -0.4689351 0.17109378 -0.68439436 -0.15991516 -0.6201268 -0.15381593 0.6358886
0.55080974 -0.39646345 -0.61649036 -0.53559226 0.13999322 -0.02453926 0.2113321 -0.19776213
0.6054381 -0.5449817 -0.5800334 -0.43344316 -0.398619 -0.64532346 -0.14137562 -0.5396845

phi.0.bias f4 [16]
00000000: 0ba6 883e b067 9abe 1010 d33e 489f 0abe
00000010: 8f3a 253f 7b41 a13e cff9 523e ce42 e63e
00000020: b5b1 1b3e de15 bf3d ae49 193f 6f50 7cbe
00000030: addf 20bf 9386 093f f058 05bf e28e 15bf
0.2668918 -0.30157232 0.41223192 -0.13537323 0.6454248 0.3149527 0.20603107 0.44972843
0.15204509 0.09330343 0.5987805 -0.24640058 -0.628413 0.5372097 -0.5208883 -0.58421147

phi.2.weight f4 [8, 16]
00000000: 98af 70be aaaa 78be 50ce 77be a095 37bd
00000010: 1ca8 473e d045 4abe 64e6 7dbe cc78 e33d
00000020: 9cd9 083e 6ccc 2bbe 1081 9b3d e0ff fabd
00000030: d203 693e b6fa 76be 7add 113e 406b 6b3d
00000040: 4086 efbc 5067 b83c 3a6b 1fbe 60c7 37be
00000050: a8af 35bd f013 76bd 38f4 d3bd 0c90 6ebe
00000060: 801d a5bc f860 233d d4d1 66be 0002 ce3a
00000070: 627d 473e 102b d93d 826d 1f3e 0a6b 6b3e
00000080: dd47 22be c0a6 123e 2250 95bd e0d2 27be
00000090: fcce 2abe 74a4 8abd a4d4 91bd 93fc 373e
000000a0: 18d5 c23e 101f adbc 7240 b3bc 6188 303f
000000b0: 6073 173f ac1a f73d 8caa 3bbe 6858 d83d
000000c0: c453 0dbe a4bf fcbd 9837 25be 00d2 c0bd
000000d0: a095 dabd 406b 023d a0cb 693d d093 273e
000000e0: 486f c4bd 80c9 793e 1e7e 61be 345d 48be
000000f0: c845 6cbd 7652 073e 00e7 063d f04d 343d
00000100: 4c0c 2cbe 587f ac3d 64d0 fabd 4098 2c3d
00000110: e2ae 0d3e e6f4 2fbe 488e a0bd bc51 4f3e
00000120: 30d7 d1bc 889a 883d 800d 0e3d 4470 cbbd
00000130: e85f dabd 482b 193d 38bd 343d 105c a73d
00000140: 732f 6fbe 867f 4f3e b924 68bd ae1e 603e
00000150: a800 0d3d ac42 11be 7cf4 0f3e 1c98 373e
00000160: 8f73 503e 484d 07bd 40da 6e3e 056a 17bd
00000170: 9bee 1c3c 006f f93c 90b5 9dbc c00c cb3b
00000180: 4144 b0bb 5e96 3abe 4b56 7d3c fc49 2ebe
00000190: 3ccb 77be 4017 2e3d 4cc8 81bd 20a3 50bd
000001a0: 80fa acbc 180f c9bd ffd7 0e3e e425 a1bd
000001b0: 13ff 36be a4de 3ebe 9cf2 053e c08b 683d
000001c0: 14b9 913b e0c0 0c3e 5534 283e ec3e fe3d
000001d0: 00ef bfbc eccc b93d a06c 583e 901e 063e
000001e0: 9eb9 cf3b 7c63 5b3e b717 c5bd c6c3 673f
000001f0: 35ee 2d3f ccc1 bebd 245a 393e b073 893d
-0.23504484 -0.24283853 -0.24199796 -0.044820428 0.19497722 -0.19753194 -0.24794918 0.111070246
0.13364261 -0.167772 0.07592976 -0.122558355 0.22755364 -0.24119076 0.14244643 0.05747533
-0.02923882 0.0225102 -0.15568247 -0.1794715 -0.044356972 -0.060077608 -0.103493154 -0.23297137
-0.020155668 0.0398874 -0.2254098 0.0015717149 0.19481423 0.10603917 0.15569118 0.22990051
-0.15847726 0.14321423 -0.07290675 -0.16389036 -0.16680521 -0.06769648 -0.07120636 0.17967443
0.38053203 -0.021132976 -0.021881316 0.689581 0.59160423 0.12065634 -0.18326777 0.10563737
-0.13801485 -0.1234124 -0.16134489 -0.09415054 -0.1067307 0.031840563 0.057078958 0.1636498
-0.09591538 0.24393272 -0.22020766 -0.19566804 -0.057683736 0.1321505 0.032935143 0.04401964
-0.16801566 0.084227264 -0.122467786 0.042137384 0.13836244 -0.17183265 -0.07839638 0.20246023
-0.025615305 0.066700995 0.034680843 -0.09933522 -0.10662824 0.03739479 0.044125766 0.081718564
-0.23357944 0.2026349 -0.056675646 0.21886703 0.034424454 -0.1418559 0.14058107 0.17929119
0.20356582 -0.033032686 0.23325443 -0.036966342 0.009578372 0.030448437 -0.019251615 0.0061965883
-0.0053792302 -0.18221423 0.015462468 -0.1702041 -0.24198622 0.04250264 -0.06337032 -0.050936818
-0.021115541 -0.09817332 0.13949583 -0.07868555 -0.1787074 -0.18639618 0.1308083 0.0567739
0.004447112 0.13745451 0.16426213 0.12414345 -0.023429394 0.09072289 0.21135187 0.13097596
0.006339266 0.21424669 -0.09623664 0.905331 0.679416 -0.093143076 0.18100792 0.06711519

phi.2.bias f4 [8]
00000000: c0fb 90bd 1eb9 71be b790 723e 0674 18be
00000010: e0f7 493c 3371 47be 3d05 70be 1f5b 713b
-0.070792675 -0.23605773 0.23688017 -0.1488801 0.012327164 -0.19476776 -0.23439498 0.0036827994

rho.0.weight f4 [16, 10]
00000000: a39d 093e e2b4 3c3e 8982 653e 74d8 b0bd
00000010: 270a 9dbe 9756 26be 1fa8 bc3c 151b 873e
00000020: d77b 98be 0d79 113e 0aca 463e bb7c 143e
00000030: f83c f73d 0607 12be 2149 c93e 3e06 a7bd
00000040: 681a 1bbe a039 8abe e2cd 31be aeea 883e
00000050: 5c93 c7bd 900e adbd 692c 5ebc 9244 5ebe
00000060: 7347 603e 8d4b 0bbe 15d5 06be e17b f13d
00000070: 8349 0abe 5ac1 85be 63d4 673e 8932 51be
00000080: 49ee 693e 859a 653b 04a6 6f3e 27e4 253e
00000090: c66e 8cbe 7798 7e3d 3cf7 cf3d 6272 dcbd
000000a0: 6ab6 9abe ddba 6a3a 9dfd 73be 3c83 913e
000000b0: 8f59 4fbd 99af 233e fa83 56be 5b1f 46be
000000c0: a733 6bbe a7b3 71bb 3d65 cdbd 9af7 8c3e
000000d0: 4988 09be 9a38 1d3e ff22 a7be 49c9 883e
000000e0: f7d0 4c3e bcc1 09be 2209 8fbe e839 fcbd
000000f0: da24 76be de1e ef3d c13b f9bd 5f06 573e
00000100: 7132 fabc 7f7f 4fbe a14b ddbd cf50 30be
00000110: 4645 993e f37d c83e df9d 673e bfa1 693e
00000120: b13a 633e 9f02 c03d 3b83 033f 895c 4ebd
00000130: 9896 e33d 190a 163e 99b5 3fbe 7240 8dbe
00000140: 0eb7 4cbe 52c1 79be a0f1 83be f4e4 45bd
00000150: 4409 8abd c591 c6bc 2353 07be 8ac3 e0bb
00000160: 5e22 c7bc 0fdf ebbb f69c 94be a7b6 9fbe
00000170: 1ffe 53be 816d 2c3e 7cdf 783e 70dd 97be
00000180: a3e4 83be f498 5ebe f420 3a3e 7b27 81be
00000190: bf32 5d3e fb91 db3d fc5a 85be 964d 9abe
000001a0: dabd 363f 1f36 f63d f1e1 8ebe dd4b fcbc
000001b0: cb6f 2cbe 89b3 493b 1e6d 3f3e fe7f 5a3e
000001c0: 1957 0d3c 2454 15bc 4730 5abe a57a a2bd
000001d0: 7126 21bd eb69 793d 3159 8a3e 1a10 9abe
000001e0: d652 983c 6b1e 68be da11 3dbe 56b0 8d3e
000001f0: 211c 3abe abb0 9ebe d5e5 303d 50e8 23be
00000200: 0f1d 9c3e ba34 83bd 40c5 723e 6a29 84be
00000210: 4e27 1d3e 7779 06be f1bd bf3e d349 283e
00000220: 9951 633e 5605 4fbe 195b 12be b288 f6bb
00000230: f519 00be 66d9 65be e668 9b3e 94b6 103e
00000240: 9668 843e 8fa1 25be b705 30be a17f 963d
00000250: 139f 6a3e 6657 80be 1532 843d a5c9 56be
00000260: 106d 9bbe f2a4 35be db90 6dbe 7e40 6bbe
00000270: dc95 7ebe 82fa 183e b7fd 01be 599d fc3d
0.1343904 0.18428376 0.22413076 -0.08635035 -0.30671808 -0.16243969 0.023029385 0.2638785
-0.29781982 0.14206333 0.1941301 0.14500706 0.12072176 -0.14260492 0.39313605 -0.081554875
-0.15146792 -0.2699709 -0.17363694 0.26741546 -0.097449034 -0.08450043 -0.013560393 -0.21705845
0.21902256 -0.13603039 -0.13167222 0.11791206 -0.13504605 -0.26124078 0.22639613 -0.20429434
0.22844805 0.0035034728 0.23403174 0.16200314 -0.27428263 0.06215712 0.10154578 -0.10764004
-0.30217296 0.00089542364 -0.23827215 0.28420436 -0.05062252 0.15984954 -0.20948783 -0.19347899
-0.22968923 -0.0036880763 -0.10029075 0.27532655 -0.13430895 0.15353623 -0.32643887 0.26716068
0.20001589 -0.1345281 -0.27936655 -0.12315732 -0.24037495 0.11675809 -0.121696 0.20998524
-0.03054163 -0.2026348 -0.10805441 -0.17218326 0.29935664 0.39158592 0.22618817 0.22815607
0.22190358 0.093755 0.51372117 -0.050381217 0.11112708 0.1465229 -0.18721618 -0.2758823
-0.19991705 -0.24390152 -0.25770283 -0.04831405 -0.067400485 -0.02423943 -0.13215308 -0.0068592476
-0.02430838 -0.0071982215 -0.29026002 -0.3119404 -0.20702408 0.16838647 0.24304003 -0.2966113
-0.25760373 -0.21738034 0.18176633 -0.25225434 0.2160139 0.10721203 -0.26045978 -0.30137318
0.7138344 0.120220415 -0.27906755 -0.030797893 -0.1683952 0.0030777177 0.18693969 0.21337888
0.008626723 -0.009114299 -0.21307479 -0.07933549 -0.0393433 0.060892027 0.27021173 -0.3009041
0.018594187 -0.22667854 -0.18463841 0.27673596 -0.18174793 -0.30994162 0.043187935 -0.16006589
0.3049092 -0.06406541 0.23708057 -0.25812846 0.15347025 -0.13132273 0.374496 0.16434412
0.22199096 -0.20216879 -0.14292563 -0.0075236196 -0.12509902 -0.22446212 0.3035347 0.14132148
0.25861043 -0.16174911 -0.1718968 0.07348562 0.22912244 -0.2506668 0.06454865 -0.20975359
-0.30356646 -0.17738703 -0.23199789 -0.2297382 -0.24861854 0.14939311 -0.12694441 0.12334699

rho.0.bias f4 [16]
00000000: c88b 2a3e 1677 c1bd 86bb e8bb b0fa 94be
00000010: d67d 3c3e 1110 083e 09a8 153d 6992 9cbe
00000020: f309 a23d e371 18be a004 90be 4b2a 8ebe
00000030: 62d2 193e 1c4b a9bd 3b58 c8bd 82a2 c23d
0.16654885 -0.09446542 -0.0071024327 -0.2909751 0.18407378 0.13287379 0.036537204 -0.30580452
0.07912054 -0.14887194 -0.2812853 -0.27766642 0.15021661 -0.08266279 -0.097824536 0.09503652

rho.2.weight f4 [8, 16]
00000000: 576d 0a3e dd8f 063b 6ce3 aebd c315 1dbf
00000010: 9a66 10be bc31 3f3e 5b2e 48bd 5237 f4bd
00000020: a06a 3fbd e480 a1bd 1a54 6dbd d17e 943c
00000030: b022 983d 18ad b9be ca4a 3a3e 96c9 683e
00000040: b7e6 6a3e 2543 11be 7cdf 5c3e cbea a9be
00000050: 0c8f 29be 0b5b ad3d 5da8 62be dcac fabd
00000060: 5c86 1dbe 1027 01bd a49c 2538 c775 523e
00000070: b424 02be 0cc6 ebbe b604 69be 6cda 9c3d
00000080: c3e6 21be a1a0 463e 04ae 85bd 871e a6be
00000090: 7018 74bd 69bd eb3d 766b c83d f1be 00be
000000a0: 2826 75bd b476 d83d 0a00 a4bd bb48 7c3e
000000b0: 0072 7abb 1786 95be 2001 4f3e 1871 743e
000000c0: f9a6 25be c888 363e b413 ac3d dbc2 1a3f
000000d0: e46b f1bd 193d 0c3e eb83 bc3d 4541 023c
000000e0: 9e08 75be f848 bdbd 85ab 863e 0b81 b03d
000000f0: ba52 4b3e 5fa8 b93e 4017 20be 66a0 3ebe
00000100: 4a8b 64be 6da4 5d3c ec8d 52be c68f 92be
00000110: 80c8 773b cb60 2c3e aa47 3c3e 1ed4 45be
00000120: ced5 5abe 8afb 2f3e 9d21 3bbe fcdd 603e
00000130: 1c2b e53d c8bb aebd d61d 383e f8bf 31be
00000140: 39d3 293d 0e1b 043e 74a8 013e c20f 013f
00000150: 6427 1ebe 9d40 883d 47eb 383e 68f8 383e
00000160: e0bd 883c bab8 003e 7c1a 513e 7a75 c6bd
00000170: d84b 86bd fe68 8b3e c2b3 18be 16bb 2ebe
00000180: 7100 5f3d 5b59 5e3e 80be 6cbe b857 2c3f
00000190: 4250 153e f7a4 f03b 0a05 c23e d2f4 18be
000001a0: c0a1 293d ccf9 823d 2bf1 813e a903 0fbd
000001b0: fc76 b13d f072 1e3e bed8 0b3e a882 193d
000001c0: 311d 2bbe 6ce5 803e bc72 643e 7f0c 513f
000001d0: 00b0 f1bd ae61 303e 53e6 d03e 302f f2bc
000001e0: f058 0d3d 8c23 8e3d 7e8a 3a3e e9e5 cfbd
000001f0: 689c a93d d1e8 9c3e 46a2 2dbe a0be 133e
0.13518272 0.0020532527 -0.08539471 -0.6136133 -0.1410164 0.18671316 -0.048872333 -0.11924614
-0.046732545 -0.07885912 -0.057941534 0.018126877 0.07428491 -0.36264873 0.18192592 0.22733149
0.22939573 -0.1418577 0.21569628 -0.33186945 -0.16558474 0.08464631 -0.22134538 -0.122400016
-0.15383285 -0.031531394 3.948495e-05 0.20552741 -0.12709314 -0.46049535 -0.22755703 0.07658848
-0.15810685 0.19397213 -0.065273315 -0.32445166 -0.059593618 0.115107365 0.097861215 -0.12572838
-0.05985084 0.10569516 -0.0800782 0.2463712 -0.0038214922 -0.29203865 0.20215273 0.23871267
-0.16176976 0.17825615 0.084021956 0.60453576 -0.11788157 0.13695182 0.09204849 0.007950132
-0.23929068 -0.09242433 0.26302734 0.08618363 0.19855776 0.3626127 -0.15633869 -0.18615875
-0.2231876 0.013527972 -0.20561951 -0.28625315 0.0037808716 0.16833799 0.18386713 -0.19319198
-0.21370623 0.17185798 -0.18274541 0.2195968 0.11189863 -0.0853191 0.17980132 -0.17358387
0.041461203 0.12900946 0.12661916 0.5041467 -0.15444714 0.06652949 0.18058501 0.1806351
0.016692102 0.12570468 0.20420259 -0.096903756 -0.06557435 0.2722854 -0.14912322 -0.17063555
0.05444378 0.21713774 -0.23119545 0.6732135 0.14581397 0.007343884 0.3789447 -0.14937142
0.041414022 0.06395301 0.2537931 -0.0349156 0.086652726 0.15473533 0.136569 0.03747812
-0.16710354 0.25175035 0.22309393 0.8165969 -0.118011475 0.17224762 0.40800723 -0.029563516
0.034508646 0.06940374 0.18216893 -0.10151274 0.08281785 0.30646375 -0.16956434 0.14428186

rho.2.bias f4 [8]
00000000: c035 62bc d7a2 373e 3034 6f3e ed51 283e
00000010: 6455 133e 3ad8 6c3d f39c 66be 68e4 67be
-0.01380676 0.17933212 0.23359752 0.16437502 0.14388043 0.057823397 -0.22520809 -0.22645724

decoder.0.weight f4 [16, 8]
00000000: 514f c03d 0217 c2bc c455 18be bfb5 febd
00000010: bae8 8ebe 8414 32bd cb45 863e 94a6 8e3e
00000020: de50 03bf f45e 4ebf 11f9 97be b94d ce3d
00000030: ef85 0d3d 906b 263d 0e7b 253e 44bc 313e
00000040: 9e73 62bc 90cd a33e 00b0 3cbe c4c4 3f3e
00000050: fdaf e63d 326f 52bd 5c1b 88be f782 e0bc
00000060: 156a e3be 97d8 0abf b14b 3fbf d8f2 c23e
00000070: 7101 0d3e 1754 283e 3637 82be 0c9c 073e
00000080: e391 55be 51e4 3abf 01ec 26bc b4cc 613e
00000090: da0f b9be dce2 36bd 71a9 c73e 83b6 663d
000000a0: 1f6b 25bd e22b 57bd c110 193e e88b 57be
000000b0: 1c4a 8fbe 35f6 acbd 1ad5 983d 3541 a4bd
000000c0: 9b5c c93e e5f7 513f 1b13 2e3e d918 06be
000000d0: 6237 b1bd 96b5 893e 2b52 413e dc89 013c
000000e0: cf3f 953d f074 46be 8039 583e 3b5b 43be
000000f0: 6d50 19be 3584 e3bd e3be 3bbe bdbf c13c
00000100: cd15 93be 3b67 213e fc24 5c3e 11b5 023e
00000110: becb 92be eddf 27be 22d2 94be 77b1 b0bd
00000120: ce1c b7be b86a 2ebf e03c 00bf f8b6 a83e
00000130: 51dd 2ebe 146d a73e 8b78 f53d 3167 713e
00000140: bb06 fabd b4d8 2fbe 4326 a63e 1dff 473e
00000150: bd57 863e 0169 9dbe ed88 ad3e fb82 4cbe
00000160: eecb 293c 7a96 02be e4f9 13be 7607 643e
00000170: f882 00be a007 173d 85e7 70be 6774 92be
00000180: 6e7e 763e e32f 78bd 6dae 323e 0a58 e23c
00000190: bfd5 393e efb7 8bbb 2f43 013b d04b fd3c
000001a0: f98e a93c 3bbb ac3e 207d 4a3e 88a8 d03c
000001b0: 4195 c73e 6d45 693c c0fe 9e3d dd6f 3e3e
000001c0: 60c2 8d3e 6f9d 43be 08ce 6ebe 1a82 a53c
000001d0: e3f6 bebd 6f11 a5be 0063 9bbb 3e31 ffbd
000001e0: 63c1 82be 1d4a 13bd 0760 43be ee3e f9bc
000001f0: a8ca 973d 991f 5b3e 7618 46be 1422 6bbe
0.093901284 -0.023692612 -0.14876467 -0.12437009 -0.2791193 -0.043476596 0.26225123 0.27861464
-0.5129527 -0.80613637 -0.2968221 0.10073418 0.034551557 0.040629923 0.16160223 0.17356974
-0.013821511 0.3199277 -0.18426514 0.18727404 0.11264036 -0.051375575 -0.26583374 -0.027406199
-0.44416872 -0.5423674 -0.7472487 0.380759 0.13770081 0.16438328 -0.25432748 0.13243121
-0.20856433 -0.73004633 -0.010188104 0.22050744 -0.36144906 -0.044649944 0.3899646 0.0563264
-0.04038536 -0.052532084 0.14947797 -0.21049464 -0.27986228 -0.08445398 0.07462521 -0.0802025
0.39328465 0.8201888 0.16999476 -0.13095416 -0.086531416 0.26896352 0.18879001 0.007906403
0.07287561 -0.19380546 0.21115685 -0.1907777 -0.14972086 -0.11109201 -0.18334536 0.023650998
-0.2872757 0.15762036 0.21498483 0.12764384 -0.28671068 -0.16394015 -0.2906657 -0.08627599
-0.35764164 -0.6813159 -0.5009289 0.32952094 -0.17076613 0.32700408 0.11985882 0.2357452
-0.12208315 -0.1717251 0.32451066 0.19530912 0.26238814 -0.30744174 0.3389353 -0.1997184
0.010363562 -0.12752715 -0.14450794 0.22268471 -0.1254996 0.036872506 -0.23525818 -0.28604433
0.24071667 -0.060592543 0.1744935 0.02762987 0.18147944 -0.00426387 0.0019723882 0.03091994
0.020698057 0.33736596 0.19774294 0.025470987 0.3898106 0.014237744 0.077634335 0.1859736
0.2768736 -0.19103025 -0.23320782 0.020203639 -0.09324434 -0.32239863 -0.0047420263 -0.12460564
-0.25538167 -0.03595935 -0.190796 -0.030425515 0.074117005 0.21398772 -0.19345269 -0.22962219

decoder.0.bias f4 [16]
00000000: 2cd7 9f3e a3ce aabe 445a a23e ac4e d03d
00000010: fa3f 8fbe dd41 893e 4560 913e e2ea c33d
00000020: 54b1 05be 2173 8dbe fce4 04be 80f9 583d
00000030: f88d 8abe df12 b4be cd99 8abe 10dd b33e
0.3121885 -0.33360776 0.31709492 0.101712555 -0.27978498 0.26808062 0.2839376 0.09566285
-0.13055927 -0.276269 -0.12977976 0.052972317 -0.2706144 -0.35170648 -0.27070466 0.35129595

decoder.2.weight f4 [1, 16]
00000000: 4148 e43c 98a1 8f3e 2085 7ebe d787 733e
00000010: 8694 d63d 9891 cdbd 864a 95bd dc83 90bd
00000020: eeda 44be d5a6 ab3e b8de 17be 268b 73bd
00000030: 4074 1ebd bf5f 55be 2243 56be 8a89 52be
0.027866485 0.28052974 -0.2485547 0.23782288 0.10477547 -0.100375354 -0.07289605 -0.070564
-0.1922414 0.3352572 -0.14831054 -0.059458874 -0.038685083 -0.20837305 -0.20924047 -0.2056028

exp_avg f4 [16, 2]
00000000: 3ba6 42c3 29c4 1cc3 0000 0000 0000 0000
00000010: 93ea 9dc2 7790 77c2 0000 0000 0000 0000
00000020: 0000 0000 0000 0000 0000 0000 0000 0000
00000030: 0000 0000 0000 0000 d9c3 6543 e67a 3a43
00000040: 7d72 ea43 46e9 bc43 0000 0000 0000 0000
00000050: 6639 04c2 2911 ddc1 7578 5f44 dcf0 3444
00000060: 84a2 3e44 2a4b 1a44 0000 0000 0000 0000
00000070: 0000 0000 0000 0000 0000 0000 0000 0000
-194.64934 -156.76625 0.0 0.0 -78.95815 -61.89108 0.0 0.0
0.0 0.0 0.0 0.0 0.0 0.0 229.76503 186.48007
468.89444 377.82245 0.0 0.0 -33.056053 -27.633379 893.88214 723.7634
762.5393 617.17444 0.0 0.0 0.0 0.0 0.0 0.0

exp_avg_sq f4 [16, 2]
00000000: 4ca0 2a4a 1ad8 ec49 0000 0000 0000 0000
00000010: c653 dd48 f357 9348 0000 0000 0000 0000
00000020: 0000 0000 0000 0000 0000 0000 0000 0000
00000030: 0000 0000 0000 0000 2e81 6e4a c884 274a
00000040: 9643 774b 01bc 2b4b 0000 0000 0000 0000
00000050: f351 a247 8c9d 6e47 5eca 604c b199 1c4c
00000060: 699a 244c 1dc2 e54b 0000 0000 0000 0000
00000070: 0000 0000 0000 0000 0000 0000 0000 0000
2.795539e+06 1.9402272e+06 0.0 0.0 453278.2 301759.6 0.0 0.0
0.0 0.0 0.0 0.0 0.0 0.0 3.9076595e+06 2.744626e+06
1.6204694e+07 1.1254785e+07 0.0 0.0 83107.9 61085.547 5.892748e+07 4.1051844e+07
4.3149732e+07 3.0114874e+07 0.0 0.0 0.0 0.0 0.0 0.0

exp_avg f4 [16]
00000000: 5a3d c0bf 0000 0000 566b 17bf 0000 0000
00000010: 0000 0000 0000 0000 0000 0000 e2d5 e43f
00000020: 5aab 6740 0000 0000 9ffa 87be a4f5 dd40
00000030: 8e48 bd40 0000 0000 0000 0000 0000 0000
-1.5018723 0.0 -0.59148157 0.0 0.0 0.0 0.0 1.7877772
3.6198335 0.0 -0.26558396 6.9362354 5.915107 0.0 0.0 0.0

exp_avg_sq f4 [16]
00000000: 7fc0 3943 0000 0000 e859 e741 0000 0000
00000010: 0000 0000 0000 0000 0000 0000 0058 8343
00000020: 62af 8644 0000 0000 d9e2 ba40 379d 7545
00000030: 992b 3445 0000 0000 0000 0000 0000 0000
185.75194 0.0 28.9189 0.0 0.0 0.0 0.0 262.6875
1077.4807 0.0 5.8401914 3929.826 2882.7249 0.0 0.0 0.0

exp_avg f4 [8, 16]
00000000: 0000 0000 0000 0000 0000 0000 0000 0000
00000010: 0000 0000 0000 0000 0000 0000 0000 0000
00000020: 0000 0000 0000 0000 0000 0000 0000 0000
00000030: 0000 0000 0000 0000 0000 0000 0000 0000
00000040: 0000 0000 0000 0000 0000 0000 0000 0000
00000050: 0000 0000 0000 0000 0000 0000 0000 0000
00000060: 0000 0000 0000 0000 0000 0000 0000 0000
00000070: 0000 0000 0000 0000 0000 0000 0000 0000
00000080: 6982 3d44 0000 0000 7e0f 9044 0000 0000
00000090: 0000 0000 0000 0000 0000 0000 54da de43
000000a0: 463c 8f43 0000 0000 d074 1943 eb84 7742
000000b0: 2f06 4743 0000 0000 0000 0000 0000 0000
000000c0: 0000 0000 0000 0000 0000 0000 0000 0000
000000d0: 0000 0000 0000 0000 0000 0000 0000 0000
000000e0: 0000 0000 0000 0000 0000 0000 0000 0000
000000f0: 0000 0000 0000 0000 0000 0000 0000 0000
00000100: 0000 0000 0000 0000 0000 0000 0000 0000
00000110: 0000 0000 0000 0000 0000 0000 0000 0000
00000120: 0000 0000 0000 0000 0000 0000 0000 0000
00000130: 0000 0000 0000 0000 0000 0000 0000 0000
00000140: 0400 0000 0000 0000 0400 0000 0000 0000
00000150: 0000 0000 0000 0000 0000 0000 0400 0000
00000160: 0400 0000 0000 0000 0400 0000 0400 0000
00000170: 0400 0000 0000 0000 0000 0000 0000 0000
00000180: 0400 0000 0000 0000 0400 0000 0000 0000
00000190: 0000 0000 0000 0000 0000 0000 0400 0000
000001a0: 0400 0000 0000 0000 0400 0000 0000 0000
000001b0: 0400 0000 0000 0000 0000 0000 0000 0000
000001c0: 6f18 3642 0000 0000 fc36 8142 0000 0000
000001d0: 0000 0000 0000 0000 0000 0000 4985 f141
000001e0: 8efd 3041 0000 0000 8ab6 fc40 fd6c d93f
000001f0: 350f bb40 0000 0000 0000 0000 0000 0000
0.0 0.0 0.0 0.0 0.0 0.0 0.0 0.0
0.0 0.0 0.0 0.0 0.0 0.0 0.0 0.0
0.0 0.0 0.0 0.0 0.0 0.0 0.0 0.0
0.0 0.0 0.0 0.0 0.0 0.0 0.0 0.0
758.03766 0.0 1152.4841 0.0 0.0 0.0 0.0 445.7057
286.4709 0.0 153.4563 61.879803 199.02415 0.0 0.0 0.0
0.0 0.0 0.0 0.0 0.0 0.0 0.0 0.0
0.0 0.0 0.0 0.0 0.0 0.0 0.0 0.0
0.0 0.0 0.0 0.0 0.0 0.0 0.0 0.0
0.0 0.0 0.0 0.0 0.0 0.0 0.0 0.0
6e-45 0.0 6e-45 0.0 0.0 0.0 0.0 6e-45
6e-45 0.0 6e-45 6e-45 6e-45 0.0 0.0 0.0
6e-45 0.0 6e-45 0.0 0.0 0.0 0.0 6e-45
6e-45 0.0 6e-45 0.0 6e-45 0.0 0.0 0.0
45.52386 0.0 64.60739 0.0 0.0 0.0 0.0 30.19008
11.061903 0.0 7.8972826 1.6986386 5.8456063 0.0 0.0 0.0

exp_avg_sq f4 [8, 16]
00000000: 0000 0000 0000 0000 0000 0000 0000 0000
00000010: 0000 0000 0000 0000 0000 0000 0000 0000
00000020: 0000 0000 0000 0000 0000 0000 0000 0000
00000030: 0000 0000 0000 0000 0000 0000 0000 0000
00000040: 0000 0000 0000 0000 0000 0000 0000 0000
00000050: 0000 0000 0000 0000 0000 0000 0000 0000
00000060: 0000 0000 0000 0000 0000 0000 0000 0000
00000070: 0000 0000 0000 0000 0000 0000 0000 0000
00000080: bb8c 294c 0000 0000 f703 bf4c 0000 0000
00000090: 0000 0000 0000 0000 0000 0000 74d7 754b
000000a0: a291 a74a 0000 0000 3ebd d249 2839 5948
000000b0: 77e6 114a 0000 0000 0000 0000 0000 0000
000000c0: 0000 0000 0000 0000 0000 0000 0000 0000
000000d0: 0000 0000 0000 0000 0000 0000 0000 0000
000000e0: 0000 0000 0000 0000 0000 0000 0000 0000
000000f0: 0000 0000 0000 0000 0000 0000 0000 0000
00000100: 0000 0000 0000 0000 0000 0000 0000 0000
00000110: 0000 0000 0000 0000 0000 0000 0000 0000
00000120: 0000 0000 0000 0000 0000 0000 0000 0000
00000130: 0000 0000 0000 0000 0000 0000 0000 0000
00000140: f401 0000 0000 0000 f401 0000 0000 0000
00000150: 0000 0000 0000 0000 0000 0000 f401 0000
00000160: f401 0000 0000 0000 f401 0000 f401 0000
00000170: f401 0000 0000 0000 0000 0000 0000 0000
00000180: f401 0000 0000 0000 f401 0000 0000 0000
00000190: 0000 0000 0000 0000 0000 0000 f401 0000
000001a0: f401 0000 0000 0000 f401 0000 0000 0000
000001b0: f401 0000 0000 0000 0000 0000 0000 0000
000001c0: 7de6 2948 0000 0000 1ca9 ac48 0000 0000
000001d0: 0000 0000 0000 0000 0000 0000 e72a 9347
000001e0: b567 2b46 0000 0000 ce3c a745 bd34 9043
000001f0: b585 4d45 0000 0000 0000 0000 0000 0000
0.0 0.0 0.0 0.0 0.0 0.0 0.0 0.0
0.0 0.0 0.0 0.0 0.0 0.0 0.0 0.0
0.0 0.0 0.0 0.0 0.0 0.0 0.0 0.0
0.0 0.0 0.0 0.0 0.0 0.0 0.0 0.0
4.4446444e+07 0.0 1.0014713e+08 0.0 0.0 0.0 0.0 1.6111476e+07
5.490897e+06 0.0 1.7263758e+06 222436.62 2.3904298e+06 0.0 0.0 0.0
0.0 0.0 0.0 0.0 0.0 0.0 0.0 0.0
0.0 0.0 0.0 0.0 0.0 0.0 0.0 0.0
0.0 0.0 0.0 0.0 0.0 0.0 0.0 0.0
0.0 0.0 0.0 0.0 0.0 0.0 0.0 0.0
7e-43 0.0 7e-43 0.0 0.0 0.0 0.0 7e-43
7e-43 0.0 7e-43 7e-43 7e-43 0.0 0.0 0.0
7e-43 0.0 7e-43 0.0 0.0 0.0 0.0 7e-43
7e-43 0.0 7e-43 0.0 7e-43 0.0 0.0 0.0
173977.95 0.0 353608.88 0.0 0.0 0.0 0.0 75349.805
10969.927 0.0 5351.6006 288.41202 3288.3567 0.0 0.0 0.0

exp_avg f4 [8]
00000000: 0000 0000 0000 0000 a300 1841 0000 0000
00000010: 0000 0000 0400 0000 0400 0000 521c 1c3f
0.0 0.0 9.500155 0.0 0.0 6e-45 6e-45 0.60980713

exp_avg_sq f4 [8]
00000000: 0000 0000 0000 0000 b90b e845 0000 0000
00000010: 0000 0000 f401 0000 f401 0000 58a7 f941
0.0 0.0 7425.4653 0.0 0.0 7e-43 7e-43 31.20671

exp_avg f4 [16, 10]
00000000: 44d5 e7c3 85c8 d6c3 0000 0000 0000 0000
00000010: 84f7 0ac2 0000 0000 0000 0000 0400 0000
00000020: 0400 0000 f208 13c3 193d 9b43 6bcd 8f43
00000030: 0000 0000 0000 0000 81de b941 0000 0000
00000040: 0000 0000 0400 0080 0400 0080 8ee5 c442
00000050: 0000 0000 0000 0000 0000 0000 0000 0000
00000060: 0000 0000 0000 0000 0000 0000 0000 0000
00000070: 0000 0000 0000 0000 e230 ce44 f84d a844
00000080: 0000 0000 0000 0000 81a1 e942 0000 0000
00000090: 0000 0000 0400 0080 0400 0080 3fad e843
000000a0: 0000 0000 0000 0000 0000 0000 0000 0000
000000b0: 0000 0000 0000 0000 0000 0000 0000 0000
000000c0: 0000 0000 0000 0000 c93a 8dc3 9833 83c3
000000d0: 0000 0000 0000 0000 38d4 aac1 0000 0000
000000e0: 0000 0000 0400 0080 0400 0000 753e b3c2
000000f0: 5743 6c43 97a1 8443 0000 0000 0000 0000
00000100: 8a9f a841 0000 0000 0000 0000 0000 0000
00000110: 0000 0000 c8fe b742 cec4 f743 7de9 e543
00000120: 0000 0000 0000 0000 ff4f 1542 0000 0000
00000130: 0000 0000 0400 0080 0400 0080 2627 1d43
00000140: 0000 0000 0000 0000 0000 0000 0000 0000
00000150: 0000 0000 0000 0000 0000 0000 0000 0000
00000160: 0000 0000 0000 0000 0000 0000 0000 0000
00000170: 0000 0000 0000 0000 0000 0000 0000 0000
00000180: 0000 0000 0000 0000 0000 0000 0000 0000
00000190: c7d2 f343 740d e243 0000 0000 0000 0000
000001a0: 9c73 1242 0000 0000 0000 0000 0400 0080
000001b0: 0400 0080 4ca2 1a43 2248 24c4 e869 18c4
000001c0: 0000 0000 0000 0000 60f6 45c2 0000 0000
000001d0: 0000 0000 0400 0000 0400 0000 9b69 50c3
000001e0: 0000 0000 0000 0000 0000 0000 0000 0000
000001f0: 0000 0000 0000 0000 0000 0000 0000 0000
00000200: 0000 0000 0000 0000 f765 a244 94ac 8544
00000210: 0000 0000 0000 0000 9ce1 bb42 0000 0000
00000220: 0000 0000 0400 0080 0400 0080 d0d3 b943
00000230: 0000 0000 0000 0000 0000 0000 0000 0000
00000240: 0000 0000 0000 0000 0000 0000 0000 0000
00000250: 0000 0000 0000 0000 0000 0000 0000 0000
00000260: 0000 0000 0000 0000 0000 0000 0000 0000
00000270: 0000 0000 0000 0000 0000 0000 0000 0000
-463.66614 -429.56656 0.0 0.0 -34.741714 0.0 0.0 6e-45
6e-45 -147.03494 310.47733 287.60483 0.0 0.0 23.233644 0.0
0.0 -6e-45 -6e-45 98.44835 0.0 0.0 0.0 0.0
0.0 0.0 0.0 0.0 0.0 0.0 1649.5276 1346.4365
0.0 0.0 116.81544 0.0 0.0 -6e-45 -6e-45 465.3535
0.0 0.0 0.0 0.0 0.0 0.0 0.0 0.0
0.0 0.0 -282.45926 -262.40308 0.0 0.0 -21.353622 0.0
0.0 -6e-45 6e-45 -89.62199 236.26305 265.26242 0.0 0.0
21.0779 0.0 0.0 0.0 0.0 91.99762 495.53754 459.82413
0.0 0.0 37.32812 0.0 0.0 -6e-45 -6e-45 157.15292
0.0 0.0 0.0 0.0 0.0 0.0 0.0 0.0
0.0 0.0 0.0 0.0 0.0 0.0 0.0 0.0
0.0 0.0 0.0 0.0 487.6467 452.1051 0.0 0.0
36.6129 0.0 0.0 -6e-45 -6e-45 154.63397 -657.1271 -609.6548
0.0 0.0 -49.4906 0.0 0.0 6e-45 6e-45 -208.41252
0.0 0.0 0.0 0.0 0.0 0.0 0.0 0.0
0.0 0.0 1299.1864 1069.3931 0.0 0.0 93.94064 0.0
0.0 -6e-45 -6e-45 371.6548 0.0 0.0 0.0 0.0
0.0 0.0 0.0 0.0 0.0 0.0 0.0 0.0
0.0 0.0 0.0 0.0 0.0 0.0 0.0 0.0

exp_avg_sq f4 [16, 10]
00000000: 8058 734b b694 5b4b 0000 0000 0000 0000
00000010: bf2d 7e47 0000 0000 0000 0000 f401 0000
00000020: f401 0000 7e78 b849 17b1 d14a d217 bd4a
00000030: 0000 0000 0000 0000 f7e3 db46 0000 0000
00000040: 0000 0000 f401 0000 f401 0000 fc0d 1f49
00000050: 0000 0000 0000 0000 0000 0000 0000 0000
00000060: 0000 0000 0000 0000 0000 0000 0000 0000
00000070: 0000 0000 0000 0000 f43c 3c4d 531b 034d
00000080: 0000 0000 0000 0000 5aca 1a49 0000 0000
00000090: 0000 0000 f401 0000 f401 0000 2270 5e4b
000000a0: 0000 0000 0000 0000 0000 0000 0000 0000
000000b0: 0000 0000 0000 0000 0000 0000 0000 0000
000000c0: 0000 0000 0000 0000 9d30 ff4a 90b2 e74a
000000d0: 0000 0000 0000 0000 96a1 0047 0000 0000
000000e0: 0000 0000 f401 0000 f401 0000 c27d 4049
000000f0: c7a3 654a 4dc5 974a 0000 0000 0000 0000
00000100: 3bcc b046 0000 0000 0000 0000 0000 0000
00000110: 0000 0000 88bc fe48 c32b af4b bab2 9e4b
00000120: 0000 0000 0000 0000 bb74 b247 0000 0000
00000130: 0000 0000 f401 0000 f401 0000 6f4a 044a
00000140: 0000 0000 0000 0000 0000 0000 0000 0000
00000150: 0000 0000 0000 0000 0000 0000 0000 0000
00000160: 0000 0000 0000 0000 0000 0000 0000 0000
00000170: 0000 0000 0000 0000 0000 0000 0000 0000
00000180: 0000 0000 0000 0000 0000 0000 0000 0000
00000190: 678b 944b 4a48 864b 0000 0000 0000 0000
000001a0: d369 9947 0000 0000 0000 0000 f401 0000
000001b0: f401 0000 d0d3 e049 7283 174c ea38 094c
000001c0: 0000 0000 0000 0000 7da9 1a48 0000 0000
000001d0: 0000 0000 f401 0000 f401 0000 b7ea 644a
000001e0: 0000 0000 0000 0000 0000 0000 0000 0000
000001f0: 0000 0000 0000 0000 0000 0000 0000 0000
00000200: 0000 0000 0000 0000 9c0b e44c 1e42 9f4c
00000210: 0000 0000 0000 0000 04fd bd48 0000 0000
00000220: 0000 0000 f401 0000 f401 0000 369a 074b
00000230: 0000 0000 0000 0000 0000 0000 0000 0000
00000240: 0000 0000 0000 0000 0000 0000 0000 0000
00000250: 0000 0000 0000 0000 0000 0000 0000 0000
00000260: 0000 0000 0000 0000 0000 0000 0000 0000
00000270: 0000 0000 0000 0000 0000 0000 0000 0000
1.5947904e+07 1.4390454e+07 0.0 0.0 65069.746 0.0 0.0 7e-43
7e-43 1.5111838e+06 6.8711795e+06 6.196201e+06 0.0 0.0 28145.982 0.0
0.0 7e-43 7e-43 651487.75 0.0 0.0 0.0 0.0
0.0 0.0 0.0 0.0 0.0 0.0 1.9738195e+08 1.3747538e+08
0.0 0.0 634021.6 0.0 0.0 7e-43 7e-43 1.4577698e+07
0.0 0.0 0.0 0.0 0.0 0.0 0.0 0.0
0.0 0.0 8.3620625e+06 7.592264e+06 0.0 0.0 32929.586 0.0
0.0 7e-43 7e-43 788444.1 3.7624178e+06 4.9732225e+06 0.0 0.0
22630.115 0.0 0.0 0.0 0.0 521700.25 2.2960006e+07 2.0800884e+07
0.0 0.0 91369.46 0.0 0.0 7e-43 7e-43 2.1674518e+06
0.0 0.0 0.0 0.0 0.0 0.0 0.0 0.0
0.0 0.0 0.0 0.0 0.0 0.0 0.0 0.0
0.0 0.0 0.0 0.0 1.947003e+07 1.760066e+07 0.0 0.0
78547.65 0.0 0.0 7e-43 7e-43 1.841786e+06 3.9718344e+07 3.597201e+07
0.0 0.0 158373.95 0.0 0.0 7e-43 7e-43 3.7505738e+06
0.0 0.0 0.0 0.0 0.0 0.0 0.0 0.0
0.0 0.0 1.1956144e+08 8.34972e+07 0.0 0.0 389096.12 0.0
0.0 7e-43 7e-43 8.886838e+06 0.0 0.0 0.0 0.0
0.0 0.0 0.0 0.0 0.0 0.0 0.0 0.0
0.0 0.0 0.0 0.0 0.0 0.0 0.0 0.0

exp_avg f4 [16]
00000000: b7dc 85c0 8e44 3340 0000 0000 f83b 4e41
00000010: 0000 0000 6458 23c0 c757 2940 012e 8f40
00000020: 0000 0000 0000 0000 2fd7 8c40 39d9 bdc0
00000030: 0000 0000 a517 2441 0000 0000 0000 0000
-4.1831927 2.8010592 0.0 12.889641 0.0 -2.55227 2.6459825 4.4743657
0.0 0.0 4.4012675 -5.9327664 0.0 10.255773 0.0 0.0

exp_avg_sq f4 [16]
00000000: 9c36 ab44 7771 1344 0000 0000 b97e 4d46
00000010: 0000 0000 eaa2 3444 c911 ec43 d175 f744
00000020: 0000 0000 0000 0000 2866 d144 4df9 5545
00000030: 0000 0000 37f0 f945 0000 0000 0000 0000
1369.7065 589.7729 0.0 13151.681 0.0 722.54553 472.13895 1979.6818
0.0 0.0 1675.1924 3423.5813 0.0 7998.027 0.0 0.0

exp_avg f4 [8, 16]
00000000: bcc2 9dc3 835c d4c3 0000 0000 dd44 e3c1
00000010: 0000 0000 6073 b1c2 3080 74c1 0377 b9c3
00000020: 0000 0000 0000 0000 e18a b0c3 50f1 81c3
00000030: 0000 0000 da59 03c2 0000 0000 0000 0000
00000040: e771 07c4 355d 36c4 0000 0000 44d9 43c2
00000050: 0000 0000 1578 18c3 455a d4c1 614c 1fc4
00000060: 0000 0000 0000 0000 a0a0 17c4 2126 dfc3
00000070: 0000 0000 c57b 62c2 0000 0000 0000 0000
00000080: b5ed a7c3 cf18 e2c3 0000 0000 1ec4 f2c1
00000090: 0000 0000 c306 bdc2 868c 83c1 577f c5c3
000000a0: 0000 0000 0000 0000 31fd bbc3 2f55 8ac3
000000b0: 0000 0000 d15d 0cc2 0000 0000 0000 0000
000000c0: 8fcb 4343 d9c4 8343 0000 0000 0fd8 8c41
000000d0: 0000 0000 f12c 5c42 811a 1741 0025 6643
000000e0: 0000 0000 0000 0000 3f13 5b43 e343 2143
000000f0: 0000 0000 9cc6 a241 0000 0000 0000 0000
00000100: 8e4d 16c2 9920 4bc2 0000 0000 4404 67c0
00000110: 0000 0000 d7ae 2bc1 5b4f 0dc0 fa11 32c2
00000120: 0000 0000 0000 0000 c653 29c2 7124 f8c1
00000130: 0000 0000 197a 86c0 0000 0000 0000 0000
00000140: 281b cc42 135c 0943 0000 0000 d2cb 1241
00000150: 0000 0000 3988 e541 3879 9d40 e6e8 ef42
00000160: 0000 0000 0000 0000 385e e442 ce1c a842
00000170: 0000 0000 10a6 2941 0000 0000 0000 0000
00000180: 9f25 3742 3758 7642 0000 0000 1355 8240
00000190: 0000 0000 b985 4d41 0cb0 0840 1f03 5742
000001a0: 0000 0000 0000 0000 09b1 4c42 b5cd 1642
000001b0: 0000 0000 396d 9640 0000 0000 0000 0000
000001c0: 9d1a 0443 07b8 3143 0000 0000 2073 3c41
000001d0: 0000 0000 3e47 1442 5277 c640 ac20 1b43
000001e0: 0000 0000 0000 0000 0caf 1343 718e d942
000001f0: 0000 0000 ae93 5941 0000 0000 0000 0000
-315.52136 -424.72275 0.0 -28.408625 0.0 -88.72534 -15.281296 -370.92978
0.0 0.0 -353.085 -259.88525 0.0 -32.837746 0.0 0.0
-541.7797 -729.45636 0.0 -48.962173 0.0 -152.46907 -26.544077 -637.1934
0.0 0.0 -606.50977 -446.29788 0.0 -56.62087 0.0 0.0
-335.8571 -452.19382 0.0 -30.34576 0.0 -94.51321 -16.443615 -394.99484
0.0 0.0 -375.97806 -276.6655 0.0 -35.091618 0.0 0.0
195.79515 263.53787 0.0 17.605497 0.0 55.043888 9.443971 230.14453
0.0 0.0 219.07518 161.26518 0.0 20.346977 0.0 0.0
-37.575737 -50.781834 0.0 -3.6096354 0.0 -10.7301855 -2.2079685 -44.517555
0.0 0.0 -42.33181 -31.017794 0.0 -4.2024045 0.0 0.0
102.05304 137.35966 0.0 9.174761 0.0 28.691515 4.921047 119.95488
0.0 0.0 114.18402 84.05626 0.0 10.603043 0.0 0.0
45.78674 61.586147 0.0 4.072885 0.0 12.845147 2.135745 53.753048
0.0 0.0 51.172886 37.700886 0.0 4.700833 0.0 0.0
132.10396 177.71886 0.0 11.778107 0.0 37.069572 6.2020655 155.12762
0.0 0.0 147.68378 108.778206 0.0 13.598555 0.0 0.0

exp_avg_sq f4 [8, 16]
00000000: a7e9 ff4a d5b1 5a4b 0000 0000 a6c0 2847
00000010: 0000 0000 8a64 4549 4d45 5e46 b658 2b4b
00000020: 0000 0000 0000 0000 a2d3 144b 67db b34a
00000030: 0000 0000 c429 4147 0000 0000 0000 0000
00000040: bf07 cf4b 3ea7 304c 0000 0000 f1d9 0648
00000050: 0000 0000 a082 204a 391a 3347 f180 0a4c
00000060: 0000 0000 0000 0000 3353 f04b 7fa0 914b
00000070: 0000 0000 4dbe 1948 0000 0000 0000 0000
00000080: 4e4d 1e4b 6916 874b 0000 0000 6d60 4e47
00000090: 0000 0000 f862 7549 e8fa 8846 acd1 534b
000000a0: 0000 0000 0000 0000 40c8 374b bdb0 de4a
000000b0: 0000 0000 ac58 6b47 0000 0000 0000 0000
000000c0: eca4 3e4a 1703 a34a 0000 0000 2398 7c46
000000d0: 0000 0000 4bc3 9248 a8d4 a545 de5e 7f4a
000000e0: 0000 0000 0000 0000 72e7 5d4a 3df1 054a
000000f0: 0000 0000 6cc8 9046 0000 0000 0000 0000
00000100: 71c1 ce48 09f5 2d49 0000 0000 4878 ef44
00000110: 0000 0000 c2f3 2747 8061 2c44 8f46 0949
00000120: 0000 0000 0000 0000 5aac eb48 6c95 9248
00000130: 0000 0000 a829 0345 0000 0000 0000 0000
00000140: c4a6 4e49 39b4 b049 0000 0000 7eee 8845
00000150: 0000 0000 3c12 9f47 7ec4 b344 9e68 8a49
00000160: 0000 0000 0000 0000 618b 7049 bf2f 1149
00000170: 0000 0000 12fc 9c45 0000 0000 0000 0000
00000180: 4456 f947 c455 5648 0000 0000 9056 2c44
00000190: 0000 0000 8e7c 3c46 17ea 5b43 187a 2748
000001a0: 0000 0000 0000 0000 f51c 1248 bba6 ae47
000001b0: 0000 0000 f83d 4844 0000 0000 0000 0000
000001c0: 6fa7 8949 9c66 ec49 0000 0000 42a4 bc45
000001d0: 0000 0000 8ae8 d047 8420 f244 d6cf b849
000001e0: 0000 0000 0000 0000 651a a149 d3f6 4049
000001f0: 0000 0000 6c96 da45 0000 0000 0000 0000
8.3857475e+06 1.4332373e+07 0.0 43200.65 0.0 808520.6 14225.325 1.1229366e+07
0.0 0.0 9.753506e+06 5.8935555e+06 0.0 49449.766 0.0 0.0
2.713587e+07 4.63086e+07 0.0 138087.77 0.0 2.6298e+06 45850.223 3.6307908e+07
0.0 0.0 3.1499878e+07 1.9087614e+07 0.0 157433.2 0.0 0.0
1.0374478e+07 1.7706194e+07 0.0 52832.426 0.0 1.0051035e+06 17533.453 1.3881772e+07
0.0 0.0 1.2044352e+07 7.2971185e+06 0.0 60248.67 0.0 0.0
3.123515e+06 5.3415795e+06 0.0 16166.034 0.0 300570.34 5306.582 4.1839915e+06
0.0 0.0 3.6356765e+06 2.1945112e+06 0.0 18532.21 0.0 0.0
423435.53 712528.56 0.0 1915.7588 0.0 42995.758 689.52344 562280.94
0.0 0.0 482658.8 300203.38 0.0 2098.6035 0.0 0.0
846444.25 1.4475591e+06 0.0 4381.8115 0.0 81444.47 1438.1404 1.1338438e+06
0.0 0.0 985270.06 594683.94 0.0 5023.509 0.0 0.0
127660.53 219479.06 0.0 689.35254 0.0 12063.139 219.91441 171496.38
0.0 0.0 149619.83 89421.46 0.0 800.96826 0.0 0.0
1.1276619e+06 1.9365955e+06 0.0 6036.532 0.0 106961.08 1937.0161 1.5139788e+06
0.0 0.0 1.3197566e+06 790381.2 0.0 6994.8027 0.0 0.0

exp_avg f4 [8]
00000000: a0ad 0ac1 5829 6ec1 71a3 13c1 831a ac40
00000010: 8b83 84bf c968 3340 47ea a03f 4d27 6840
-8.667389 -14.885094 -9.227403 5.3782363 -1.0352644 2.8032706 1.2571496 3.6273987

exp_avg_sq f4 [8]
00000000: 0d77 c845 ff39 a246 ff14 f845 ca51 1545
00000010: 7a7f a243 2cdb 2144 ec10 c342 a86f 5744
6414.8813 20764.998 7938.6245 2389.1118 324.9959 647.42456 97.53305 861.7446

exp_avg f4 [16, 8]
00000000: 17a7 01c0 015a 9e3d 3787 8c3f cf90 4841
00000010: 05ab 11c1 f9cd 6541 2e23 2f41 85c7 0f41
00000020: 0fc8 a2c1 5c11 423f 1422 3041 65a4 fb42
00000030: a5c3 b6c2 3129 1043 a7be db42 2169 b442
00000040: 0000 0000 0000 0000 0000 0000 0000 0000
00000050: 0000 0000 0000 0000 0000 0000 0000 0000
00000060: 0202 8ac1 ca97 243f c854 1541 d358 d542
00000070: 70f3 9ac2 d371 f442 c04d ba42 95f4 9842
00000080: 634a f3c0 d3b1 913e 5eaa 8340 0f13 3c42
00000090: 8b98 08c2 337d 5742 d63b 2442 a4d5 0642
000000a0: 0000 0000 0000 0000 0000 0000 0000 0000
000000b0: 0000 0000 0000 0000 0000 0000 0000 0000
000000c0: a1ff a840 ecbc 46be 67af 36c0 ac93 02c2
000000d0: 1fac bd41 be9b 15c2 ed0d e4c1 363d bbc1
000000e0: 0000 0000 0000 0000 0000 0000 0000 0000
000000f0: 0000 0000 0000 0000 0000 0000 0000 0000
00000100: 0000 0000 0000 0000 0000 0000 0000 0000
00000110: 0000 0000 0000 0000 0000 0000 0000 0000
00000120: c186 c2c1 00de 673f 917a 5241 7b5b 1643
00000130: a667 dac2 0746 2c43 6b4c 0343 ad97 d742
00000140: 0000 0000 0000 0000 0000 0000 0000 0000
00000150: 0000 0000 0000 0000 0000 0000 0000 0000
00000160: 0400 0080 0400 0000 0400 0000 0400 0000
00000170: 0400 0080 0400 0000 0400 0000 0400 0000
00000180: 0000 0000 0000 0000 0000 0000 0000 0000
00000190: 0000 0000 0000 0000 0000 0000 0000 0000
000001a0: 0bb3 87bd c89f 743f ba0b 4d3f 4d4f 8640
000001b0: bd1c 65c0 83b3 9f40 48c6 6340 4371 1740
000001c0: 0000 0000 0000 0000 0000 0000 0000 0000
000001d0: 0000 0000 0000 0000 0000 0000 0000 0000
000001e0: 0000 0000 0000 0000 0000 0000 0000 0000
000001f0: 0000 0000 0000 0000 0000 0000 0000 0000
-2.0258234 0.07732011 1.0978764 12.535354 -9.104253 14.362786 10.946089 8.986211
-20.347685 0.7580774 11.00832 125.82108 -91.38212 144.1609 109.87237 90.20533
0.0 0.0 0.0 0.0 0.0 0.0 0.0 0.0
-17.25098 0.6429411 9.333199 106.673485 -77.475464 122.22231 93.151855 76.4777
-7.6028304 0.28455982 4.114547 47.018612 -34.148968 53.872265 41.058434 33.708633
0.0 0.0 0.0 0.0 0.0 0.0 0.0 0.0
5.2812047 -0.19408005 -2.8544557 -32.64421 23.709044 -37.402092 -28.5068 -23.404888
0.0 0.0 0.0 0.0 0.0 0.0 0.0 0.0
0.0 0.0 0.0 0.0 0.0 0.0 0.0 0.0
-24.315798 0.9057312 13.154923 150.35735 -109.20244 172.27354 131.29851 107.79624
0.0 0.0 0.0 0.0 0.0 0.0 0.0 0.0
-6e-45 6e-45 6e-45 6e-45 -6e-45 6e-45 6e-45 6e-45
0.0 0.0 0.0 0.0 0.0 0.0 0.0 0.0
-0.066259466 0.95556307 0.8009602 4.1971803 -3.579879 4.990663 3.5589771 2.366288
0.0 0.0 0.0 0.0 0.0 0.0 0.0 0.0
0.0 0.0 0.0 0.0 0.0 0.0 0.0 0.0

exp_avg_sq f4 [16, 8]
00000000: f988 1943 3bd0 5f42 8848 3a43 f49b 3446
00000010: 6b95 be45 87e7 7046 ec7d 0646 3400 ac45
00000020: bbeb 7246 7b0e b145 1a5e 9346 ffe0 8e49
00000030: efc4 1649 d293 be49 76ca 5449 8e11 0849
00000040: 0000 0000 0000 0000 0000 0000 0000 0000
00000050: 0000 0000 0000 0000 0000 0000 0000 0000
00000060: 668f 2e46 4076 7e45 f7ca 5346 8557 4d49
00000070: 87ae d848 50f2 8849 ade8 1849 ef8d c348
00000080: 6290 0745 d59d 4544 dd7a 2445 4678 1f48
00000090: c146 a847 0db5 5448 ef7f ed47 79de 9747
000000a0: 0000 0000 0000 0000 0000 0000 0000 0000
000000b0: 0000 0000 0000 0000 0000 0000 0000 0000
000000c0: 4521 8344 a226 bf43 3f19 9f44 c640 9a47
000000d0: 7bc5 2247 9fbf cd47 15bb 6547 7fe6 1247
000000e0: 0000 0000 0000 0000 0000 0000 0000 0000
000000f0: 0000 0000 0000 0000 0000 0000 0000 0000
00000100: 0000 0000 0000 0000 0000 0000 0000 0000
00000110: 0000 0000 0000 0000 0000 0000 0000 0000
00000120: 5b86 ad46 ebf3 fc45 9889 d246 db1f cc49
00000130: b365 5749 7022 084a a100 9849 2865 4249
00000140: 0000 0000 0000 0000 0000 0000 0000 0000
00000150: 0000 0000 0000 0000 0000 0000 0000 0000
00000160: f401 0000 f401 0000 f401 0000 f401 0000
00000170: f401 0000 f401 0000 f401 0000 f401 0000
00000180: 0000 0000 0000 0000 0000 0000 0000 0000
00000190: 0000 0000 0000 0000 0000 0000 0000 0000
000001a0: 27ae 9144 54e4 d144 16ef 5a45 8e01 1848
000001b0: b951 9f47 b29e 4c48 0a4c df47 1fa9 8a47
000001c0: 0000 0000 0000 0000 0000 0000 0000 0000
000001d0: 0000 0000 0000 0000 0000 0000 0000 0000
000001e0: 0000 0000 0000 0000 0000 0000 0000 0000
000001f0: 0000 0000 0000 0000 0000 0000 0000 0000
153.53505 55.95335 186.28333 11558.988 6098.6772 15417.882 8607.48 5504.0254
15546.933 5665.81 18863.05 1.1704639e+06 617550.94 1.5612102e+06 871591.4 557336.9
0.0 0.0 0.0 0.0 0.0 0.0 0.0 0.0
11171.85 4071.3906 13554.741 841080.3 443764.22 1.121866e+06 626314.8 400495.47
2169.024 790.4661 2631.679 163297.1 86157.51 217812.2 121599.87 77756.945
0.0 0.0 0.0 0.0 0.0 0.0 0.0 0.0
1049.0397 382.30182 1272.789 78977.55 41669.48 105343.24 58811.082 37606.496
0.0 0.0 0.0 0.0 0.0 0.0 0.0 0.0
0.0 0.0 0.0 0.0 0.0 0.0 0.0 0.0
22211.178 8094.4897 26948.797 1.6721874e+06 882267.2 2.230428e+06 1.2452041e+06 796242.5
0.0 0.0 0.0 0.0 0.0 0.0 0.0 0.0
7e-43 7e-43 7e-43 7e-43 7e-43 7e-43 7e-43 7e-43
0.0 0.0 0.0 0.0 0.0 0.0 0.0 0.0
1165.4423 1679.1353 3502.9429 155654.22 81571.445 209530.78 114328.08 70994.24
0.0 0.0 0.0 0.0 0.0 0.0 0.0 0.0
0.0 0.0 0.0 0.0 0.0 0.0 0.0 0.0

exp_avg f4 [16]
00000000: e14d be3b a6ba 6e3d 0000 0000 4866 4a3d
00000010: c66d b23c 0000 0000 fbba 77bc 0000 0000
00000020: 0000 0000 3aa4 8e3d 0000 0000 0400 0000
00000030: 0000 0000 91bd 1c3b 0000 0000 0000 0000
0.0058076237 0.05828347 0.0 0.04941395 0.02178086 0.0 -0.015120263 0.0
0.0 0.069649175 0.0 6e-45 0.0 0.0023916701 0.0 0.0

exp_avg_sq f4 [16]
00000000: a3ca 393b 6afa 923e 0000 0000 ca3b 533e
00000010: 9e0b 243d 0000 0000 bfad 9e3c 0000 0000
00000020: 0000 0000 43fb d13e 0000 0000 f401 0000
00000030: 0000 0000 c68d 283d 0000 0000 0000 0000
0.002834954 0.28706676 0.0 0.20628276 0.04005014 0.0 0.019369958 0.0
0.0 0.4101201 0.0 7e-43 0.0 0.04115083 0.0 0.0

exp_avg f4 [1, 16]
00000000: df95 4043 a65b 4543 0000 0000 dff7 1a43
00000010: ffa7 bc43 0000 0000 9350 2443 0000 0000
00000020: 0000 0000 f250 f943 0000 0000 0400 0080
00000030: 0000 0000 d74f 81bc 0000 0000 0000 0000
192.58543 197.358 0.0 154.96825 377.31247 0.0 164.31474 0.0
0.0 498.6324 0.0 -6e-45 0.0 -0.01578514 0.0 0.0

exp_avg_sq f4 [1, 16]
00000000: a30c 1d4a c931 de49 0000 0000 94a0 7c49
00000010: 0953 0a4b 0000 0000 4464 324a 0000 0000
00000020: 0000 0000 b590 704b 0000 0000 f401 0000
00000030: 0000 0000 08b6 4f44 0000 0000 0000 0000
2.5730968e+06 1.8202171e+06 0.0 1.03476125e+06 9.065225e+06 0.0 2.922769e+06 0.0
0.0 1.5765685e+07 0.0 7e-43 0.0 830.84424 0.0 0.0
