deepsets/best_model.pt (torch, 37794 bytes, 33 tensors)

phi.0.weight f4 [64, 2]
00000000: b472 eabe db52 04bf db58 2cbf b727 273d
00000010: b186 e1be 09dd 35be 3f1f 013f 59b2 24bf
00000020: b9a5 bcbe cec5 193f 308f 42bc 6ab1 133f
00000030: 6d0d 00bf c642 6c3e 93e6 993e 67d2 1cbf
00000040: a2b0 3b3e d528 643e e551 053f ed3b 033f
00000050: 35ef f9be 47ce fa3e d5d1 be3e db82 c43e
00000060: dadf cf3e af57 6fbd c7d6 20bf 647d 82be
00000070: d883 953e cf05 70bd 9e07 ba3e f619 053f
00000080: 594d 18bf 5ea7 073f 4bc1 f0be fe98 2d3f
00000090: b484 d53e 7b87 303e 2d79 753e daa6 a9be
000000a0: 2d46 68be 8c3e 3b3e 711c 283e 9d57 1a3f
000000b0: aad8 973c b1f1 083f a6ed 0b3f 2e46 0fbe
000000c0: a2cd 4f3e 4334 d2be cc80 cbbe 625e 0f3f
000000d0: f2ba 31bf 538d 06bf 02d3 9f3e 4299 163f
000000e0: 4c1b 3cbe 0acb 48be 80b4 0ebf 61b0 103f
000000f0: 15c6 6bbe 3483 373d 7898 0dbf 6be8 aabe
00000100: 34e6 0cbe 4c67 1ebf 47e8 f1be 2044 313e
00000110: 6bab 13bf 760a f2be a8b8 65b9 1bf3 f13d
00000120: 7226 983c efb5 bcbd fd85 ef3e 536d cc3d
00000130: 58c2 74be 8366 203f 1412 27bf c705 c43d
00000140: 57b4 333f 3e8e 173f 130d 84be e0fd 263f
00000150: 6e27 01be 722d fcbe b9cc 213e 14ef 323f
00000160: d24b b4be 6f76 19be 7e84 53be 6aa7 cb3e
00000170: f323 31bf 5b6b d7be d35d f03e 0289 343e
00000180: ad83 b93d baf9 003f a0c1 3bbe cd8c b53e
00000190: f29c 50bb 4cd0 7fbe 78d1 1e3e 99cf cb3e
000001a0: b303 96be 4b28 043f 6644 a5be 9f25 34bf
000001b0: 7b8d dc3e 93ef 133f ea82 953e c120 bcbe
000001c0: e0f6 2bbd 1876 98be d102 263e 31ee 85ba
000001d0: 240b efbc 4598 2dbe f9ce 1ebf bb84 ae3d
000001e0: c4a1 583e 56c4 2bbf 75db 233f 2b9a 18be
000001f0: f6c9 f7be 7969 1bbf b2a4 de3d 7809 a2be
-0.45790637 -0.5168893 -0.6732308 0.04080936 -0.44048074 -0.177601 0.504383 -0.64334637
-0.36845186 0.6006745 -0.011874959 0.5769259 -0.50020486 0.23072347 0.30058727 -0.6125855
0.18329099 0.22281201 0.52078086 0.51263314 -0.48815313 0.48985502 0.37269464 0.38381085
0.40600473 -0.05843323 -0.62827724 -0.2548629 0.2920215 -0.05859929 0.36333936 0.5199274
-0.59493023 0.5298976 -0.4702247 0.6781157 0.41702807 0.17239182 0.23972006 -0.3313511
-0.2268302 0.18285578 0.164171 0.6028994 0.01853593 0.5349379 0.546595 -0.13991615
0.20293286 -0.41055498 -0.39746702 0.5600339 -0.6942588 -0.52559394 0.31215674 0.588276
-0.18369788 -0.19608703 -0.5574417 0.5651913 -0.23024781 0.04480286 -0.55310774 -0.33380446
-0.1375969 -0.6187637 -0.47247526 0.17311144 -0.5768344 -0.47273606 -0.00021907932 0.11813947
0.01857302 -0.092143886 0.46781912 0.099817894 -0.23902261 0.6265642 -0.6526196 0.095714144
0.7019705 0.5920142 -0.25791225 0.6523113 -0.12612697 -0.49253422 0.15800752 0.69896054
-0.35214096 -0.14986585 -0.2065601 0.39776164 -0.6919548 -0.42074093 0.46946582 0.1763039
0.09058318 0.5038105 -0.18335581 0.35458985 -0.0031831828 -0.24981803 0.15509593 0.39806822
-0.29299697 0.5162398 -0.32278746 -0.70369905 0.4307669 0.57787436 0.29201442 -0.3674374
-0.041983485 -0.29777598 0.16212012 -0.0010218081 -0.029180117 -0.16952617 -0.62034565 0.0852141
0.21155459 -0.6709646 0.6400674 -0.1490256 -0.4839627 -0.60707814 0.10871257 -0.3164785

phi.0.bias f4 [64]
00000000: 6176 e0be fdc5 17bf e385 b9bd 36bd 6d3d
00000010: 26ab 923d f61d 00bf 4e95 f53e 79d8 5dbe
00000020: 816d 2abe 4c86 693e fcf9 233f 7ff2 dabd
00000030: 2288 e0be 35cb e53e 33ab 0fbf 9aa8 93bd
00000040: 7dc8 d03e 652c 173f 1506 34be cfcc d83e
00000050: 5a41 dbbe 26da 25bf 9323 94be 5e07 32bf
00000060: ab69 4ebe 9e69 43be 7941 35be 80d3 9a3e
00000070: c5a7 203f 4bbd 593e 4ddf 8d3c f565 ca3c
00000080: 92f9 dcbe 2ef9 113e ab66 23be 71a1 52be
00000090: e490 f83d de81 91be c278 313f 3e23 093f
000000a0: 1b2f cf3d 76df f33e 59a8 12bf 93f8 e0be
000000b0: 0784 e83e 6a44 06bf 2474 0a3f dbcf 093d
000000c0: f2f8 07bf 9953 ed3e ecc5 c63d ca54 1bbf
000000d0: b1fa 003f ca57 3ebd 940d 1c3f c65d debe
000000e0: 125f 09be 02a0 45be 4f9e a33e b694 0bbe
000000f0: 4c9a 04be e3a3 1bbf 524c 1c3e fab1 183f
-0.43840316 -0.5928648 -0.0905874 0.058041774 0.0716155 -0.50045717 0.47965473 -0.21664609
-0.16643335 0.22805136 0.6405332 -0.10690784 -0.4385386 0.44881597 -0.56120604 -0.072098926
0.4077796 0.59052116 -0.17580445 0.42343757 -0.42823297 -0.64785993 -0.2893339 -0.6954249
-0.20157497 -0.19083259 -0.17700757 0.30239487 0.62755996 0.21263616 0.017318392 0.02470682
-0.43159157 0.14255211 -0.15957133 -0.20569398 0.12137011 -0.28419393 0.69324887 0.535694
0.101164065 0.47631425 -0.5728813 -0.43939647 0.4541323 -0.5244814 0.54083467 0.033645492
-0.53114235 0.46352842 0.09705719 -0.6067625 0.50382525 -0.04647044 0.6095822 -0.43430918
-0.13415173 -0.1929932 0.31956717 -0.13630947 -0.12949485 -0.60796946 0.15263489 0.5964657

phi.2.weight f4 [8, 64]
00000000: 641d 9bbd 963b ccbd 4000 6cbb 2233 ed3d
00000010: 4a95 e23d 90d1 3fbd e8cd b43d 10a8 0b3d
00000020: 7c0a 89bd 8c15 55bd 2c4b e73d 2c15 313d
00000030: c676 aabd e896 c9bd 6402 c9bd 00ca f63d
00000040: 4cda f5bd 704a 333d 64f5 aebd 2c12 20bd
00000050: f8a9 fbbc a006 d4bb ec90 b43d 4c5e 91bd
00000060: 9c7e 57bd 809e 99bb be12 a3bd bcf3 8e3d
00000070: 98f0 95bd 08b9 c73c 145c df3d f671 b43d
00000080: a8cf a7bc 7895 c33d 90ed 2abc 0048 b8ba
00000090: 26ad afbd 807f c3bc 6020 f73d 1818 a53d
000000a0: 00f3 e23a 2ad7 9ebd e000 7bbc 2419 ddbd
000000b0: ec17 12bd 7235 dfbd f037 96bd dc4d 3d3d
000000c0: 00e3 eeba d8b3 803c 5a1e c5bd 428b 9cbd
000000d0: 7031 c63d 3291 b63d 181b ed3c cc9d 38bd
000000e0: fac1 b9bd ee60 bc3d 9c1d fc3d 26b4 88bd
000000f0: 1059 78bd b485 743d f838 cbbd 343c c0bd
00000100: ea81 ccbd 289a 0cbd 3cd9 513d 1e52 ec3d
00000110: 78cb 0c3d 1857 7fbd d2d5 983d 441b c03d
00000120: 3464 6a3d 0c34 cbbd b8a2 ab3d 9804 8e3d
00000130: baaf 973d 48c0 eabd aece cabd f20b bf3d
00000140: c03f 4dbb 484e 973c 8cbf 193d 40db 65bc
00000150: 60d3 9a3c 288a 9b3c f078 dabd 9040 573c
00000160: c499 5c3d 2ca0 59bd da82 b63d d6d8 8b3d
00000170: 8040 523b f2ba fb3d f8a6 7ebd c0b0 a13c
00000180: 2417 1abd 1a10 d4bd 6e1b c93d 3e6c f53d
00000190: cc8b 7b3d 70e8 35bd c223 f13d 0088 1ebb
000001a0: d45f 173d fc8d 863d 9020 233d 9ccc 553d
000001b0: e4a3 f53d 3826 f9bc facb 81bd 1259 ab3d
000001c0: 0aae f13d 7854 cbbc 400a 4b3c 6087 f93d
000001d0: b88d 833d c8d0 f8bc 008d 7d3a 2080 c03c
000001e0: e63c bd3d 68d1 4d3d 449a fcbd 829b f7bd
000001f0: 90f1 953c a4c8 0a3d c45b e3bd 005b 7fbb
00000200: a099 b93b 78fd 67bd 06e4 dbbd 9e8c 9a3d
00000210: 58cb f13c d2d9 d13d 147e a93d 58dd 603d
00000220: ba2f e3bd 1c90 3bbd 364b 98bd 20d3 c03b
00000230: f07c 0fbd ae93 853d 989f f93d aed2 823d
00000240: 8858 2cbd f010 603c 9651 c3bd c078 d23d
00000250: 4c4a b8bd 1230 b93d c228 aa3d 1c0e 6b3d
00000260: ac8a 7f3d a07e 5ebc 0000 0236 e4b6 d93d
00000270: d860 a23c 10a6 afbd 6086 8fbd 4472 32bd
00000280: 0812 7fbd ecb1 db3d 98a7 e0bc b87a 41bd
00000290: 88df 6e3d 6865 3d3d 863a a9bd dea0 c73d
000002a0: 5e99 f6bd b074 8a3d 98cd dc3c 9c75 4fbd
000002b0: deca af3d f2c8 fdbd 40c7 b83b 6061 6ebd
000002c0: da9e dd3d 18d6 f3bc 141e b7bd 04c0 2c3d
000002d0: b688 c4bd c0b8 993b 0604 833d 4283 d73d
000002e0: e00c ec3d 480b e83c d4e0 eebd 4c86 343d
000002f0: 60bd 12bc 3080 d6bd a889 88bd 2aca 8d3d
00000300: 1885 9fbd 4cdf dbbd b469 a23d 88ca 4e3d
00000310: 80f5 5a3b faf4 d43d f81a febc c0d1 d93d
00000320: fa19 9cbd 1467 74bd eea0 c2bd c0c1 92bb
00000330: d493 553d cc4a 19bd c0cc 44bc 60a2 82bb
00000340: 3891 a63d 2acc fabd 70c5 7f3d fa74 e5bd
00000350: 0c04 733d f81e 5f3d 4c1b fd3d 6236 babd
00000360: 80d3 ea3b be63 823d 602e 18bc 1405 f3bd
00000370: d47e 31bd d0e9 2abc 5cde 503d 4c31 adbd
00000380: 1a83 813d 8040 debd f49a 5c3d da43 ca3d
00000390: 9e06 b73d 60db cb3d 60ca 17bc 90df f6bc
000003a0: 1ebd cdbd cc3f a6bd b045 b2bd 00ab f5bd
000003b0: 50af f93d a09f 87bd 08ed a4bc 728f b43d
000003c0: 2e65 f1bd f87f 443d f8ad b2bd 88fc ae3c
000003d0: c09c e1bd 409d 1ebb 2836 be3d 6011 abbb
000003e0: 42f8 9f3d 1ec0 893d 90ff 4a3c 8096 023c
000003f0: 327f ca3d 4090 b8bb 5057 d63d b00f 63bd
-0.07573965 -0.099723026 -0.0036010891 0.115820184 0.11063631 -0.046830714 0.08828336 0.034095824
-0.06691453 -0.0520225 0.11293635 0.04323308 -0.083234355 -0.09843236 -0.09814909 0.12050247
-0.120045274 0.04377216 -0.08542898 -0.03907983 -0.030720696 -0.0064705163 0.08816704 -0.07098064
-0.05261098 -0.004688084 -0.07962559 0.069800824 -0.0732128 0.024380222 0.109062344 0.08810799
-0.02048476 0.09549993 -0.010432616 -0.0014059544 -0.08577947 -0.023864508 0.12066722 0.08061236
0.0017314851 -0.07755883 -0.015320033 -0.10795811 -0.035667345 -0.10898866 -0.07334888 0.04621683
-0.001822561 0.015710756 -0.0962493 -0.07643749 0.09677398 0.089144126 0.028943583 -0.04507236
-0.09070201 0.09198175 0.12310335 -0.066749856 -0.06063181 0.05969782 -0.09922975 -0.09386483
-0.09985717 -0.034326702 0.05123256 0.115391 0.03437373 -0.06233892 0.07462658 0.093802005
0.057224467 -0.099220365 0.083806455 0.0693447 0.07406564 -0.11462456 -0.09902702 0.0932845
-0.0031318516 0.018469945 0.03753619 -0.014029324 0.01889962 0.018986776 -0.10667598 0.0131379515
0.05385758 -0.053131267 0.08911677 0.068284675 0.0032081902 0.12291516 -0.062170953 0.019737601
-0.037619725 -0.10354634 0.09819685 0.11983536 0.061412618 -0.044411123 0.117743984 -0.002418995
0.036956623 0.0657005 0.039825976 0.052197084 0.1199415 -0.030413732 -0.063377336 0.08366598
0.118007734 -0.024820551 0.0123925805 0.12184024 0.06423515 -0.030372992 0.0009672195 0.023498595
0.09240131 0.050248533 -0.12334111 -0.12090208 0.018303663 0.033882752 -0.11101487 -0.0038964152
0.0056640655 -0.05663821 -0.107368514 0.07546352 0.029515907 0.10246624 0.082760006 0.05489859
-0.110930875 -0.04579173 -0.0743622 0.005884543 -0.03503126 0.06522308 0.12188643 0.0638784
-0.042076617 0.013675913 -0.09537046 0.102769375 -0.08998546 0.09042372 0.08308555 0.057386503
0.062388107 -0.013579994 1.937151e-06 0.10630587 0.01982157 -0.08576596 -0.07008052 -0.043566003
-0.062273055 0.10727295 -0.027423665 -0.047236174 0.058318645 0.046239287 -0.082631156 0.0974748
-0.12040971 0.067605376 0.026953503 -0.05064927 0.08583616 -0.12391843 0.005638987 -0.058198333
0.10821314 -0.029765174 -0.08941284 0.042175308 -0.09596388 0.0046912134 0.06397252 0.10523082
0.11525893 0.028325692 -0.11663976 0.044073388 -0.008956283 -0.104736686 -0.06666881 0.06923325
-0.077890575 -0.1073595 0.079303175 0.050486118 0.003341049 0.10398288 -0.03101872 0.1063571
-0.07622142 -0.059668615 -0.09503351 -0.004478663 0.052142933 -0.037424847 -0.012011707 -0.0039866418
0.08133167 -0.122459725 0.06244415 -0.11203952 0.05933003 0.054472893 0.12358722 -0.09092404
0.007166326 0.063666806 -0.0092884 -0.11866203 -0.043333843 -0.010431722 0.05099331 -0.08456668
0.06323834 -0.10852146 0.053858712 0.09876223 0.08936809 0.09953952 -0.009264559 -0.0301359
-0.10045837 -0.08117637 -0.08704698 -0.11995506 0.12191641 -0.06622243 -0.020132557 0.088164225
-0.117868766 0.047973603 -0.08724588 0.02136065 -0.11016226 -0.0024202615 0.09287673 -0.005220577
0.07811023 0.067260966 0.012390032 0.007970452 0.09887542 -0.0056324303 0.10465872 -0.055434883

phi.2.bias f4 [8]
00000000: 48b2 ff3c 90a1 4dbc 6857 81bc 7a86 bbbd
00000010: c85a e13d 00f9 67bc e0d9 ed3d d832 1e3d
0.03121294 -0.0125507265 -0.015788749 -0.09156509 0.11003643 -0.014158487 0.11613822 0.038622707

rho.0.weight f4 [32, 10]
00000000: 035e 90bc 8667 693e a033 65bd 570d 913d
00000010: 3ec7 393e 6907 87be 08b0 70bd 47b2 183e
00000020: 21f3 073e 354f 093d 1ba8 78be 109b fdbc
00000030: aa1f ab3a 43d6 b1bd 6f0d 983e c0ea 163e
00000040: 14d0 6b3e 804c 303c 0dbd 95be 4344 7f3e
00000050: 304d 7e3e 7fb9 8cbd 9f8a 3f3e afde 9e3c
00000060: 1673 71be 40f1 05be c8af 14be a7e5 7d3d
00000070: 80b4 e73d 3466 58be d26e 9ebd 629e 1b3e
00000080: 27af 8ebe 448f 13be f936 613e c05f 9f3e
00000090: 7268 19be a98f edbd a5df 99bd 70b0 8ebd
000000a0: e6b3 83be 2064 143c 7821 593e c4a7 df3d
000000b0: d90f 1a3e b0f2 9cbe 2930 08be 52b3 84bc
000000c0: 63c7 963e 25b6 aabd 20df 883d 5f70 30be
000000d0: 7a0d b7bb 58f2 5a3d 7384 0fbd 4cf1 99be
000000e0: a19a 833e 5802 2bbe 0907 823e cf4e 63bc
000000f0: b196 39bb 6868 193e dc32 5abe e526 b1bd
00000100: af93 3a3e 4e44 4bbd 1dc1 02be 1104 8bbe
00000110: 8630 d5bd bcc1 963e 19e0 36bd 524d 9fbe
00000120: df4f 833e 70f5 623e c549 8c3e ead1 93be
00000130: 8f37 bb3d b7cf a63d 92b0 543e 8003 9b3e
00000140: bbd1 093d d085 0c3e 5b22 88bc 910e dbbb
00000150: c8e4 75be 6327 7e3d 386f 5c3e 55d6 b93d
00000160: 41b7 81be cade 8bbe 3de7 6f3e a758 043e
00000170: a99b 3c3e 64d9 723d 5718 803e 9826 9dbd
00000180: 8fe3 a03c 7547 893e f239 74be 1238 513e
00000190: 12e2 cfbd 3ed1 e4bc 24ff 7cbe f5bd 9ebd
000001a0: 5f15 27be 27b7 42be 3f62 87be 0e9c 25be
000001b0: e975 0d3e 7dd4 5abe e443 093e ee72 e53d
000001c0: 4f92 77be fe09 5d3e d1e2 623d 9da7 c3bd
000001d0: d85e 83be c17d 0dbe 228f ce3d aa5a 8cbe
000001e0: 9edd 5ebe a967 673d 7615 71bd 4359 0d3e
000001f0: bf0b 9a3e 8b24 7e3e c2c1 6b3e 3023 64be
00000200: 78f7 843c d647 b03c 0ea6 90be e865 3ebe
00000210: ef7d 5abe c110 3abe 9904 a33d 14b7 ab3d
00000220: 3f4b 3abe f00f 8fbd 9b34 89bd cf46 80be
00000230: 71c1 8e3e 3e85 213e 309a 22be 42e7 963e
00000240: 0640 76be 87c9 8dbe c499 913e 5191 a03e
00000250: 0ff7 443e 319f 4e3e 849b 233e 1f4f 98be
00000260: 2ff9 f73d 98ce 643d ed22 ffbd 8c29 533e
00000270: 2418 993e f5d5 a13e 8dd4 c2bd e39d 683e
00000280: 0a56 6f3e 38e7 373e 97a2 f03d 4563 003e
00000290: c490 9bbe 158a 31be 375d b23d 05ed 2abe
000002a0: 2a61 a0be f5cd fabd 2493 90be 6c35 073e
000002b0: 15e8 87be 0c35 513d 0489 333e b814 69be
000002c0: c72a 3fbd 2180 e4bc 6d49 9d3e 0099 993e
000002d0: 2b82 363e b056 823e edbd 81be eca7 03be
000002e0: 4f3c c9bd 08a0 983e a0d0 3abd cec9 333e
000002f0: 3d87 733e 2971 463d 99ab cf3d 46eb 783e
00000300: f960 563e c6ed a63d af2c 8dbe 9393 38be
00000310: 00b6 0e3e 17b4 9bbe d2f5 60bd bc8d ef3c
00000320: 39a8 63bd eaa5 303e e369 85be 9203 dabd
00000330: 3044 0e3d 0911 d1bd 452a 383e 75d1 843e
00000340: 39ed f03c 5aec 893d 3a17 3bbe 383e 4ebe
00000350: 5cf8 86be 8d52 28be 9427 8f3e cf73 493d
00000360: 9035 b8bd 7e94 75be acd7 623e 7f51 17be
00000370: 8f02 173e 8c51 56be 8925 8e3d a951 89be
00000380: b305 dcbc d88e 8fbe 4ec9 6cbd 04f2 9b3e
00000390: e58f 6bbe bc73 00bc 142f 9b3e 516e 933d
000003a0: 709a 973e 22e9 93bd 1eae 5abd be63 813e
000003b0: a214 78be 0745 48be 374d 2d3d 1325 f43d
000003c0: 7921 40bd 0258 aabd 7ea6 933e 3cc1 a0be
000003d0: 2493 54be 5b63 7dbe 7735 55bd 0c86 42be
000003e0: ab65 90be 0dd6 7c3d b9fe 98be dfc4 4b3e
000003f0: 9b55 85bd 5a3b 3e3d 5397 82bd 2ac8 d0bd
-0.017622953 0.22793397 -0.055957437 0.070826225 0.18142411 -0.2637284 -0.058761626 0.14911757
0.1327634 0.033522803 -0.24282877 -0.030957729 0.0013055701 -0.08683445 0.2969775 0.14737988
0.23028594 0.0107604265 -0.29245797 0.24928384 0.24834132 -0.06871318 0.18705224 0.019393293
-0.23579058 -0.13080311 -0.1452018 0.06198659 0.113137245 -0.21132737 -0.07735981 0.15197137
-0.27868006 -0.1441012 0.21993627 0.3112774 -0.14981249 -0.115996666 -0.0751336 -0.069672465
-0.2572319 0.009057075 0.21204174 0.10920671 0.15045108 -0.30653906 -0.13299622 -0.016198788
0.29448995 -0.083355226 0.06683183 -0.17230366 -0.0055863233 0.053453773 -0.035038423 -0.30066907
0.2570391 -0.16700113 0.25395992 -0.01387377 -0.002831858 0.14981234 -0.21308464 -0.08649997
0.182204 -0.049625687 -0.1276898 -0.2715154 -0.10409646 0.29444683 -0.04464731 -0.31113678
0.25646874 0.2216394 0.27400032 -0.2887109 0.09141456 0.08145087 0.20770481 0.30276108
0.03364728 0.1372292 -0.016617944 -0.006685086 -0.24013054 0.06204928 0.21526802 0.09074084
-0.25335124 -0.27318412 0.23428054 0.12924443 0.18418755 0.05928935 0.2501857 -0.07673377
0.019639758 0.2681233 -0.2385023 0.20431545 -0.10150541 -0.027931806 -0.24706703 -0.07751075
-0.16316746 -0.1901518 -0.26442143 -0.16172811 0.1381451 -0.2137012 0.13404804 0.11203562
-0.24176906 0.21585843 0.05539209 -0.09553454 -0.25658298 -0.13817503 0.10085894 -0.2741292
-0.21764228 0.056495342 -0.058858357 0.13803582 0.30087087 0.24818628 0.23023131 -0.22279048
0.016231284 0.021518629 -0.2825169 -0.18593562 -0.21337102 -0.18170454 0.07959861 0.08384529
-0.18192767 -0.06985462 -0.06699487 -0.25054023 0.2788196 0.15773484 -0.1587913 0.2947331
-0.2404786 -0.27692816 0.28437626 0.31360868 0.1923487 0.20177914 0.15977293 -0.29747865
0.12108075 0.055861086 -0.124578334 0.20621318 0.2990123 0.3160855 -0.09513197 0.22716479
0.23372665 0.17959297 0.117497616 0.12537868 -0.30383885 -0.1733783 0.087091856 -0.16691978
-0.3132413 -0.122463144 -0.2823726 0.13203973 -0.26544252 0.05107598 0.17532736 -0.2276181
-0.046671655 -0.027893128 0.30720082 0.29999542 0.17823093 0.25456762 -0.25340214 -0.12857026
-0.09825956 0.29809594 -0.045609117 0.17557451 0.23782058 0.04844776 0.101401515 0.243085
0.2093543 0.081508204 -0.27573153 -0.18025045 0.13936615 -0.30410835 -0.054921933 0.029242389
-0.05558035 0.17250791 -0.26057348 -0.10645212 0.034732997 -0.10208327 0.17984875 0.25941053
0.029409992 0.067345336 -0.18270579 -0.20140922 -0.26361358 -0.1643774 0.27959883 0.04918271
-0.08994591 -0.23982427 0.22152585 -0.14777182 0.1474707 -0.20929545 0.06940753 -0.26820114
-0.026858186 -0.2803867 -0.057809167 0.3045808 -0.2300411 -0.007840093 0.30309355 0.071987756
0.29610014 -0.07222201 -0.053388707 0.2527141 -0.24226621 -0.19557582 0.042309966 0.11921134
-0.046906922 -0.083175674 0.2883796 -0.31397426 -0.20759255 -0.24744932 -0.05205294 -0.18996447
-0.28202567 0.061727572 -0.29881838 0.19899319 -0.065104686 0.04644332 -0.06376519 -0.10194428

rho.0.bias f4 [32]
00000000: 31ef 62be f37d 6d3d 49ad 75be 646f 68bd
00000010: 98c0 503d dc3b 96be cc6b e8bd e983 183e
00000020: 9477 ffbd 7836 2c3e 3b3d 143b 9392 48bd
00000030: a6cc e0bd 4c37 05be abc4 80bd f906 d4bd
00000040: 3bd9 6abe b17c 3cbe 508e 073e 51f1 b03d
00000050: 471a 31be d59d 0b3e 5007 9ebd b81a 54be
00000060: 6e89 913e f6fe c53d d6b3 9b3e 1aca 363e
00000070: 4005 a63d 8d3b 8e3e dc60 d7bd 6ed0 4f3e
-0.22161557 0.057981443 -0.23991884 -0.056746855 0.05096492 -0.29342544 -0.113486856 0.1489407
-0.124739796 0.16817653 0.0022619504 -0.04896791 -0.109765336 -0.13009375 -0.062875114 -0.103528924
-0.2293443 -0.18406941 0.13237882 0.086397775 -0.1729518 0.13634427 -0.077162385 -0.20713317
0.28425163 0.096677706 0.3041064 0.17850533 0.0810647 0.2777981 -0.10516521 0.20294353

rho.2.weight f4 [8, 32]
00000000: 29d7 bd3d 61eb 0b3e b106 a13c 1afe d73d
00000010: 09b5 1dbe f2ab 1bbe d118 f4bd 2e9f 15be
00000020: 45c4 41bd af50 513d 8bf9 d43d cccc 253e
00000030: 649c c4bb 1d58 ca3d 8593 c83d ae3f 03be
00000040: a12d 2b3e 1819 a6bd 3aa6 993b 5d79 0fbe
00000050: fcfd 283d 438c 763d bc6c ef3d 1c0c 9e3d
00000060: d113 253e f818 2dbe a5b3 c7bc 59fa cabd
00000070: 9de5 fabd 74b3 4e3d e9d8 a53d 6ff1 203c
00000080: c09b abbc f079 c73d d385 0e3e d86d 12be
00000090: 3aa9 a93d e0d5 063e 4acd f5bd 859d c63d
000000a0: 6e68 2dbd 9cd3 11be db8d d2bd 3135 043e
000000b0: 9be8 61bd 0705 c63d 47ee f3bc d845 2b3e
000000c0: 0215 11be 640d 1cbe 5337 84bd 2144 063d
000000d0: 3c74 c5bc 0191 5abd 2404 e63b f04a 003e
000000e0: 595c 82bc ab84 703d 2a6b 0ebe 9645 17bd
000000f0: 3b42 23be d3cd 8d3d a5e6 643b b998 a0bd
00000100: 18c4 493d af0b 1fbe c9f4 43bd a185 f73d
00000110: 741a 3d3d 54ec f83c 0498 09bd 8b64 ce3d
00000120: 1976 893c 32d7 2d3e aed6 b4bd 3d71 2a3d
00000130: c2a4 b0bc 08a0 febd 7d1d 1fbe 1a87 31be
00000140: 275a 573d 95d5 193d b132 b73d 5279 233d
00000150: 494b b33d 0cfe 46bd 3eea c13d b587 813d
00000160: 025c 8cbd 9e97 19be 318f 933d d48c aebd
00000170: 61cd 813d 0183 aa3d e0b3 56bd bd93 fd3d
00000180: cb9e bdbd a580 103e f069 863d 1c9f a63c
00000190: 6a8e f2bd 235b c2bd cf88 cfbd c4c9 46bd
000001a0: 2c55 313e 768a 25be 3e34 b23d 9ca2 fb3d
000001b0: fac6 2f3e d6ab 723d 139f c43d 7df9 d03d
000001c0: 593f debd 02d4 12be 9b2b 2fbd cd31 47bc
000001d0: 705d 653d 7749 883d 8212 e1bc 308f 83bd
000001e0: acb3 a63d 14ef ec3d dff1 3e3d 0210 f4bd
000001f0: 5b5c 143e ea13 8c3d ba2d 2abe 229f a8bd
00000200: 226c 2bbe c7a1 213e c3c1 32bd b9cf 5d3d
00000210: fe56 a13d b307 9e3a 0cc5 f33d 3aaf 2b3e
00000220: d8f9 3f3d 8705 173e 230c 51bc 59f0 9ebd
00000230: a900 babc 06f3 353d 8a09 e93b 760e 89bb
00000240: 435a a73d 26d2 5abd 571e 2bbe 28bd f73d
00000250: eef9 b33d 437d 753d 56dc 013d 6866 2e3e
00000260: 4d90 b8bd 6539 51bc c145 b6bd 9913 ecbd
00000270: 3029 333e b9f7 7abd fe6a 333e 9020 c3bd
00000280: b39c d1bd 0452 1dbe 125d 423d b5c8 31be
00000290: 90c6 04be 014b ad3d 7f52 143e 8629 04be
000002a0: 307c fe3d 8c6b 70bd 3fec 9fbd b039 88bd
000002b0: 0c50 12be 507d 393d fc56 053d fad3 703d
000002c0: 14f4 26be 7bf9 efbd 2a84 02be 5daa 1d3d
000002d0: adf5 02be bfc3 ffbd 4268 1bbd 2994 b3bd
000002e0: fe61 2abd e109 97bc 4f34 49bc 00ec 013e
000002f0: 4d95 2e3d cd6f 3b3d 8c8c 4c3d 6802 c0bd
00000300: 84b1 c0bd 6a8f de3d a4b4 a939 53d9 21be
00000310: 1d29 58bb bf08 ea3d 6434 533c 26d7 113e
00000320: c112 ed3d 8017 d9bc 5a32 0d3e ff3c 273e
00000330: 9cc8 ddbd 9abc 8a3c 75b0 80bd cb9e 1f3d
00000340: 74ca 073d 47fe 2b3d 3bbc 6abc 199b 7dbd
00000350: 4a66 783c 104f adbd 1ada 063e adb3 d6bd
00000360: 8f77 3b3d d354 19be 1fb8 ec3d af9e 0b3e
00000370: 596e babc cbe7 dcbd f16e bb3c 1a0c d23d
00000380: 96df 16bd 9f1e 203e cedc c8bb a309 84bd
00000390: 1813 953d cb7b cdbc cbbb 653d 90e4 fcbd
000003a0: 40f0 913c 6169 0dbe fb48 233e 6109 853d
000003b0: b18d 1f3d 40f8 a0bd b649 f9bc 6cd5 2dbe
000003c0: 4bf2 033e 77ee bf3d 3f13 b9bd 5ac1 c33d
000003d0: 397e f13d e4d7 5abd 6f92 d3bc c97e fe3d
000003e0: f071 0e3e 4cfe fabd e796 053e 7946 27be
000003f0: b034 f93d fd92 ab3d f849 9abd 4a31 84bc
0.09269554 0.13664009 0.019656511 0.10546513 -0.1540109 -0.1520231 -0.11918796 -0.14611503
-0.047306318 0.051102336 0.10399159 0.16191405 -0.0060000885 0.098800875 0.09793762 -0.1281726
0.16716625 -0.08110255 0.004689005 -0.1401114 0.041257843 0.060192358 0.11690661 0.077171534
0.1612084 -0.16904056 -0.024377653 -0.09911031 -0.122508265 0.05046411 0.08098013 0.009823187
-0.02094829 0.097400546 0.13918237 -0.14299715 0.082842305 0.13167524 -0.120020464 0.09698013
-0.04233592 -0.14240879 -0.10280963 0.12910916 -0.05515347 0.09668928 -0.029776705 0.16725862
-0.1416817 -0.15239483 -0.06455865 0.032779817 -0.024103276 -0.053360943 0.0070195366 0.12528586
-0.015913175 0.058720272 -0.13908067 -0.036931597 -0.15943234 0.069240235 0.0034927514 -0.078416295
0.049259275 -0.155318 -0.047840867 0.120860346 0.046167806 0.030386128 -0.03359224 0.10077771
0.016779946 0.16976622 -0.088300094 0.0416119 -0.021562938 -0.12432867 -0.15538593 -0.17336693
0.05257621 0.037557203 0.089452155 0.039910622 0.08754594 -0.04858212 0.09468506 0.06324712
-0.068534866 -0.14999244 0.07205046 -0.085229546 0.06338001 0.08325768 -0.052417636 0.123816945
-0.09258803 0.14111574 0.06563175 0.020339541 -0.118435696 -0.09490039 -0.10133516 -0.048532262
0.17317647 -0.161661 0.08701371 0.12286875 0.17165747 0.059245907 0.096006535 0.10203836
-0.10851926 -0.14338687 -0.042766195 -0.0121578695 0.055997312 0.06654637 -0.027474646 -0.06423795
0.081397384 0.11569038 0.046617385 -0.11917116 0.14488356 0.06839736 -0.16619006 -0.08233477
-0.16740468 0.1578437 -0.043641817 0.054153178 0.078779206 0.0012056738 0.11902818 0.16766062
0.04686913 0.14748202 -0.012759241 -0.077606864 -0.022705393 0.04442122 0.007111733 -0.004182632
0.08171513 -0.05342307 -0.16710792 0.120966256 0.08787905 0.059933912 0.03170427 0.17031252
-0.09011898 -0.012770032 -0.08900023 -0.115271755 0.1749618 -0.061271403 0.17521283 -0.09527695
-0.10234966 -0.15363318 0.04745204 -0.1736172 -0.1296637 0.084615715 0.14484595 -0.12906465
0.12426031 -0.058696315 -0.07808732 -0.06651628 -0.14288348 0.045285523 0.032553658 0.058795907
-0.16304046 -0.117175065 -0.12745729 0.03849255 -0.1278903 -0.124885075 -0.037941225 -0.08768494
-0.04159736 -0.018437328 -0.012280538 0.12687683 0.042622853 0.04576092 0.049938723 -0.09375459
-0.094088584 0.10867198 0.0003236878 -0.15805559 -0.003298349 0.114274494 0.012890909 0.14242229
0.11575843 -0.026500463 0.13788739 0.16331862 -0.10829279 0.016935635 -0.062836565 0.038969796
0.03315206 0.041990545 -0.014327104 -0.06191549 0.015161106 -0.084623456 0.13169137 -0.10483489
0.045768317 -0.14973764 0.11558556 0.13634752 -0.022757696 -0.107863985 0.02288005 0.102562144
-0.036834322 0.15636681 -0.0061298376 -0.064471506 0.072790325 -0.025083443 0.056087296 -0.12348282
0.017814755 -0.1380973 0.15945809 0.064959295 0.038953487 -0.0785985 -0.030430656 -0.16975945
0.12885396 0.093716554 -0.09036874 0.09558363 0.11791653 -0.053428546 -0.02582666 0.12426526
0.13910651 -0.122555345 0.13045846 -0.16335477 0.121682525 0.08377645 -0.0753364 -0.016136784

rho.2.bias f4 [8]
00000000: 1208 333e 4f72 893d caba 1ebe e78d 643c
00000010: e27f d73d c87c 09be 927c c43b fe4c 22be
0.17483547 0.06711256 -0.15500942 0.013949848 0.105224386 -0.13426507 0.0059962953 -0.15849683

decoder.0.weight f4 [64, 8]
00000000: a49a 8bbe 2d4e a5be f8c3 91be c5aa 3d3d
00000010: 7472 6bbe 933a 733e 7584 733e 2b28 5e3e
00000020: db4e 19bd ce0f 753e 41b1 99be c10f 9bbe
00000030: 869d ae3b 4276 5c3c 2b27 8f3e 8e30 98be
00000040: 1811 a3be 5123 253e 670f 8c3e c41f 2a3e
00000050: cc8a dabd a00b 883e 1845 a9be 6a07 7abe
00000060: e82b 933d 1b45 e2bd 8990 29bd 3684 453e
00000070: 7c48 3e3e d074 91be 28d9 e639 e7be 0ebe
00000080: 09ce a8bc 9356 9d3e 571a 5fbd 8f3b af3c
00000090: 7af1 57be 3b69 6b3e dbb1 603d 87b9 61be
000000a0: 0722 073e 23a0 313e 99e1 6cbe b4e8 033e
000000b0: 15b9 143e 4580 82be 90cb efbd c61e 493e
000000c0: 167c 20be 68b4 813e b6f7 813e 1138 73bd
000000d0: ecee a9be 7025 cd3c b8c8 313e 1f26 8dbe
000000e0: c55c 5cbe 545a 123e 66d8 923e 1d49 60be
000000f0: 939e e2bb 60ee 993d 26e9 7a3e 3096 92be
00000100: f616 fc3d 02b0 6bbe 9c06 fc3d 458c 813e
00000110: 10e3 323a a808 1dbe 6cf5 543e dd9a 81bd
00000120: 611c fb3d 0518 8f3e 3618 41be 3f7d cabd
00000130: 4555 873d 4014 c83d b052 2abe 4805 f83d
00000140: 57b9 a2be 7f9d eebd 3da2 8d3e 2659 ae3e
00000150: afa0 a1be de5d 6a3e 4904 72be caf5 3d3e
00000160: 961b 1e3e 2eb7 49be f5c0 ef3d 6a58 8abe
00000170: 4827 d4bc 5c40 523e 9dcf a93e 7847 fbbd
00000180: 039c a43e 41bc 6c3e cabb 773d a0c9 523e
00000190: 6ae6 423e fc87 863e c10d d53d 3be7 a93e
000001a0: 8c43 57be 95b6 6d3e 8ef2 a1bd 195a 593e
000001b0: b867 f93d fb9d d93d 0b37 07be c3dd 253b
000001c0: ce8f 09be 77c5 4bbe bc8e 96be 8736 3dbe
000001d0: 4bc1 203e 28de 173e f28e c63d c438 a0bd
000001e0: e521 68be c8b7 263e 9e83 ab3e 7a5f 1fbe
000001f0: 014c a2bd 6ed9 5c3d 76ee 78be c6f3 0b3e
00000200: 371b 263e da00 a63e 223d 193e bbf3 46be
00000210: 4a9b 263e ce2b 59be 4d72 d4bd 2007 48bd
00000220: 35df 853e 857a e1bd f77f 933e 2db0 a43e
00000230: 1652 d33c 228f 5d3e dc11 b23e eadd 54be
00000240: eef8 fbbc b44c 19be d0ed b1be cb55 cc3d
00000250: 9e81 963e e67c d1bd e25b 65be 104b 243e
00000260: 269a 8e3e b9ca 883e 3188 2fbd ce7a 91bd
00000270: a716 9b3d 82f1 abbe e0c5 d33b 422a 883e
00000280: 5cea 88be 6519 af3e b039 80bd 58a5 a6bc
00000290: 4684 4a3d ff52 353d a2b0 6ebb 57cb 97be
000002a0: 8e9b 2ebe 032a 5a3e ff72 d23d 31b5 833e
000002b0: c0f9 163e 905f 973e 2b6e 43be f40b 893e
000002c0: 2b47 8cbd 1ed4 2f3e 6879 e2bd df43 503e
000002d0: 86b8 043e e517 3c3d 7b79 56be 1e70 42be
000002e0: dfe4 92be d6a9 85be 3ef5 333e 305b 7ebe
000002f0: b222 8b3e 0f45 d1bc 6305 c7bd 0154 acbe
00000300: 28e5 b33d d9ac 343e ed41 8b3e 2531 35bd
00000310: c043 4ebe 7f4d d6bd 5909 333e 597c 6c3e
00000320: a87b a83c 1bda 3c3e e83e 81be f7a4 883e
00000330: c1dd 0bbe 1cba fbbd 19f4 563e 2a4f febd
00000340: 363c 013e 9765 48be 41a4 73bd e91e 3ebe
00000350: f223 603e 0924 943d ec03 afbd 45f8 b1be
00000360: 4469 cf3c de9d 383e d042 52be 4f68 073e
00000370: 1347 073e 4721 6a3e 7407 963d 79bc 8ebd
00000380: 1818 9c3e 3553 fa3d 75b5 ba3d 82d7 a33e
00000390: 5258 dbbc 971f e53d 46f4 2cbe 9386 543e
000003a0: dd94 533d af35 353e 4d48 853e d742 683d
000003b0: c714 143e 505d 1cbc cdd7 11be a4ee 0abe
000003c0: baf5 ad3e 42e2 8dbe 4af8 7dbe 7473 e83d
000003d0: 885c 913e 20d6 99be d01d 2ebe 70d9 a53e
000003e0: a4e5 883e 220a 7a3e 441e 963e f390 023e
000003f0: 25ea c13d f783 673e da74 583e 7e8a 743e
-0.2726642 -0.32286206 -0.28469825 0.046305437 -0.22992879 0.23752813 0.23780997 0.2169501
-0.037428718 0.2393181 -0.30018046 -0.30285457 0.005328837 0.013455929 0.2795957 -0.29724544
-0.3184898 0.16126753 0.273555 0.1661368 -0.10671005 0.2657137 -0.33060527 -0.2441689
0.07186109 -0.11048337 -0.041397605 0.19288716 0.18582338 -0.28409433 0.00044030813 -0.13940011
-0.020606058 0.30730113 -0.05446848 0.021390704 -0.2108821 0.22989361 0.054857116 -0.2204343
0.13196574 0.17346244 -0.23132934 0.12881738 0.14523728 -0.25488487 -0.11708748 0.19640645
-0.15672335 0.25332952 0.253843 -0.05937964 -0.33190095 0.025042266 0.17361724 -0.27568147
-0.21519764 0.1429227 0.28680724 -0.2190289 -0.006915876 0.075161695 0.24503002 -0.2863021
0.12309067 -0.2301636 0.12305948 0.2530233 0.0006823996 -0.15335333 0.20796746 -0.06328366
0.12261272 0.27948013 -0.18856892 -0.0988717 0.06608061 0.097694874 -0.16633105 0.12110382
-0.31782028 -0.11651134 0.2766284 0.3405239 -0.31567904 0.2288737 -0.23634447 0.18550792
0.1544021 -0.19698784 0.117067255 -0.2702058 -0.025897637 0.20532364 0.3316621 -0.12269491
0.32150277 0.23118688 0.060481824 0.20584726 0.19033208 0.26275623 0.10403014 0.33184227
-0.21021861 0.23214181 -0.07907592 0.21225776 0.12177986 0.106258355 -0.13204591 0.0025309182
-0.13433763 -0.19899546 -0.29405773 -0.18477832 0.15698735 0.1483084 0.096952334 -0.07823327
-0.2266918 0.16281044 0.33498853 -0.15563765 -0.07924653 0.053918295 -0.24309716 0.13667211
0.16221319 0.32422525 0.14964727 -0.19428913 0.16270176 -0.21208116 -0.10373364 -0.04883492
0.26146856 -0.11009697 0.28808567 0.3216566 0.025795978 0.21636632 0.3477925 -0.20787778
-0.030758347 -0.14970666 -0.3475175 0.09977301 0.29395765 -0.102289006 -0.22398332 0.16044259
0.2785198 0.26717165 -0.04285449 -0.07103501 0.0757268 -0.33582693 0.0064627975 0.2659474
-0.26741302 0.34199062 -0.06261003 -0.020342514 0.049442552 0.044268604 -0.00364212 -0.29647323
-0.17051527 0.21305089 0.1027584 0.25724176 0.1474371 0.29565096 -0.19084994 0.26766932
-0.06849512 0.1717076 -0.11058313 0.20338391 0.12961015 0.045921225 -0.20944779 -0.18988082
-0.2869024 -0.26106137 0.17574021 -0.24839473 0.27174908 -0.025545625 -0.09717824 -0.3365784
0.087839425 0.17644061 0.27198735 -0.04423632 -0.20143032 -0.10464 0.17484035 0.2309431
0.020566776 0.18442576 -0.25243306 0.26688358 -0.13658811 -0.12291357 0.20991553 -0.12417443
0.12620625 -0.19570003 -0.059482817 -0.18566479 0.21888712 0.07233436 -0.0854567 -0.34759727
0.02531875 0.18028972 -0.205333 0.13223384 0.13210706 0.22864257 0.0732564 -0.06969542
0.30487132 0.12222902 0.091166414 0.32000357 -0.026775513 0.11187666 -0.16890058 0.20754461
0.05165564 0.1769626 0.26031724 0.05670437 0.14461051 -0.009543732 -0.14242478 -0.13567597
0.33976537 -0.27711684 -0.24801746 0.11350146 0.28390908 -0.30046177 -0.1700356 0.32392454
0.26737702 0.24417928 0.29319966 0.12750606 0.09468488 0.22608934 0.21138325 0.23880956

decoder.0.bias f4 [64]
00000000: 2012 a3be 39a7 8c3d 6ea0 993e c894 853e
00000010: db7f 06bd ae89 343e 5f3f 10be d421 7b3e
00000020: 1e0a 53be 63aa 0e3e 1dba 3f3e b2f7 1a3d
00000030: 13b2 a53e 2e22 a9bc 7c30 ad3e ace1 f5bc
00000040: 1ee1 803e 0a30 613e 6349 653e ebaa fd3d
00000050: 318d 90be 77ed 59be adaf 7cbd b624 773e
00000060: 303b bbbd afc5 e7bd 50e5 903e e078 b0be
00000070: 0dbc f7bc d73d 633e 5f6f 673d 7ae2 95be
00000080: 5e09 953e 7f1a 3d3e b36d 53be e876 69be
00000090: 5723 49bc d41c 503e 6143 cdbd 8e89 313d
000000a0: 3c1b 9e3c 42af 14be 9a96 1abe c60b be3b
000000b0: 4d7b 55be 0d7e 5fbe 7da6 ea3b 975b 3e3e
000000c0: 346d e33d 1069 d8bd 3565 d2bc 6113 9d3e
000000d0: 0b17 403e 6936 123e 12cd 723e 4aec 34be
000000e0: 737a 9e3e 0da3 29bd 30f9 33be b7db 47be
000000f0: f1d6 b43d e3c6 11be 3e70 9f3e 677f e93d
-0.31849766 0.06867833 0.3000521 0.26090074 -0.032836776 0.17630646 -0.14086674 0.24524623
-0.20609328 0.13932185 0.1872334 0.037833877 0.32362422 -0.020646181 0.33826053 -0.030014835
0.2517175 0.21990982 0.22391276 0.12386116 -0.2823272 -0.21281992 -0.061690975 0.24135098
-0.091421485 -0.11317002 0.28299952 -0.3446722 -0.030241037 0.22191559 0.056502696 -0.2927435
0.2910871 0.18467139 -0.20647316 -0.22799265 -0.012276492 0.20323497 -0.10022617 0.043344073
0.019300096 -0.1451998 -0.15096512 0.0057997433 -0.20847817 -0.21825428 0.00716096 0.18589626
0.11104813 -0.10566914 -0.025683025 0.30678847 0.1875879 0.14278568 0.2371104 -0.17668262
0.30952796 -0.041415263 -0.17575526 -0.19517408 0.08830059 -0.14236026 0.31140321 0.11401253

decoder.2.weight f4 [1, 64]
00000000: 5a6b ef3d a8d0 50bd 883a 1a3d 2671 dcbd
00000010: 4c78 303d 68ff aa3d 60e4 183d 0e2a f3bd
00000020: b037 8cbc e89b 9b3c 60c6 7a3c 50b9 f53c
00000030: caf3 b43d b895 3bbd 40b5 26bd 20ac 9e3d
00000040: b2f8 fd3d f0be 45bd fe9f 983d 385c 4cbd
00000050: ec85 f33d bee6 f33d 30dc 28bc 04c0 f63d
00000060: c84d acbc a05a 7ebd 20cb 503d 4a1c c43d
00000070: c098 593c e4ec 8b3d 90fe fbbd 522a afbd
00000080: c44c 7f3d f426 f2bd d0da 673d 4cd6 003d
00000090: 2ed7 ebbd e4c8 6abd 7452 533d b007 16bd
000000a0: b0a9 c9bd 5c74 b23d 6070 d2bb 2297 95bd
000000b0: a850 ecbd 60fd e5bc e8d5 19bd aac3 92bd
000000c0: 84ff b1bd d227 89bd e041 30bc 8071 a3bd
000000d0: 0632 e7bd b813 703d 50c5 a63d 5a90 c63d
000000e0: 4eb5 c3bd b8ab a8bd e683 82bd e0b9 753c
000000f0: 50d1 32bc 582f 983d 5057 e8bd 98f0 d4bc
0.116903976 -0.05098024 0.037653476 -0.10763769 0.043083474 0.08349496 0.03732717 -0.11873256
-0.017116398 0.01899524 0.015306085 0.02999559 0.088355616 -0.04579708 -0.040700197 0.07747674
0.124009505 -0.048277795 0.07452391 -0.049892634 0.11890778 0.11909245 -0.010306403 0.12048343
-0.021033183 -0.062098145 0.050974965 0.09575708 0.013281047 0.06832293 -0.12304413 -0.08552994
0.06232907 -0.11823836 0.05660516 0.03145437 -0.11515652 -0.05732049 0.051592305 -0.036628425
-0.098468184 0.087136 -0.0064220876 -0.07304217 -0.115388215 -0.02807492 -0.037557513 -0.07166226
-0.08691314 -0.06697048 -0.010757893 -0.07980633 -0.11288838 0.058612555 0.08143103 0.096955016
-0.095560655 -0.08235878 -0.06372814 0.014997929 -0.010914162 0.07430905 -0.113447785 -0.02599363

exp_avg f4 [64, 2]
00000000: 0000 0000 0000 0000 0000 0000 0000 0000
00000010: 0000 0000 0000 0000 0000 0000 0000 0000
00000020: 0000 0000 0000 0000 0000 0000 0000 0000
00000030: 0000 0000 0000 0000 0000 0000 0000 0000
00000040: 0000 0000 0000 0000 0000 0000 0000 0000
00000050: 0000 0000 0000 0000 0000 0000 0000 0000
00000060: 0000 0000 0000 0000 0000 0000 0000 0000
00000070: 0000 0000 0000 0000 0000 0000 0000 0000
00000080: 0000 0000 0000 0000 0000 0000 0000 0000
00000090: 0000 0000 0000 0000 0000 0000 0000 0000
000000a0: 0000 0000 0000 0000 0000 0000 0000 0000
000000b0: 0000 0000 0000 0000 0000 0000 0000 0000
000000c0: 0000 0000 0000 0000 0000 0000 0000 0000
000000d0: 0000 0000 0000 0000 0000 0000 0000 0000
000000e0: 0000 0000 0000 0000 0000 0000 0000 0000
000000f0: 0000 0000 0000 0000 0000 0000 0000 0000
00000100: 0000 0000 0000 0000 0000 0000 0000 0000
00000110: 0000 0000 0000 0000 0000 0000 0000 0000
00000120: 0000 0000 0000 0000 0000 0000 0000 0000
00000130: 0000 0000 0000 0000 0000 0000 0000 0000
00000140: 0000 0000 0000 0000 0000 0000 0000 0000
00000150: 0000 0000 0000 0000 0000 0000 0000 0000
00000160: 0000 0000 0000 0000 0000 0000 0000 0000
00000170: 0000 0000 0000 0000 0000 0000 0000 0000
00000180: 0000 0000 0000 0000 0000 0000 0000 0000
00000190: 0000 0000 0000 0000 0000 0000 0000 0000
000001a0: 0000 0000 0000 0000 0000 0000 0000 0000
000001b0: 0000 0000 0000 0000 0000 0000 0000 0000
000001c0: 0000 0000 0000 0000 0000 0000 0000 0000
000001d0: 0000 0000 0000 0000 0000 0000 0000 0000
000001e0: 0000 0000 0000 0000 0000 0000 0000 0000
000001f0: 0000 0000 0000 0000 0000 0000 0000 0000
0.0 0.0 0.0 0.0 0.0 0.0 0.0 0.0
0.0 0.0 0.0 0.0 0.0 0.0 0.0 0.0
0.0 0.0 0.0 0.0 0.0 0.0 0.0 0.0
0.0 0.0 0.0 0.0 0.0 0.0 0.0 0.0
0.0 0.0 0.0 0.0 0.0 0.0 0.0 0.0
0.0 0.0 0.0 0.0 0.0 0.0 0.0 0.0
0.0 0.0 0.0 0.0 0.0 0.0 0.0 0.0
0.0 0.0 0.0 0.0 0.0 0.0 0.0 0.0
0.0 0.0 0.0 0.0 0.0 0.0 0.0 0.0
0.0 0.0 0.0 0.0 0.0 0.0 0.0 0.0
0.0 0.0 0.0 0.0 0.0 0.0 0.0 0.0
0.0 0.0 0.0 0.0 0.0 0.0 0.0 0.0
0.0 0.0 0.0 0.0 0.0 0.0 0.0 0.0
0.0 0.0 0.0 0.0 0.0 0.0 0.0 0.0
0.0 0.0 0.0 0.0 0.0 0.0 0.0 0.0
0.0 0.0 0.0 0.0 0.0 0.0 0.0 0.0

exp_avg_sq f4 [64, 2]
00000000: 0000 0000 0000 0000 0000 0000 0000 0000
00000010: 0000 0000 0000 0000 0000 0000 0000 0000
00000020: 0000 0000 0000 0000 0000 0000 0000 0000
00000030: 0000 0000 0000 0000 0000 0000 0000 0000
00000040: 0000 0000 0000 0000 0000 0000 0000 0000
00000050: 0000 0000 0000 0000 0000 0000 0000 0000
00000060: 0000 0000 0000 0000 0000 0000 0000 0000
00000070: 0000 0000 0000 0000 0000 0000 0000 0000
00000080: 0000 0000 0000 0000 0000 0000 0000 0000
00000090: 0000 0000 0000 0000 0000 0000 0000 0000
000000a0: 0000 0000 0000 0000 0000 0000 0000 0000
000000b0: 0000 0000 0000 0000 0000 0000 0000 0000
000000c0: 0000 0000 0000 0000 0000 0000 0000 0000
000000d0: 0000 0000 0000 0000 0000 0000 0000 0000
000000e0: 0000 0000 0000 0000 0000 0000 0000 0000
000000f0: 0000 0000 0000 0000 0000 0000 0000 0000
00000100: 0000 0000 0000 0000 0000 0000 0000 0000
00000110: 0000 0000 0000 0000 0000 0000 0000 0000
00000120: 0000 0000 0000 0000 0000 0000 0000 0000
00000130: 0000 0000 0000 0000 0000 0000 0000 0000
00000140: 0000 0000 0000 0000 0000 0000 0000 0000
00000150: 0000 0000 0000 0000 0000 0000 0000 0000
00000160: 0000 0000 0000 0000 0000 0000 0000 0000
00000170: 0000 0000 0000 0000 0000 0000 0000 0000
00000180: 0000 0000 0000 0000 0000 0000 0000 0000
00000190: 0000 0000 0000 0000 0000 0000 0000 0000
000001a0: 0000 0000 0000 0000 0000 0000 0000 0000
000001b0: 0000 0000 0000 0000 0000 0000 0000 0000
000001c0: 0000 0000 0000 0000 0000 0000 0000 0000
000001d0: 0000 0000 0000 0000 0000 0000 0000 0000
000001e0: 0000 0000 0000 0000 0000 0000 0000 0000
000001f0: 0000 0000 0000 0000 0000 0000 0000 0000
0.0 0.0 0.0 0.0 0.0 0.0 0.0 0.0
0.0 0.0 0.0 0.0 0.0 0.0 0.0 0.0
0.0 0.0 0.0 0.0 0.0 0.0 0.0 0.0
0.0 0.0 0.0 0.0 0.0 0.0 0.0 0.0
0.0 0.0 0.0 0.0 0.0 0.0 0.0 0.0
0.0 0.0 0.0 0.0 0.0 0.0 0.0 0.0
0.0 0.0 0.0 0.0 0.0 0.0 0.0 0.0
0.0 0.0 0.0 0.0 0.0 0.0 0.0 0.0
0.0 0.0 0.0 0.0 0.0 0.0 0.0 0.0
0.0 0.0 0.0 0.0 0.0 0.0 0.0 0.0
0.0 0.0 0.0 0.0 0.0 0.0 0.0 0.0
0.0 0.0 0.0 0.0 0.0 0.0 0.0 0.0
0.0 0.0 0.0 0.0 0.0 0.0 0.0 0.0
0.0 0.0 0.0 0.0 0.0 0.0 0.0 0.0
0.0 0.0 0.0 0.0 0.0 0.0 0.0 0.0
0.0 0.0 0.0 0.0 0.0 0.0 0.0 0.0

exp_avg f4 [64]
00000000: 0000 0000 0000 0000 0000 0000 0000 0000
00000010: 0000 0000 0000 0000 0000 0000 0000 0000
00000020: 0000 0000 0000 0000 0000 0000 0000 0000
00000030: 0000 0000 0000 0000 0000 0000 0000 0000
00000040: 0000 0000 0000 0000 0000 0000 0000 0000
00000050: 0000 0000 0000 0000 0000 0000 0000 0000
00000060: 0000 0000 0000 0000 0000 0000 0000 0000
00000070: 0000 0000 0000 0000 0000 0000 0000 0000
00000080: 0000 0000 0000 0000 0000 0000 0000 0000
00000090: 0000 0000 0000 0000 0000 0000 0000 0000
000000a0: 0000 0000 0000 0000 0000 0000 0000 0000
000000b0: 0000 0000 0000 0000 0000 0000 0000 0000
000000c0: 0000 0000 0000 0000 0000 0000 0000 0000
000000d0: 0000 0000 0000 0000 0000 0000 0000 0000
000000e0: 0000 0000 0000 0000 0000 0000 0000 0000
000000f0: 0000 0000 0000 0000 0000 0000 0000 0000
0.0 0.0 0.0 0.0 0.0 0.0 0.0 0.0
0.0 0.0 0.0 0.0 0.0 0.0 0.0 0.0
0.0 0.0 0.0 0.0 0.0 0.0 0.0 0.0
0.0 0.0 0.0 0.0 0.0 0.0 0.0 0.0
0.0 0.0 0.0 0.0 0.0 0.0 0.0 0.0
0.0 0.0 0.0 0.0 0.0 0.0 0.0 0.0
0.0 0.0 0.0 0.0 0.0 0.0 0.0 0.0
0.0 0.0 0.0 0.0 0.0 0.0 0.0 0.0

exp_avg_sq f4 [64]
00000000: 0000 0000 0000 0000 0000 0000 0000 0000
00000010: 0000 0000 0000 0000 0000 0000 0000 0000
00000020: 0000 0000 0000 0000 0000 0000 0000 0000
00000030: 0000 0000 0000 0000 0000 0000 0000 0000
00000040: 0000 0000 0000 0000 0000 0000 0000 0000
00000050: 0000 0000 0000 0000 0000 0000 0000 0000
00000060: 0000 0000 0000 0000 0000 0000 0000 0000
00000070: 0000 0000 0000 0000 0000 0000 0000 0000
00000080: 0000 0000 0000 0000 0000 0000 0000 0000
00000090: 0000 0000 0000 0000 0000 0000 0000 0000
000000a0: 0000 0000 0000 0000 0000 0000 0000 0000
000000b0: 0000 0000 0000 0000 0000 0000 0000 0000
000000c0: 0000 0000 0000 0000 0000 0000 0000 0000
000000d0: 0000 0000 0000 0000 0000 0000 0000 0000
000000e0: 0000 0000 0000 0000 0000 0000 0000 0000
000000f0: 0000 0000 0000 0000 0000 0000 0000 0000
0.0 0.0 0.0 0.0 0.0 0.0 0.0 0.0
0.0 0.0 0.0 0.0 0.0 0.0 0.0 0.0
0.0 0.0 0.0 0.0 0.0 0.0 0.0 0.0
0.0 0.0 0.0 0.0 0.0 0.0 0.0 0.0
0.0 0.0 0.0 0.0 0.0 0.0 0.0 0.0
0.0 0.0 0.0 0.0 0.0 0.0 0.0 0.0
0.0 0.0 0.0 0.0 0.0 0.0 0.0 0.0
0.0 0.0 0.0 0.0 0.0 0.0 0.0 0.0

exp_avg f4 [8, 64]
00000000: 0000 0000 0000 0000 0000 0000 0000 0000
00000010: 0000 0000 0000 0000 0000 0000 0000 0000
00000020: 0000 0000 0000 0000 0000 0000 0000 0000
00000030: 0000 0000 0000 0000 0000 0000 0000 0000
00000040: 0000 0000 0000 0000 0000 0000 0000 0000
00000050: 0000 0000 0000 0000 0000 0000 0000 0000
00000060: 0000 0000 0000 0000 0000 0000 0000 0000
00000070: 0000 0000 0000 0000 0000 0000 0000 0000
00000080: 0000 0000 0000 0000 0000 0000 0000 0000
00000090: 0000 0000 0000 0000 0000 0000 0000 0000
000000a0: 0000 0000 0000 0000 0000 0000 0000 0000
000000b0: 0000 0000 0000 0000 0000 0000 0000 0000
000000c0: 0000 0000 0000 0000 0000 0000 0000 0000
000000d0: 0000 0000 0000 0000 0000 0000 0000 0000
000000e0: 0000 0000 0000 0000 0000 0000 0000 0000
000000f0: 0000 0000 0000 0000 0000 0000 0000 0000
00000100: 0000 0000 0000 0000 0000 0000 0000 0000
00000110: 0000 0000 0000 0000 0000 0000 0000 0000
00000120: 0000 0000 0000 0000 0000 0000 0000 0000
00000130: 0000 0000 0000 0000 0000 0000 0000 0000
00000140: 0000 0000 0000 0000 0000 0000 0000 0000
00000150: 0000 0000 0000 0000 0000 0000 0000 0000
00000160: 0000 0000 0000 0000 0000 0000 0000 0000
00000170: 0000 0000 0000 0000 0000 0000 0000 0000
00000180: 0000 0000 0000 0000 0000 0000 0000 0000
00000190: 0000 0000 0000 0000 0000 0000 0000 0000
000001a0: 0000 0000 0000 0000 0000 0000 0000 0000
000001b0: 0000 0000 0000 0000 0000 0000 0000 0000
000001c0: 0000 0000 0000 0000 0000 0000 0000 0000
000001d0: 0000 0000 0000 0000 0000 0000 0000 0000
000001e0: 0000 0000 0000 0000 0000 0000 0000 0000
000001f0: 0000 0000 0000 0000 0000 0000 0000 0000
00000200: 0000 0000 0000 0000 0000 0000 0000 0000
00000210: 0000 0000 0000 0000 0000 0000 0000 0000
00000220: 0000 0000 0000 0000 0000 0000 0000 0000
00000230: 0000 0000 0000 0000 0000 0000 0000 0000
00000240: 0000 0000 0000 0000 0000 0000 0000 0000
00000250: 0000 0000 0000 0000 0000 0000 0000 0000
00000260: 0000 0000 0000 0000 0000 0000 0000 0000
00000270: 0000 0000 0000 0000 0000 0000 0000 0000
00000280: 0000 0000 0000 0000 0000 0000 0000 0000
00000290: 0000 0000 0000 0000 0000 0000 0000 0000
000002a0: 0000 0000 0000 0000 0000 0000 0000 0000
000002b0: 0000 0000 0000 0000 0000 0000 0000 0000
000002c0: 0000 0000 0000 0000 0000 0000 0000 0000
000002d0: 0000 0000 0000 0000 0000 0000 0000 0000
000002e0: 0000 0000 0000 0000 0000 0000 0000 0000
000002f0: 0000 0000 0000 0000 0000 0000 0000 0000
00000300: 0000 0000 0000 0000 0000 0000 0000 0000
00000310: 0000 0000 0000 0000 0000 0000 0000 0000
00000320: 0000 0000 0000 0000 0000 0000 0000 0000
00000330: 0000 0000 0000 0000 0000 0000 0000 0000
00000340: 0000 0000 0000 0000 0000 0000 0000 0000
00000350: 0000 0000 0000 0000 0000 0000 0000 0000
00000360: 0000 0000 0000 0000 0000 0000 0000 0000
00000370: 0000 0000 0000 0000 0000 0000 0000 0000
00000380: 0000 0000 0000 0000 0000 0000 0000 0000
00000390: 0000 0000 0000 0000 0000 0000 0000 0000
000003a0: 0000 0000 0000 0000 0000 0000 0000 0000
000003b0: 0000 0000 0000 0000 0000 0000 0000 0000
000003c0: 0000 0000 0000 0000 0000 0000 0000 0000
000003d0: 0000 0000 0000 0000 0000 0000 0000 0000
000003e0: 0000 0000 0000 0000 0000 0000 0000 0000
000003f0: 0000 0000 0000 0000 0000 0000 0000 0000
0.0 0.0 0.0 0.0 0.0 0.0 0.0 0.0
0.0 0.0 0.0 0.0 0.0 0.0 0.0 0.0
0.0 0.0 0.0 0.0 0.0 0.0 0.0 0.0
0.0 0.0 0.0 0.0 0.0 0.0 0.0 0.0
0.0 0.0 0.0 0.0 0.0 0.0 0.0 0.0
0.0 0.0 0.0 0.0 0.0 0.0 0.0 0.0
0.0 0.0 0.0 0.0 0.0 0.0 0.0 0.0
0.0 0.0 0.0 0.0 0.0 0.0 0.0 0.0
0.0 0.0 0.0 0.0 0.0 0.0 0.0 0.0
0.0 0.0 0.0 0.0 0.0 0.0 0.0 0.0
0.0 0.0 0.0 0.0 0.0 0.0 0.0 0.0
0.0 0.0 0.0 0.0 0.0 0.0 0.0 0.0
0.0 0.0 0.0 0.0 0.0 0.0 0.0 0.0
0.0 0.0 0.0 0.0 0.0 0.0 0.0 0.0
0.0 0.0 0.0 0.0 0.0 0.0 0.0 0.0
0.0 0.0 0.0 0.0 0.0 0.0 0.0 0.0
0.0 0.0 0.0 0.0 0.0 0.0 0.0 0.0
0.0 0.0 0.0 0.0 0.0 0.0 0.0 0.0
0.0 0.0 0.0 0.0 0.0 0.0 0.0 0.0
0.0 0.0 0.0 0.0 0.0 0.0 0.0 0.0
0.0 0.0 0.0 0.0 0.0 0.0 0.0 0.0
0.0 0.0 0.0 0.0 0.0 0.0 0.0 0.0
0.0 0.0 0.0 0.0 0.0 0.0 0.0 0.0
0.0 0.0 0.0 0.0 0.0 0.0 0.0 0.0
0.0 0.0 0.0 0.0 0.0 0.0 0.0 0.0
0.0 0.0 0.0 0.0 0.0 0.0 0.0 0.0
0.0 0.0 0.0 0.0 0.0 0.0 0.0 0.0
0.0 0.0 0.0 0.0 0.0 0.0 0.0 0.0
0.0 0.0 0.0 0.0 0.0 0.0 0.0 0.0
0.0 0.0 0.0 0.0 0.0 0.0 0.0 0.0
0.0 0.0 0.0 0.0 0.0 0.0 0.0 0.0
0.0 0.0 0.0 0.0 0.0 0.0 0.0 0.0

exp_avg_sq f4 [8, 64]
00000000: 0000 0000 0000 0000 0000 0000 0000 0000
00000010: 0000 0000 0000 0000 0000 0000 0000 0000
00000020: 0000 0000 0000 0000 0000 0000 0000 0000
00000030: 0000 0000 0000 0000 0000 0000 0000 0000
00000040: 0000 0000 0000 0000 0000 0000 0000 0000
00000050: 0000 0000 0000 0000 0000 0000 0000 0000
00000060: 0000 0000 0000 0000 0000 0000 0000 0000
00000070: 0000 0000 0000 0000 0000 0000 0000 0000
00000080: 0000 0000 0000 0000 0000 0000 0000 0000
00000090: 0000 0000 0000 0000 0000 0000 0000 0000
000000a0: 0000 0000 0000 0000 0000 0000 0000 0000
000000b0: 0000 0000 0000 0000 0000 0000 0000 0000
000000c0: 0000 0000 0000 0000 0000 0000 0000 0000
000000d0: 0000 0000 0000 0000 0000 0000 0000 0000
000000e0: 0000 0000 0000 0000 0000 0000 0000 0000
000000f0: 0000 0000 0000 0000 0000 0000 0000 0000
00000100: 0000 0000 0000 0000 0000 0000 0000 0000
00000110: 0000 0000 0000 0000 0000 0000 0000 0000
00000120: 0000 0000 0000 0000 0000 0000 0000 0000
00000130: 0000 0000 0000 0000 0000 0000 0000 0000
00000140: 0000 0000 0000 0000 0000 0000 0000 0000
00000150: 0000 0000 0000 0000 0000 0000 0000 0000
00000160: 0000 0000 0000 0000 0000 0000 0000 0000
00000170: 0000 0000 0000 0000 0000 0000 0000 0000
00000180: 0000 0000 0000 0000 0000 0000 0000 0000
00000190: 0000 0000 0000 0000 0000 0000 0000 0000
000001a0: 0000 0000 0000 0000 0000 0000 0000 0000
000001b0: 0000 0000 0000 0000 0000 0000 0000 0000
000001c0: 0000 0000 0000 0000 0000 0000 0000 0000
000001d0: 0000 0000 0000 0000 0000 0000 0000 0000
000001e0: 0000 0000 0000 0000 0000 0000 0000 0000
000001f0: 0000 0000 0000 0000 0000 0000 0000 0000
00000200: 0000 0000 0000 0000 0000 0000 0000 0000
00000210: 0000 0000 0000 0000 0000 0000 0000 0000
00000220: 0000 0000 0000 0000 0000 0000 0000 0000
00000230: 0000 0000 0000 0000 0000 0000 0000 0000
00000240: 0000 0000 0000 0000 0000 0000 0000 0000
00000250: 0000 0000 0000 0000 0000 0000 0000 0000
00000260: 0000 0000 0000 0000 0000 0000 0000 0000
00000270: 0000 0000 0000 0000 0000 0000 0000 0000
00000280: 0000 0000 0000 0000 0000 0000 0000 0000
00000290: 0000 0000 0000 0000 0000 0000 0000 0000
000002a0: 0000 0000 0000 0000 0000 0000 0000 0000
000002b0: 0000 0000 0000 0000 0000 0000 0000 0000
000002c0: 0000 0000 0000 0000 0000 0000 0000 0000
000002d0: 0000 0000 0000 0000 0000 0000 0000 0000
000002e0: 0000 0000 0000 0000 0000 0000 0000 0000
000002f0: 0000 0000 0000 0000 0000 0000 0000 0000
00000300: 0000 0000 0000 0000 0000 0000 0000 0000
00000310: 0000 0000 0000 0000 0000 0000 0000 0000
00000320: 0000 0000 0000 0000 0000 0000 0000 0000
00000330: 0000 0000 0000 0000 0000 0000 0000 0000
00000340: 0000 0000 0000 0000 0000 0000 0000 0000
00000350: 0000 0000 0000 0000 0000 0000 0000 0000
00000360: 0000 0000 0000 0000 0000 0000 0000 0000
00000370: 0000 0000 0000 0000 0000 0000 0000 0000
00000380: 0000 0000 0000 0000 0000 0000 0000 0000
00000390: 0000 0000 0000 0000 0000 0000 0000 0000
000003a0: 0000 0000 0000 0000 0000 0000 0000 0000
000003b0: 0000 0000 0000 0000 0000 0000 0000 0000
000003c0: 0000 0000 0000 0000 0000 0000 0000 0000
000003d0: 0000 0000 0000 0000 0000 0000 0000 0000
000003e0: 0000 0000 0000 0000 0000 0000 0000 0000
000003f0: 0000 0000 0000 0000 0000 0000 0000 0000
0.0 0.0 0.0 0.0 0.0 0.0 0.0 0.0
0.0 0.0 0.0 0.0 0.0 0.0 0.0 0.0
0.0 0.0 0.0 0.0 0.0 0.0 0.0 0.0
0.0 0.0 0.0 0.0 0.0 0.0 0.0 0.0
0.0 0.0 0.0 0.0 0.0 0.0 0.0 0.0
0.0 0.0 0.0 0.0 0.0 0.0 0.0 0.0
0.0 0.0 0.0 0.0 0.0 0.0 0.0 0.0
0.0 0.0 0.0 0.0 0.0 0.0 0.0 0.0
0.0 0.0 0.0 0.0 0.0 0.0 0.0 0.0
0.0 0.0 0.0 0.0 0.0 0.0 0.0 0.0
0.0 0.0 0.0 0.0 0.0 0.0 0.0 0.0
0.0 0.0 0.0 0.0 0.0 0.0 0.0 0.0
0.0 0.0 0.0 0.0 0.0 0.0 0.0 0.0
0.0 0.0 0.0 0.0 0.0 0.0 0.0 0.0
0.0 0.0 0.0 0.0 0.0 0.0 0.0 0.0
0.0 0.0 0.0 0.0 0.0 0.0 0.0 0.0
0.0 0.0 0.0 0.0 0.0 0.0 0.0 0.0
0.0 0.0 0.0 0.0 0.0 0.0 0.0 0.0
0.0 0.0 0.0 0.0 0.0 0.0 0.0 0.0
0.0 0.0 0.0 0.0 0.0 0.0 0.0 0.0
0.0 0.0 0.0 0.0 0.0 0.0 0.0 0.0
0.0 0.0 0.0 0.0 0.0 0.0 0.0 0.0
0.0 0.0 0.0 0.0 0.0 0.0 0.0 0.0
0.0 0.0 0.0 0.0 0.0 0.0 0.0 0.0
0.0 0.0 0.0 0.0 0.0 0.0 0.0 0.0
0.0 0.0 0.0 0.0 0.0 0.0 0.0 0.0
0.0 0.0 0.0 0.0 0.0 0.0 0.0 0.0
0.0 0.0 0.0 0.0 0.0 0.0 0.0 0.0
0.0 0.0 0.0 0.0 0.0 0.0 0.0 0.0
0.0 0.0 0.0 0.0 0.0 0.0 0.0 0.0
0.0 0.0 0.0 0.0 0.0 0.0 0.0 0.0
0.0 0.0 0.0 0.0 0.0 0.0 0.0 0.0

exp_avg f4 [8]
00000000: 0000 0000 0000 0000 0000 0000 0000 0000
00000010: 0000 0000 0000 0000 0000 0000 0000 0000
0.0 0.0 0.0 0.0 0.0 0.0 0.0 0.0

exp_avg_sq f4 [8]
00000000: 0000 0000 0000 0000 0000 0000 0000 0000
00000010: 0000 0000 0000 0000 0000 0000 0000 0000
0.0 0.0 0.0 0.0 0.0 0.0 0.0 0.0
