deepsets/best_model.pt (torch, 132642 bytes, 18 tensors)

phi.0.weight f4 [64, 2]
0	0x3da331c5	0.07968477
1	0x3ecc67bc	0.39922893
2	0x3ee94763	0.45562276
3	0xbf2dbae5	-0.67863303
4	0x3f22f57b	0.63655823
5	0x3f06e562	0.5269376
6	0xbed52932	-0.41632992
7	0x3e1d1ec6	0.1534377
8	0x3f11501c	0.5676286
9	0x3e8ab522	0.27091318
10	0x3e879a4d	0.2648491
11	0xbeb0c755	-0.34527078
12	0x3d9f6e12	0.07784666
13	0xbe0737f3	-0.13204937
14	0x3e0c61af	0.13709138
15	0x3dca230c	0.09869966
16	0x3e93f643	0.2889882
17	0x3f2dc393	0.6787655
18	0x3ee5d978	0.44892478
19	0xbd3a2ecc	-0.045454785
20	0x3dec4496	0.11536519
21	0x3e82629c	0.25465858
22	0xbe2009f1	-0.15628792
23	0x3e1beea7	0.15227757
24	0x3f12161c	0.57064986
25	0xbe0405fb	-0.12892906
26	0xbdb13e78	-0.08654493
27	0xbf2fc144	-0.68654275
28	0xbf2fbda0	-0.6864872
29	0x3eb1f7e2	0.34759432
30	0xbf1281a4	-0.57229066
31	0x3f1e9752	0.61949646
32	0xbe31a3c3	-0.17347626
33	0xbe749079	-0.23883237
34	0x3edc0924	0.42975724
35	0xbef8a0ab	-0.4856008
36	0xbed93584	-0.42423642
37	0xbebaf7ea	-0.36517268
38	0xbf34dc4a	-0.70648634
39	0x3e8ceb4e	0.27523273
40	0x3f050a47	0.51968807
41	0xbe11999c	-0.14218754
42	0x3e59e511	0.21278788
43	0x3ebf01f5	0.3730618
44	0x3e706edc	0.2347979
45	0x3cc7c963	0.02438802
46	0x3e7a106e	0.2442033
47	0xbf03ba0e	-0.5145577
48	0xbf241c3f	-0.641056
49	0x3e4228ca	0.18960872
50	0x3f1e9789	0.61949974
51	0xbf2d0773	-0.6758949
52	0x3ea2f144	0.31824696
53	0xbe3580c8	-0.17724907
54	0xbe1f290a	-0.15542999
55	0xbea0b538	-0.3138826
56	0x3d41b347	0.047290113
57	0x3f20c9b4	0.62807775
58	0xbe4c468c	-0.19948786
59	0xbeb421a6	-0.35181922
60	0xbed6f3ec	-0.41982973
61	0x3e4a51f5	0.19757827
62	0x3f1f1106	0.6213535
63	0xbf1fd478	-0.62433577
64	0x3f0d4549	0.55183846
65	0xbb5e0ae6	-0.0033881008
66	0xbf0ac889	-0.5421224
67	0x3aafa655	0.0013401011
68	0x3e2032d8	0.15644395
69	0xbf17970c	-0.59214854
70	0x3e8546a4	0.26030457
71	0xbf0c0d57	-0.54707855
72	0x3e36ccd0	0.17851567
73	0x3d9bf882	0.076157585
74	0x3ec38fde	0.381957
75	0x3d83cd69	0.06435663
76	0xbddec7a7	-0.108779244
77	0x3e296358	0.16541803
78	0x3d923965	0.071398534
79	0xbf129546	-0.57259023
80	0x3f1fbcc5	0.62397414
81	0xbe7ac656	-0.24489722
82	0x3ee677fc	0.45013416
83	0xbefefb5e	-0.49801153
84	0x3ee7ecce	0.45297855
85	0x3e9edd8e	0.31028408
86	0xbea11c01	-0.31466678
87	0xbe52ed59	-0.20598353
88	0x3f27a0ff	0.65480036
89	0x3f267c0b	0.65033025
90	0xbeb1817d	-0.34669104
91	0xbe1d1e9f	-0.15343712
92	0x3f197d82	0.59957135
93	0xbe5345b6	-0.20632061
94	0xbd04576e	-0.032309942
95	0x3eb093de	0.34487814
96	0xbef28374	-0.47365916
97	0xbebc5cfb	-0.36789688
98	0x3f2f8d48	0.68574953
99	0x3f0c8b2c	0.5489986
100	0xbebfb927	-0.37445948
101	0xbf090cdb	-0.5353524
102	0xbe89df36	-0.2692811
103	0xbf1cfcfd	-0.6132353
104	0x3f16f278	0.5896373
105	0x3f0887bc	0.53332114
106	0x3f27f27c	0.65604377
107	0xbd7cc494	-0.06171091
108	0xbeaf77a4	-0.34270966
109	0xbf17e078	-0.5932689
110	0xbebe70b7	-0.3719537
111	0x3f1cb0f9	0.6120754
112	0x3f1b055f	0.6055507
113	0x3f21dfec	0.632323
114	0x3e994662	0.2993651
115	0xbebd96ac	-0.37029016
116	0x3e8f105a	0.27942163
117	0x3f0f6148	0.56007814
118	0x3f16018a	0.585961
119	0x3e53a36d	0.2066781
120	0x3e1f063c	0.15529722
121	0x3e6c059c	0.23049015
122	0x3eed07c8	0.46295
123	0x3ef741e9	0.48292473
124	0x3f24364a	0.6414534
125	0x3f105883	0.5638506
126	0xbdfe3cef	-0.12413966
127	0xbe0e816e	-0.13916561

phi.0.bias f4 [64]
0	0xbec5cf52	-0.38634735
1	0x3ec29eb3	0.38011703
2	0x3f10f142	0.5661813
3	0x3eadcea1	0.33946708
4	0xbe1e018e	-0.1543028
5	0x3f1992b3	0.5998947
6	0xbe759f2f	-0.23986505
7	0xbe071876	-0.13192925
8	0xbe9bbb60	-0.30416393
9	0xbdc69b19	-0.09697551
10	0xbee9bea8	-0.45653272
11	0xbf14fc05	-0.5819705
12	0xbeb4407f	-0.35205457
13	0xbe1ee2bf	-0.15516184
14	0x3e9fba8f	0.3119702
15	0x3e6e55bf	0.23274897
16	0x3ef9e604	0.488083
17	0xbebe492c	-0.371652
18	0x3e801af6	0.2502057
19	0x3ecd8cb6	0.40146416
20	0xbee605d4	-0.44926322
21	0x3de31307	0.110876136
22	0x3eba94c4	0.36441624
23	0x3e4490b9	0.19195832
24	0xbeef9cce	-0.4679932
25	0xbeb17bbe	-0.3466472
26	0x3f033bdc	0.51263213
27	0x3f20b692	0.6277858
28	0x3f13a0a8	0.57667017
29	0x3ecc3317	0.39882728
30	0xbf1b2f16	-0.6061872
31	0x3c3285ba	0.010896141
32	0xbf30a6b4	-0.6900437
33	0xbea691e3	-0.32533178
34	0xbe9c0271	-0.30470613
35	0xbec1cc39	-0.37851122
36	0x3f23b235	0.639438
37	0x3f1d3498	0.61408377
38	0xbc38a9fa	-0.011270994
39	0xbf19342d	-0.5984524
40	0xbf0d6b77	-0.55242103
41	0x3e1082f7	0.14112459
42	0xbdf75071	-0.1207589
43	0x3e284c37	0.16435324
44	0xbee021c5	-0.43775764
45	0xbed0d28e	-0.4078564
46	0xbe206b80	-0.15666008
47	0x3e81294f	0.25226828
48	0xbe43d206	-0.19123086
49	0x3f349831	0.70544726
50	0x3e68cda8	0.22734702
51	0x3f1673e0	0.5877056
52	0xbf0688ae	-0.52552307
53	0xbf0e6239	-0.55618626
54	0xbdae37f7	-0.08506768
55	0xbec46d5e	-0.3836469
56	0x3ddb6f6f	0.10714614
57	0xbf05345b	-0.52033013
58	0xbdc677b3	-0.096907996
59	0x3e72877d	0.23684497
60	0x3f307861	0.68933684
61	0xbf0ae4a6	-0.5425514
62	0x3ee24a30	0.44197226
63	0xbeef9d59	-0.46799734

phi.3.weight f4 [64, 64]
0	0xbb93db80	-0.0045122504
1	0x3d249f84	0.04019119
2	0xbdd8267c	-0.10554215
3	0x3de779d0	0.11302531
4	0xbde706b6	-0.11280577
5	0xbdd01890	-0.10160935
6	0xbd763210	-0.060106337
7	0xbd768764	-0.060187712
8	0x3da15358	0.07877225
9	0xbcf1bc40	-0.02950871
10	0x3da4db90	0.08049691
11	0xbcbb8568	-0.022890761
12	0x3c16a8b0	0.009195492
13	0x3c5167e0	0.012781113
14	0x3deff56e	0.11716734
15	0xbd9951b2	-0.07486285
16	0x3dce9844	0.10087636
17	0xbd97d22e	-0.074131355
18	0xbd5284c8	-0.05139616
19	0xbcdbbe00	-0.026823997
20	0xbcbf4c18	-0.023351714
21	0xbd414ff4	-0.04719539
22	0xbd24e1a0	-0.040254235
23	0x3c057050	0.008144453
24	0x3d517a44	0.051141992
25	0xbc71d410	-0.014760032
26	0x3d93d1b4	0.07217732
27	0x3ca53a48	0.020169392
28	0xbdc29c7c	-0.09502503
29	0xbcb9cae8	-0.022679761
30	0xbddfc838	-0.109268606
31	0xbda0bea4	-0.07848862
32	0x3dac3bcc	0.08409843
33	0x3aab1900	0.0013053715
34	0xbd156e50	-0.036482155
35	0x3d87093a	0.06593557
36	0xbd993e34	-0.074825674
37	0x3dc0daec	0.09416756
38	0xbda1353c	-0.07871482
39	0xbdc186b6	-0.09449522
40	0x3c3782f0	0.0112006515
41	0xba225f00	-0.00061939657
42	0x3df36b12	0.118856564
43	0x3c6bf470	0.01440154
44	0x3d107204	0.035264984
45	0xbde0007c	-0.109375924
46	0x3d903098	0.070405185
47	0x3c185f80	0.009300113
48	0x3c3ca440	0.01151377
49	0xbba7df80	-0.005123079
50	0x3d89256e	0.06696592
51	0xbd4e6fe8	-0.05039969
52	0x3cf13ef0	0.029448956
53	0xbdb98156	-0.09057872
54	0x3b3480c0	0.0027542561
55	0x3c7b4c00	0.015337944
56	0xbdbc80da	-0.09204264
57	0x3c519950	0.0127929
58	0x3db0510e	0.0860921
59	0xbc653ea0	-0.013991982
60	0xbd293904	-0.04131414
61	0x3d830872	0.06398095
62	0x3bc3e940	0.0059787333
63	0x3c193190	0.0093501955
64	0x3d296710	0.041358054
65	0xbca3bf38	-0.019988641
66	0xbcc5c3f0	-0.024141282
67	0x3d4ce7cc	0.050025746
68	0xbd86edea	-0.06588347
69	0xbdc66250	-0.0968672
70	0x3ae58100	0.0017509758
71	0xbd82ab7e	-0.06380366
72	0xbcb9f490	-0.022699624
73	0x3de445b6	0.11146109
74	0xbde28142	-0.1105981
75	0xbdb51902	-0.088426605
76	0x3ca6eca8	0.020376518
77	0x3dc513f6	0.09622948
78	0x3df9253e	0.121653065
79	0xbd82c23c	-0.063847035
80	0x3a1a5700	0.0005887598
81	0x3c746090	0.0149156
82	0xbd89598e	-0.06706534
83	0xbd7fd798	-0.062461466
84	0x3dcea5aa	0.10090192
85	0x3da3fcf6	0.08007233
86	0xbd87b50a	-0.06626327
87	0xbc6743b0	-0.014115259
88	0xbdc74e60	-0.09731746
89	0xbcbf8790	-0.02338007
90	0xbd96cd8e	-0.07363425
91	0xbca6f958	-0.020382568
92	0xbd5bda94	-0.05367525
93	0xbdb5fc0a	-0.08885963
94	0xbd6ec31c	-0.05829154
95	0x3d1d2e2c	0.03837411
96	0xbde5feb8	-0.11230224
97	0x3d2b431c	0.041812047
98	0xbd9d3144	-0.07675412
99	0x3d11385c	0.03545414
100	0x3d71ded4	0.059050396
101	0xbdfec378	-0.124396265
102	0x3d5f2698	0.054480165
103	0xbdbef7ea	-0.093246296
104	0x3c86c1c0	0.01644981
105	0x3b947340	0.0045303404
106	0x3d9efa5e	0.077625975
107	0xbddfb444	-0.10923055
108	0xbba8c120	-0.0051499754
109	0xbd502e8c	-0.05082564
110	0x3d8786e8	0.06617528
111	0xbd1deb00	-0.03855419
112	0x3d1243a4	0.03570904
113	0xbd5d327c	-0.054003224
114	0xbdd05c74	-0.10173884
115	0xbd998324	-0.07495716
116	0xbda74abc	-0.08168551
117	0xbbb2dfa0	-0.005458787
118	0x3dc36db6	0.0954241
119	0x3d4fdd90	0.050748408
120	0x3ddd9160	0.10818744
121	0x3daeb0dc	0.08529827
122	0xbd1a6a28	-0.037698895
123	0x3d0c0d14	0.03419216
124	0xbb76ffc0	-0.003768906
125	0x3deb5604	0.114910156
126	0x3d7e2de4	0.062055483
127	0xbd465e50	-0.048429787
128	0x3dea2c92	0.11434282
129	0xbb6dbc40	-0.0036275536
130	0xbd9e8b12	-0.07741369
131	0xbde43770	-0.11143386
132	0x3b576f80	0.0032872856
133	0x3d8469cc	0.06465492
134	0xbbae3b40	-0.0053171217
135	0xbdae3fee	-0.08508287
136	0xbd64abcc	-0.0558279
137	0xbd956444	-0.07294515
138	0xbd728a1c	-0.059213743
139	0x3c90cec0	0.017676711
140	0xbb08a7c0	-0.002085194
141	0xbd0f0b44	-0.034922853
142	0xbd8da382	-0.06915952
143	0x3d689ea0	0.0567919
144	0x3d9dd314	0.077062756
145	0xbc92db90	-0.017926961
146	0xbd0164d8	-0.031590313
147	0x3dd6852e	0.10474621
148	0xbd8acf54	-0.06777826
149	0x3d79fc78	0.06103179
150	0xbdfe5190	-0.124179006
151	0xbc6291d0	-0.01382871
152	0x3ba7fec0	0.005126804
153	0xbd2d6d34	-0.042340472
154	0x3dc25a44	0.09489873
155	0xbdd6c782	-0.10487272
156	0xbd4c5108	-0.049881965
157	0xbcb96018	-0.022628829
158	0x3ddfadfe	0.10921858
159	0x3d4e7584	0.05040504
160	0x3d10dd48	0.03536728
161	0xbd8ff450	-0.07029021
162	0xbc58b790	-0.013227358
163	0xbdd33b76	-0.10314076
164	0xbd8baef4	-0.06820479
165	0xbd67a6bc	-0.056555495
166	0xbdba26f4	-0.09089461
167	0x3d44dfac	0.048064873
168	0x3cbd63b8	0.023118839
169	0xbdac7ade	-0.084218726
170	0x3ce407f0	0.027835816
171	0x3d06327c	0.03276299
172	0x3dbe6f34	0.09298554
173	0xbdb0825c	-0.08618614
174	0xbc449290	-0.011997834
175	0x3de17662	0.11008908
176	0x3dd1cffc	0.10244748
177	0xbcd5efd8	-0.026115343
178	0xbd72ebdc	-0.059306964
179	0x3d95b4b8	0.0730986
180	0xbcae30a8	-0.021263435
181	0x3d688a0c	0.056772277
182	0xbb7b8540	-0.0038378984
183	0x3d35188c	0.044212863
184	0x3b37a000	0.0028018951
185	0xbc881790	-0.016612798
186	0x3dff5f36	0.12469332
187	0x3cfac150	0.030609757
188	0xbdcd08c2	-0.10011436
189	0xbd1e7fd8	-0.03869614
190	0xbd8f8ffa	-0.07009883
191	0x3dbdeeac	0.09274039
192	0x3df3ff2e	0.11913906
193	0x3da5097a	0.08058448
194	0x3ca380c0	0.019958854
195	0x3c815d08	0.015791431
196	0x3d7f387c	0.062309727
197	0xbd26b938	-0.040703982
198	0xbcde7d10	-0.027159244
199	0x3d8c5510	0.06852162
200	0xbddc265c	-0.10749504
201	0xbcd62de0	-0.026144922
202	0x3d72ca14	0.059274748
203	0xbdb0eebe	-0.086392865
204	0x3d958e04	0.07302478
205	0xbc2e32a0	-0.010632187
206	0xbd644478	-0.05572936
207	0xbdb7121c	-0.08939001
208	0x3d254e70	0.040358007
209	0xbc76cb20	-0.015063077
210	0x3d0048d0	0.03131944
211	0xbc7dc870	-0.015489683
212	0x3ddd79ec	0.108142704
213	0xbcba97a8	-0.022777393
214	0xbdd9b790	-0.10630715
215	0x3db938cc	0.09044036
216	0x3bc4fd80	0.006011665
217	0xbd4f1df0	-0.05056566
218	0xbd7400f0	-0.059571207
219	0xbd01ff4c	-0.03173761
220	0xbc3d7170	-0.01156269
221	0x3dd53778	0.104109704
222	0x3dda0090	0.106446385
223	0x3ced31d0	0.028954417
224	0x3d22add8	0.03971657
225	0x3d553bec	0.0520591
226	0xbdf3fa48	-0.11912972
227	0xbc354ae0	-0.011065215
228	0x3de723a8	0.11286098
229	0xbdebdd70	-0.11516845
230	0xbdf6325c	-0.12021324
231	0xbd639eb0	-0.055571258
232	0x3dc57f8a	0.09643467
233	0xbd47c95c	-0.048776016
234	0x3d20868c	0.039190814
235	0xbd9a9d48	-0.0754953
236	0x3ba34ee0	0.004983768
237	0xbdc39ae6	-0.09551029
238	0x3df25d96	0.11834256
239	0xbc1668d0	-0.009180263
240	0xbd95b65a	-0.073101714
241	0x3d17e3b0	0.037082374
242	0xbd7bb0f4	-0.061448053
243	0xba798b00	-0.0009519309
244	0xbdb7d056	-0.08975284
245	0xbd8e1bc8	-0.069388926
246	0x3bdc5900	0.006724477
247	0xbd9c3bde	-0.07628606
248	0x3d46efe0	0.048568606
249	0x3de0e818	0.10981768
250	0xbd8ce1b0	-0.06878984
251	0x3daebf22	0.085325494
252	0xbd408064	-0.046997443
253	0xbdd80440	-0.105476856
254	0xbde93522	-0.113870874
255	0xbca8ac50	-0.020589978

phi.3.bias f4 [64]
0	0x3c7cd270	0.015431032
1	0xba797a00	-0.00095167756
2	0x3a508600	0.0007954538
3	0x3dc08e82	0.09402181
4	0x3d5eaa60	0.0543617
5	0x3dc31bf6	0.095268175
6	0xbd02f2d8	-0.031969875
7	0xbdd218ae	-0.102586135
8	0xbdb83d7c	-0.08996102
9	0xbd7e9d54	-0.06216176
10	0xbdc02460	-0.09381938
11	0x3cf5ce90	0.030005723
12	0xbdc7bba2	-0.09752585
13	0xbc8866e8	-0.016650632
14	0x3de188e4	0.11012438
15	0x3dfb6cfa	0.12276645
16	0x3d92ea9e	0.07173656
17	0xbda67d38	-0.08129352
18	0x3c4779f0	0.012175068
19	0x3db345d0	0.0875355
20	0xbde0868a	-0.10963161
21	0xbd12ae1c	-0.035810575
22	0x3ad82200	0.0016489625
23	0x3dd95b22	0.10613085
24	0x3daaa398	0.08331984
25	0x3d4a0720	0.0493232
26	0xbc72da30	-0.014822528
27	0x3dfd31e6	0.12363033
28	0xbd15935c	-0.036517486
29	0x3d187834	0.03722401
30	0xbdec9d0a	-0.1155339
31	0x3de43382	0.11142637
32	0xbddc6f92	-0.10763468
33	0xbce692c8	-0.028146163
34	0xbd9b69c2	-0.07588531
35	0xbd8dba8a	-0.06920345
36	0x3db076a8	0.08616382
37	0x3dfa8cd8	0.12233895
38	0xbd0a0f60	-0.03370607
39	0x3c846918	0.016163394
40	0x3d317080	0.04332018
41	0xbd9ff1ba	-0.078097776
42	0xbcf83470	-0.030298442
43	0x3db76330	0.089544654
44	0x3cfa6ba8	0.030568913
45	0x3d56bb30	0.05242461
46	0x3ac78b00	0.001522392
47	0xbd45b1f0	-0.048265398
48	0xbdb74848	-0.089493334
49	0x3b8e9bc0	0.004352063
50	0xbd8af170	-0.06784332
51	0xbbbbd000	-0.0057315826
52	0x3dfbff52	0.12304558
53	0xbd89fc72	-0.06737603
54	0xbb119e00	-0.002221942
55	0xbdf2ae2e	-0.118496284
56	0xbd825818	-0.06364459
57	0x3de9f32e	0.11423336
58	0x3c889408	0.01667215
59	0xbde9c28a	-0.114140585
60	0xbc545ce0	-0.012961596
61	0x3cec52f8	0.028848156
62	0x3da1d3c8	0.07901722
63	0x3c180a30	0.009279773

rho.0.weight f4 [64, 64]
0	0x3d3cbcfc	0.046078667
1	0xbbe1f280	-0.0068953633
2	0x3c2596f0	0.010106787
3	0x3d0d5c98	0.034512132
4	0x3daf3c9c	0.08556482
5	0x3cfa1df8	0.030531868
6	0x3cd0f520	0.02550751
7	0xbdb27962	-0.08714558
8	0x3da193f4	0.07889548
9	0x3db8e108	0.09027296
10	0x3d3ab130	0.045579135
11	0x3d4a2e58	0.049360603
12	0x3c9f8d10	0.019476444
13	0x3dec0e86	0.115262076
14	0xbdf195a8	-0.11796123
15	0xbd27f480	-0.041004658
16	0xbc0d73d0	-0.008633569
17	0xbdb6ec72	-0.08931817
18	0xbdbea3ec	-0.09308609
19	0x3d40fd60	0.047116637
20	0x3c89bf60	0.016814888
21	0x3d7e4978	0.062081784
22	0xbdae1e90	-0.08501923
23	0x3de39cc6	0.111138865
24	0xbdd2cf22	-0.10293414
25	0xbdf8c8e4	-0.12147692
26	0x3db67830	0.08909643
27	0xbda342c2	-0.079717174
28	0xbd477894	-0.048698977
29	0xbdd2dcf0	-0.10296047
30	0xbd9b45c2	-0.075816646
31	0x3b9240a0	0.0044632703
32	0x3da5166a	0.08060916
33	0x3dceb16c	0.10092434
34	0x3ce50a18	0.027958915
35	0x3d031c34	0.03200932
36	0x3ca56c80	0.020193338
37	0x3d503380	0.050830364
38	0xbda1bc12	-0.078972
39	0xbbd27d00	-0.0064235926
40	0x3de05eee	0.109556064
41	0x3d57bc00	0.052669525
42	0xbdd5fff2	-0.10449208
43	0xbdf4e358	-0.11957425
44	0xbdcaa74e	-0.09895192
45	0xbd2ea674	-0.04263921
46	0xbda78b7c	-0.081809014
47	0x3c8ef860	0.017452419
48	0x3da1b172	0.07895173
49	0xbd90da90	-0.070729375
50	0x3dc82d76	0.09774296
51	0xbd82b416	-0.06382005
52	0x3d3c0710	0.045905173
53	0xbdcf813e	-0.10132073
54	0xbcb4fe00	-0.022093773
55	0x3d33cc30	0.0438959
56	0xbd8e04de	-0.06934522
57	0x3de0ddb2	0.10979785
58	0xbd3385c4	-0.04382874
59	0x3d2d1950	0.042260468
60	0x3d5f63a8	0.0545384
61	0x3de8facc	0.11375961
62	0x3de37c82	0.11107732
63	0x3de18552	0.11011757
64	0xbdbd42b8	-0.09241241
65	0xbd2e4f7c	-0.04255627
66	0x3d080bcc	0.033214375
67	0x3bcde920	0.006283894
68	0xbd7d2174	-0.06179948
69	0x3da9238e	0.08258735
70	0x3d015d48	0.0315831
71	0xbc9384a0	-0.018007576
72	0xbc8d1658	-0.017222568
73	0x3c050730	0.008119389
74	0x3cc025c8	0.023455516
75	0xbdd5e214	-0.104435116
76	0x3d9c9854	0.07646242
77	0xbdbef138	-0.093233526
78	0x3dda54c8	0.10660702
79	0xbcd3a738	-0.025836572
80	0x3dce66fe	0.10078238
81	0xbc2f3690	-0.010694161
82	0x3d29e3e8	0.041477114
83	0xbcc07aa0	-0.023495972
84	0xbd946468	-0.072457135
85	0x3dcfbdd6	0.1014363
86	0x3c450250	0.012024477
87	0x3ddacc22	0.106834665
88	0x3d0ba8d8	0.03409657
89	0x3b3bfa80	0.0028683245
90	0xbdb3df12	-0.08782782
91	0x3d0a89d4	0.03382285
92	0x3bfc4020	0.007698074
93	0x3d9fa6fe	0.07795523
94	0xbca99aa8	-0.020703629
95	0x3ddfc27e	0.10925768
96	0xbdebb7c0	-0.11509657
97	0x3d6fe5c8	0.058568746
98	0x3c538a00	0.01291132
99	0xbd55dc34	-0.052211955
100	0xbd8a2a92	-0.06746401
101	0xbdc28806	-0.09498601
102	0xbdb0be64	-0.08630064
103	0x3dffa0ba	0.12481828
104	0xbca24c18	-0.019811675
105	0x3d776ba4	0.06040539
106	0xbdbf2036	-0.093323156
107	0xbd27decc	-0.04098396
108	0xbc1b9890	-0.009496823
109	0xbda3cb70	-0.07997787
110	0xbc5cf310	-0.013485685
111	0xbd36ad24	-0.044598714
112	0xbd03b5c4	-0.032155767
113	0xbd58f0f0	-0.05296415
114	0x3db9ca38	0.09071773
115	0xbd6575b8	-0.05602047
116	0x3de269b4	0.110553175
117	0x3ddedf2a	0.10882409
118	0x3dce9902	0.10087778
119	0xbd80967e	-0.06278704
120	0x3ba19b20	0.0049318224
121	0x3db876a8	0.09007007
122	0xbc64a1e0	-0.01395461
123	0xbd8dacca	-0.069177225
124	0x3c497e30	0.012298152
125	0x3cf6f100	0.030144215
126	0x3d9fdf5e	0.07806276
127	0xbd3e7384	-0.046496883
128	0x3a897600	0.0010487437
129	0xbd93716c	-0.07199368
130	0x3ba4b680	0.0050266385
131	0xbd1fa594	-0.038976267
132	0xbd7b4724	-0.06134714
133	0xbd4743e0	-0.048648715
134	0xbd998b5c	-0.07497284
135	0x3b291900	0.0025802255
136	0xbdb82980	-0.089922905
137	0xbd6339a4	-0.055474892
138	0x3d90915e	0.070589766
139	0xbde19ce8	-0.110162556
140	0xbdfb5aa2	-0.12273146
141	0x3dc9401c	0.09826681
142	0x3ccc1fe0	0.024917543
143	0x3d983b82	0.07433225
144	0xbdcf86ca	-0.10133131
145	0x3cf105e0	0.029421747
146	0x3d9859d8	0.07439011
147	0xbd983548	-0.074320376
148	0xbd9221f8	-0.07135385
149	0x3df094c8	0.11747128
150	0xbdeb38b0	-0.11485422
151	0x3dd9422e	0.10608326
152	0x3d4bc6a4	0.049749985
153	0x3dda071c	0.10645887
154	0x3db0e496	0.08637349
155	0xbd23fc38	-0.040035456
156	0xbd471a88	-0.048609287
157	0x3d9dfb06	0.077138945
158	0x3d81ee22	0.06344248
159	0xbdf0a8e6	-0.11750965
160	0xbd975a06	-0.073902175
161	0xbc8d3ce8	-0.017240956
162	0x3d9d0bd8	0.07668275
163	0xbda704de	-0.08155225
164	0x3dff9f72	0.12481584
165	0xbd4dea0c	-0.050272033
166	0xbd9d32d6	-0.07675712
167	0xbd443010	-0.0478974
168	0x3cedf350	0.029046685
169	0xbde87e58	-0.11352223
170	0xbb6c6900	-0.0036073327
171	0x3d143f6c	0.036193296
172	0x3dde8a14	0.1086618
173	0x3d73d40c	0.059528396
174	0x3dffbea0	0.12487531
175	0xbdda4c20	-0.10659051
176	0x3d9b1026	0.075714394
177	0x3df31a62	0.118702665
178	0xbdce7b04	-0.10082057
179	0x3dd72426	0.10504942
180	0xbdb8a4f2	-0.09015836
181	0x3db30978	0.087420404
182	0x3d81f3ae	0.06345306
183	0x3c6c4980	0.014421821
184	0xbd7f0f0c	-0.06227021
185	0xbc4cf990	-0.012510672
186	0xbd088be8	-0.03333655
187	0xbcc94e30	-0.024573416
188	0x3d7ba898	0.06144008
189	0x3bd76dc0	0.0065743625
190	0xbdef44dc	-0.11683056
191	0x3cdc6fa0	0.026908696
192	0x3cf97000	0.030448914
193	0xbce310e0	-0.027718008
194	0x3c0f5080	0.00874722
195	0x3ce86b08	0.028371349
196	0x3d21b594	0.039479807
197	0xbdd75f72	-0.105162516
198	0x3d4ff8dc	0.05077444
199	0x3dbc4842	0.091934696
200	0x3d31f4e8	0.04344645
201	0xbdfd181a	-0.12358113
202	0xbd9526b0	-0.0728277
203	0x3d5a2770	0.053260267
204	0xbdf6862e	-0.120373115
205	0x3da9b4e8	0.08286458
206	0x3dec200e	0.115295514
207	0x3d969462	0.073525205
208	0x3c0fd4f0	0.008778796
209	0xbd5a0e7c	-0.05323647
210	0x3dc51a12	0.09624113
211	0x3d91bac4	0.07115701
212	0x3dfa58a2	0.122239366
213	0x3c3f15c0	0.0116629
214	0xbdbd5824	-0.09245327
215	0xbc9e7870	-0.019344538
216	0x3c9f7f88	0.019469991
217	0xbdc1706c	-0.09445271
218	0xbde7c4f8	-0.11316866
219	0xbcb35f98	-0.021896169
220	0x3dd03f80	0.10168362
221	0x3dcd3c4c	0.10021266
222	0xbdd9024a	-0.1059614
223	0x3d96c51e	0.07361816
224	0x3c85c900	0.016331196
225	0x3dbd5732	0.09245147
226	0x3cf095d0	0.029368311
227	0xbd9e9b38	-0.077444494
228	0xbd94b3b8	-0.07260841
229	0x3a0aef00	0.0005299896
230	0xbbd55860	-0.0065107793
231	0xbbbfd3c0	-0.0058541
232	0x3db0d478	0.08634275
233	0x3db94cae	0.090478286
234	0x3cc23ef8	0.023711666
235	0x3db30958	0.087420166
236	0x3d1eedb4	0.03880091
237	0xbd431784	-0.047629848
238	0xbdf6f130	-0.120577216
239	0xbbca7360	-0.0061783046
240	0xbbc72e00	-0.0060784817
241	0xbc088ec0	-0.0083348155
242	0xbd8618b6	-0.06547682
243	0x3a932480	0.0011226088
244	0xbdd6b5c6	-0.10483889
245	0x3bed7840	0.007247001
246	0x3cb14cc0	0.021643043
247	0x3db89c76	0.090142176
248	0x3d88f510	0.06687367
249	0xbdf3bda0	-0.119014025
250	0xbcb933e8	-0.022607759
251	0xbdc9b93e	-0.09849785
252	0x3db8d94e	0.090258226
253	0xbbcb8a40	-0.006211549
254	0x3d08aa34	0.033365443
255	0x3dcfb150	0.101412416

rho.0.bias f4 [64]
0	0xbda3db3a	-0.080007985
1	0xbdcea780	-0.10090542
2	0x3abb8500	0.0014306605
3	0xbdefce8c	-0.117093176
4	0xbd3818dc	-0.044945583
5	0x3d8054ec	0.062661976
6	0x3d58f3a0	0.052966714
7	0x39b7a600	0.0003502816
8	0xbdd738f4	-0.1050891
9	0x3dc1c154	0.094607025
10	0x3da7bbac	0.081900924
11	0x3dd5a53e	0.10431908
12	0xbd5be78c	-0.053687617
13	0xbc855800	-0.016277313
14	0xbdc07db0	-0.09398973
15	0xbde24d52	-0.11049904
16	0xbdc0b984	-0.09410384
17	0xbdce7464	-0.100807935
18	0x3dec99fe	0.11552809
19	0x3db89b12	0.09013952
20	0x3de7bdf0	0.113155246
21	0x3de57b6a	0.1120518
22	0xbd576024	-0.05258192
23	0x3cb712d0	0.022347838
24	0xbdd427f6	-0.103591844
25	0xbdcf1c94	-0.10112873
26	0xbc8a2830	-0.016864866
27	0x3cd76160	0.02629155
28	0xbd6474d8	-0.055775493
29	0xbdd0cd2c	-0.101953834
30	0xbda7b436	-0.081886694
31	0x3bf48de0	0.007463202
32	0xbd1fba58	-0.03899607
33	0x3d7a5844	0.061119333
34	0x3d95bae8	0.0731104
35	0xbce1c020	-0.027557433
36	0x3ddea768	0.10871774
37	0xbcfddcd0	-0.03098908
38	0xbda277fa	-0.0793304
39	0xbc6a1ff0	-0.014289841
40	0x3d8f90dc	0.070100516
41	0xbdf8386c	-0.121201366
42	0xbd1b6fbc	-0.037948355
43	0xbde44baa	-0.11147244
44	0x3cd02b38	0.025411233
45	0xbde316c8	-0.110883296
46	0xbc693f60	-0.014236301
47	0x3d935b6c	0.07195172
48	0xbd9c9164	-0.076449186
49	0xbdf3cc48	-0.11904198
50	0xbdf634da	-0.120217994
51	0xbceb5688	-0.028727785
52	0xbd3d1238	-0.046159953
53	0xbdc12e5c	-0.094326705
54	0x3c865ae8	0.01640077
55	0x3d69471c	0.05695258
56	0xbc4e5520	-0.012593538
57	0xbac33300	-0.0014892519
58	0x3d651388	0.05592683
59	0xbdce40c0	-0.10070944
60	0x3c5140f0	0.01277183
61	0x3d20d2c4	0.0392635
62	0xbcae8710	-0.021304637
63	0x3d5ebee4	0.054381266

rho.3.weight f4 [32, 64]
0	0xbde0f344	-0.10983899
1	0x3d709164	0.058732405
2	0x3d95a562	0.07306935
3	0xbc5db620	-0.0135321915
4	0x3d3d0d08	0.046155006
5	0x3d19c990	0.03754574
6	0xbdbb74f4	-0.091531664
7	0x3dfb8c20	0.12282586
8	0x3d36aeec	0.044600412
9	0xbdd29fd0	-0.10284388
10	0x3d1fe390	0.03903538
11	0xbd95ed40	-0.073206425
12	0x3dd73c02	0.105094925
13	0xbd79a38c	-0.060946986
14	0xbd0f1e34	-0.034940913
15	0x3dd79122	0.10525729
16	0x3d160cdc	0.036633357
17	0xbd9aeaac	-0.07564291
18	0x3d06ae14	0.032880858
19	0x3d9b7a02	0.075916305
20	0x3dd9fcd8	0.10643929
21	0x3df5e302	0.12006189
22	0xbdd5b37e	-0.10434626
23	0x3dab5ac2	0.0836692
24	0xbda49f8c	-0.08038244
25	0xbdc15002	-0.094390884
26	0x3d89f338	0.067358434
27	0x3c72bbc0	0.014815271
28	0xbde385f4	-0.11109534
29	0x3d6c6c90	0.05772072
30	0xbd6e9ee4	-0.058257
31	0xbc420b90	-0.011843577
32	0x3d135390	0.035968363
33	0xbcd559d8	-0.026043817
34	0x3de9cc16	0.114158794
35	0x3c8971e8	0.016777948
36	0xb9d5c600	-0.00040774047
37	0xbdb827e6	-0.08991985
38	0x3dcc4c02	0.09975435
39	0x3dab5242	0.08365299
40	0x3d435a3c	0.047693476
41	0xbde07284	-0.10959342
42	0x3db2220c	0.086979
43	0xbd428d84	-0.04749824
44	0x3d0d6934	0.034524158
45	0x3c8ec310	0.017426997
46	0xbcc5dc18	-0.0241528
47	0x3d4c9cc4	0.04995419
48	0x3dad2812	0.084549084
49	0xbd9f9528	-0.07792121
50	0x3def2e84	0.11678794
51	0xbbb73c60	-0.005591914
52	0xbd98abc8	-0.0745464
53	0xbd39bf60	-0.045348525
54	0x3dd03db2	0.101680174
55	0xbdbda4dc	-0.0925996
56	0x3dc37248	0.09543282
57	0xbc9b8c98	-0.018987939
58	0x3c8515f0	0.016245812
59	0x3d841d52	0.06450905
60	0x3d484eac	0.048903152
61	0x3ddbb4ce	0.10727845
62	0x3d8f1e14	0.06988159
63	0xbb225700	-0.0024771094
64	0x3dbb1ba0	0.091361284
65	0x3d44d008	0.048049957
66	0x3db2aa92	0.0872394
67	0x3dc4376a	0.09580882
68	0xbd95a152	-0.0730616
69	0x3c53ec90	0.012934819
70	0x3d027c5c	0.03185688
71	0x3ddbd53c	0.107340306
72	0x3cdb9018	0.026802108
73	0x3dba525a	0.090977386
74	0xbdb5a462	-0.08869244
75	0xbc50b030	-0.012737319
76	0x3dfb2014	0.12261978
77	0xbd9bbc24	-0.07604244
78	0x3dc4c68a	0.09608181
79	0x3dc8bcf4	0.09801665
80	0x3de27308	0.11057097
81	0x3b986f00	0.004651904
82	0x3dbf80da	0.09350748
83	0xbdfa5a9e	-0.12224315
84	0x3da836ca	0.08213575
85	0xbd4e2614	-0.050329283
86	0xbc6849b0	-0.014177725
87	0xbcf2a418	-0.029619262
88	0xbdeb07fe	-0.11476134
89	0xbd9fc21e	-0.07800697
90	0x3d92ddf6	0.07171242
91	0xbd20322c	-0.039110348
92	0x3db10b76	0.08644764
93	0x3d8d1a56	0.06889789
94	0x3df4a99e	0.119464144
95	0x3d9d14a0	0.076699495
96	0xbdc77642	-0.09739353
97	0xbc7a3440	-0.015271246
98	0x3db58e7c	0.08865067
99	0x3d9eae48	0.07748085
100	0xbdca9d0c	-0.098932356
101	0xbd3e3370	-0.046435773
102	0xbca10640	-0.0196563
103	0x3dda1b98	0.10649794
104	0xbd2dbc58	-0.042415947
105	0x3d1e1784	0.038596645
106	0xbc046f90	-0.008083239
107	0xbd8d9c32	-0.069145575
108	0x3be03d60	0.006843254
109	0xbdfcbd98	-0.1234085
110	0x3c514770	0.01277338
111	0x3d653a84	0.055964008
112	0x3dd1db7e	0.10246943
113	0xbd7feee8	-0.062483698
114	0x3d033a98	0.0320383
115	0xbda8ca04	-0.082416564
116	0x3ae1c380	0.0017224401
117	0x3d7bc988	0.061471492
118	0xbd5b50d0	-0.053543866
119	0x3d97e458	0.074166
120	0x3db7b21e	0.0896952
121	0xbd3989ec	-0.04529755
122	0x3c4612a0	0.0120894015
123	0xbd364150	-0.04449588
124	0xbd2127d8	-0.03934464
125	0xbd005e90	-0.03134018
126	0x3cb48f30	0.022040933
127	0x3d3b911c	0.045792684
128	0x3cda2280	0.026627779
129	0xbcd4afc8	-0.025962725
130	0xbc85a3b0	-0.016313404
131	0x3df8b5f2	0.12144078
132	0xbddf7a04	-0.109119445
133	0xbd72b1b0	-0.059251487
134	0x3d8f5c3a	0.07000013
135	0x3dc131ce	0.094333276
136	0x3da72f86	0.08163361
137	0xbdda3ea8	-0.10656482
138	0xbdb07a0e	-0.0861703
139	0x3d0bb368	0.034106642
140	0x3dfe8b22	0.12428881
141	0x3cc3e178	0.023911223
142	0x3ceac698	0.02865915
143	0xbc4c2c10	-0.012461677
144	0x3cde4cd8	0.027136251
145	0x3dafe494	0.0858852
146	0x3dfa6f18	0.12228221
147	0xbdbc4894	-0.09193531
148	0x3c886730	0.016650766
149	0x3d99c26c	0.07507786
150	0xbd95013c	-0.07275626
151	0xbd736e28	-0.059431225
152	0x3d8b7b1e	0.06810592
153	0xbdb4fc14	-0.088371426
154	0x3d9a277c	0.07527062
155	0x3d885dae	0.06658493
156	0x3d6090b4	0.0548255
157	0xbd0b8cc4	-0.03406979
158	0x3dbfafcc	0.093597025
159	0xbde5bbbe	-0.112174496
160	0xbce15f28	-0.027511194
161	0x3daa6e2c	0.08321795
162	0xbcc45178	-0.023964629
163	0xbda78f8e	-0.08181678
164	0xbd5c57e4	-0.053794757
165	0x3d05b1b0	0.03264016
166	0x3c9404b0	0.018068641
167	0xbdb4da90	-0.0883075
168	0xbdf3f5d2	-0.11912121
169	0xbdef6660	-0.11689448
170	0x3d3b0d74	0.045667127
171	0xbb716940	-0.0036836416
172	0xbdca57ec	-0.09880051
173	0xbb9e7e40	-0.0048368275
174	0x3dc5f690	0.09666169
175	0x3daa8958	0.083269775
176	0x3da1337e	0.078711495
177	0x3d7fadf0	0.06242174
178	0x3da0aad4	0.07845083
179	0xbdc51948	-0.09623963
180	0xbca91d80	-0.02064395
181	0xbd80ed3e	-0.0629525
182	0x3dc4ff3a	0.09618993
183	0x3c9b8748	0.018985406
184	0x3de586e8	0.11207372
185	0x3db6732a	0.089086846
186	0x3d54bd0c	0.0519381
187	0xbd32946c	-0.043598577
188	0x3de896c8	0.11356884
189	0x3c104af0	0.008806929
190	0x3dff325e	0.12460779
191	0x3cf25f38	0.02958642
192	0xbdce0d62	-0.10061146
193	0xbd2adb5c	-0.041713104
194	0xbdeab8b2	-0.11461009
195	0x3dc965ea	0.09833892
196	0x3d18b1dc	0.037278995
197	0xbd2e2bf8	-0.0425224
198	0xbdaac208	-0.0833779
199	0xbccf4518	-0.025301501
200	0xbdfe2510	-0.12409413
201	0xbcce71f8	-0.025200829
202	0x3bf255a0	0.007395461
203	0xbd069cc4	-0.032864347
204	0xbd9c2efa	-0.076261476
205	0xbd1316e4	-0.035910502
206	0x3cea0098	0.028564736
207	0x3d9c3af0	0.07628429
208	0x3c8100e0	0.015747488
209	0xbd4356b4	-0.04769011
210	0x3c505b30	0.012717053
211	0xbd087950	-0.033318818
212	0x3ca03160	0.019554794
213	0xbd1c00f0	-0.03808683
214	0xbd7a6a9c	-0.061136827
215	0x3de5f074	0.112275034
216	0xbdfaeaf6	-0.122518465
217	0xbd63dc54	-0.055630043
218	0xbdd4c164	-0.10388449
219	0x3de08ea2	0.10964705
220	0xba67b100	-0.0008838326
221	0x3cc8ad08	0.02449657
222	0x3d456024	0.04818739
223	0x3d067a88	0.0328317
224	0x3d3870cc	0.045029446
225	0x3db22a92	0.08699526
226	0xbd34da98	-0.04415378
227	0x3d3ad254	0.04561074
228	0x3de11e20	0.10992074
229	0xbd3293c0	-0.043597937
230	0x3d9f4a9a	0.07777901
231	0x3d4d7868	0.050163656
232	0xbd3fa830	-0.046791255
233	0xbd2bb5a0	-0.041921258
234	0x3de24fbc	0.110503644
235	0xbde598e0	-0.11210799
236	0xbcab8fc0	-0.020942569
237	0x3cad2680	0.021136522
238	0x3da26d1c	0.07930967
239	0x3db25bca	0.087089136
240	0x3d448220	0.04797566
241	0x3d9fb770	0.0779866
242	0x3da1b5a4	0.07895973
243	0x3d67ced4	0.05659373
244	0x3d12b988	0.035821468
245	0xbdc84dd8	-0.097804725
246	0xbc864e08	-0.01639463
247	0x3ddb733e	0.1071534
248	0xbdcb7c6e	-0.099358425
249	0xbdd2c80a	-0.10292061
250	0x3c4624a0	0.012093693
251	0x3df4cee6	0.11953525
252	0x3d58c3e4	0.05292119
253	0xbddaa85c	-0.10676643
254	0x3d8b35f0	0.06797397
255	0x3dce1f72	0.100645915

rho.3.bias f4 [32]
0	0xbc25c850	-0.010118559
1	0xbd99bd28	-0.07506782
2	0xbc2f3480	-0.010693669
3	0x3cf47ad8	0.029843733
4	0x3c64ed00	0.013972521
5	0x3d711278	0.058855504
6	0x3d748038	0.05969259
7	0x3bb8c600	0.005638838
8	0xbdd8ac1c	-0.10579702
9	0xbdcc4e48	-0.099758685
10	0xbdec5bd8	-0.11540955
11	0x3d389de0	0.045072436
12	0x3df9ef4e	0.12203847
13	0x3b5f8b80	0.0034110248
14	0x3d951bce	0.07280694
15	0xbde079ae	-0.109607086
16	0x3db08d76	0.086207315
17	0xbd2cc220	-0.04217732
18	0xbc301900	-0.010748148
19	0xbde77e56	-0.113033935
20	0x3da74c96	0.081689045
21	0xbd5a787c	-0.05333756
22	0x3c3eac40	0.011637747
23	0x3dfd7afa	0.123769715
24	0x3d087f18	0.03332433
25	0xbddfdea6	-0.10931139
26	0xbd918a22	-0.07106425
27	0xbbb70aa0	-0.0055859834
28	0x3cfce340	0.03087008
29	0xbcfbbb68	-0.03072901
30	0x3d5b4e7c	0.053541645
31	0xbd9549c0	-0.07289457

latent_to_hidden.0.weight f4 [64, 32]
0	0x3e0401a3	0.1289125
1	0xbbe88412	-0.007095822
2	0x3d778f54	0.060439423
3	0x3cea0550	0.028566986
4	0xbdb14be7	-0.08657055
5	0x3dff0980	0.12452984
6	0xbdd20e9c	-0.10256693
7	0x3dc5ad2e	0.09652172
8	0xbe33fa01	-0.17575838
9	0xbd5f2a3a	-0.05448363
10	0xbdaa41b5	-0.08313314
11	0xbd4bb312	-0.04973132
12	0xbe02f601	-0.12789156
13	0xbc4d6deb	-0.0125384135
14	0xbe24d269	-0.1609589
15	0x3e24b450	0.16084409
16	0x3e1d528c	0.1536352
17	0xbdc41b0e	-0.09575473
18	0xbe081bc6	-0.13291845
19	0xbc4fca24	-0.012682471
20	0x3d7df7d1	0.062003914
21	0x3e13836a	0.14405599
22	0x3e05f11b	0.13080256
23	0x3ce09132	0.027412985
24	0xbd16bfdb	-0.03680406
25	0xba50f8df	-0.0007971655
26	0xbe11dac2	-0.14243606
27	0xbd54efd0	-0.051986516
28	0xbe295c76	-0.16539177
29	0xbcb85f82	-0.02250648
30	0x3e10eb2e	0.14152214
31	0xbe0c6bd5	-0.1371301
32	0xbe084fc2	-0.13311675
33	0xbe123737	-0.14278875
34	0xbde6b320	-0.11264634
35	0xbd8c7163	-0.06857564
36	0x3d898fdd	0.06716893
37	0x3d05017d	0.032472122
38	0x3bb2b985	0.0054542446
39	0x3ce54e31	0.027991386
40	0x3e017b10	0.12644601
41	0x3d9e9d30	0.07744825
42	0x3e2c3e5e	0.16820666
43	0xbe2d7492	-0.16939
44	0x3d7b0afd	0.061289776
45	0xbe18b085	-0.14911087
46	0x3d5137f5	0.051078755
47	0x3d0cad42	0.03434492
48	0x3e216dc1	0.15764524
49	0xbe15e48c	-0.14637965
50	0x3e1fef05	0.15618522
51	0x3db497fa	0.0881805
52	0xbe2d908d	-0.16949673
53	0x3d649127	0.05580249
54	0xbdee7638	-0.11643642
55	0xbd952254	-0.07281938
56	0x3d8e1294	0.06937137
57	0xbde88c3f	-0.11354875
58	0x3cf1dd2f	0.029524414
59	0x3db73e01	0.08947373
60	0xbdab731d	-0.083715655
61	0xbcb148da	-0.021641184
62	0xbd9ea658	-0.07746571
63	0x3d9b01ba	0.07568689
64	0x3d3ab0c0	0.04557872
65	0xbc9e6b45	-0.01933826
66	0xbe1b64bd	-0.15175147
67	0xbe0c73e5	-0.13716085
68	0x3cf3849c	0.029726319
69	0x3da00fb3	0.078154944
70	0xbdbd3857	-0.092392616
71	0xbe29305a	-0.16522351
72	0x3d9398ba	0.07206865
73	0x3d318dc6	0.043348096
74	0x3d8a0828	0.06739837
75	0xbe0214f5	-0.12703307
76	0x3dd79fac	0.10528502
77	0xbe09db6c	-0.13462609
78	0x3db48fe9	0.08816511
79	0xbe1f5018	-0.15557897
80	0xbe21ca41	-0.1579981
81	0x3d44bb8c	0.04803042
82	0x3d557f39	0.052123282
83	0xbdda448a	-0.10657604
84	0xbad61c17	-0.0016335276
85	0x3e236f04	0.15960318
86	0x3dca12a9	0.098668404
87	0xbc9ea815	-0.019367257
88	0xbe126317	-0.14295612
89	0xbcbc98ad	-0.02302202
90	0xbd78f58b	-0.060781043
91	0x3d8918ed	0.06694207
92	0x3ba61435	0.005068327
93	0x3deea7af	0.11653077
94	0xbe264f90	-0.16241288
95	0x3de64f61	0.11245609
96	0xbe0c4562	-0.13698342
97	0x3d944950	0.07240546
98	0x3e122384	0.1427136
99	0x3d27637d	0.040866364
100	0x3db9b3fe	0.09067534
101	0xbe2f6b87	-0.17130862
102	0xbd6d67ce	-0.057960324
103	0xbdf39504	-0.11893657
104	0x3e0e6663	0.13906245
105	0xbdde3f89	-0.10851962
106	0xbc9674f2	-0.01836631
107	0x3e067c2b	0.13133304
108	0x3df0afb4	0.11752263
109	0xbc8bdf5b	-0.017074278
110	0x3b91bd40	0.004447609
111	0xbe0c5e1e	-0.13707778
112	0xbe13f06c	-0.14447182
113	0xbcccd7ca	-0.02500524
114	0x3de137b2	0.10996951
115	0xbe30173d	-0.17196365
116	0xbc09737d	-0.008389351
117	0x3e0ea26b	0.13929145
118	0x3d8f74fb	0.07004734
119	0x3e03db4d	0.12876625
120	0x3e2041ee	0.1565015
121	0xbd62ac7f	-0.055340286
122	0xbe1f0882	-0.15530589
123	0xbd588214	-0.052858427
124	0xbcc33f2b	-0.023833832
125	0xbe18f13d	-0.14935775
126	0x3d5cd9a1	0.053918485
127	0xbe201f62	-0.15636972
128	0x3dc26692	0.0949222
129	0xbdcb2379	-0.09918875
130	0xbce6a545	-0.028154979
131	0x3cdfa938	0.02730237
132	0x3d67e761	0.056617144
133	0x3df5df5a	0.120054916
134	0x3e19a7ad	0.1500537
135	0xbdcabc28	-0.09899169
136	0x3e1ceaae	0.15323898
137	0xbe152231	-0.14563824
138	0xbd8373ad	-0.06418548
139	0x3c928502	0.017885689
140	0x3e170576	0.14748177
141	0xbdd79bb4	-0.10527745
142	0xbe2ae848	-0.16690171
143	0x3de6d4bc	0.112710446
144	0xbe21319a	-0.15741578
145	0x3dab1e48	0.08355385
146	0xbd9cf01e	-0.07662986
147	0x3ccf218a	0.025284547
148	0x3c524497	0.012833736
149	0xbd8eaa54	-0.06966081
150	0xbd9b4016	-0.07580583
151	0x3e046b9b	0.12931673
152	0xbd3acdc9	-0.04560641
153	0x3c5128dd	0.01276609
154	0xbe13d1c5	-0.1443549
155	0xbd0a2fa5	-0.033736844
156	0x3df1ae4c	0.118008226
157	0xbd8d550a	-0.069009855
158	0x3e0c7005	0.13714607
159	0xbda64226	-0.081180856
160	0x3c2ac990	0.010424033
161	0x3e293fa7	0.16528188
162	0x3e2e3cdc	0.17015404
163	0xbd2473d5	-0.04014953
164	0x3d3ebd97	0.046567526
165	0x3db7c1a0	0.08972478
166	0xbe04593a	-0.12924662
167	0x3d9755df	0.073894255
168	0x3d15ba0c	0.03655438
169	0xbe12312f	-0.14276575
170	0x3d4fe7a4	0.05075802
171	0xbe0c6da9	-0.13713707
172	0xbdbe8e80	-0.093045235
173	0x3d64f6b0	0.055899322
174	0xbda811d0	-0.082065225
175	0xbe028549	-0.12746157
176	0xbe0616d7	-0.1309465
177	0x3e2dfe5a	0.16991559
178	0x3c8eddba	0.017439712
179	0xbde32156	-0.11090343
180	0x3c4916e0	0.01227352
181	0x3c32b530	0.010907456
182	0xbd3d5e17	-0.04623231
183	0xbccc1561	-0.024912538
184	0xbc8b5967	-0.017010404
185	0xbe0ff227	-0.14057218
186	0x3d715d4a	0.058926858
187	0xbddffb14	-0.10936561
188	0xbe1103e9	-0.14161648
189	0xbde00f27	-0.1094039
190	0x3d87bb51	0.06627525
191	0xbc5fbb8f	-0.013655557
192	0xbd82d614	-0.063884884
193	0xbe1bd306	-0.15217218
194	0xbdc1c042	-0.094604984
195	0x3d829dcc	0.063777536
196	0xbd459e9e	-0.048246972
197	0xbdc792f3	-0.09744825
198	0xbe303dda	-0.17211094
199	0x3d8465f8	0.064647615
200	0x3d079505	0.0331011
201	0x3d5bb7f5	0.053642232
202	0xbe1108f3	-0.1416357
203	0x3de453ff	0.111488335
204	0xbd14fdb7	-0.036374774
205	0xbded8ecc	-0.11599502
206	0xbd83e730	-0.0644058
207	0xbc738611	-0.014863507
208	0xbe12afb2	-0.14324835
209	0x3e00d558	0.12581384
210	0xbd1af0fa	-0.03782747
211	0xbe1a6fb8	-0.1508168
212	0x3df7a359	0.12091703
213	0x3e242f4b	0.16033666
214	0xbdcf8291	-0.101323254
215	0xbdb95bf2	-0.0905074
216	0x3d2a421b	0.04156695
217	0xbcc73d4a	-0.024321217
218	0x3e0ccc12	0.13749722
219	0xbe0b4b3b	-0.13602917
220	0x3c826ceb	0.015921077
221	0x3c40c008	0.011764534
222	0xbe34e62a	-0.17665926
223	0xbe0d36a5	-0.13790376
224	0xbd7395a6	-0.059468888
225	0x3e0ea142	0.13928702
226	0x3d0dbb98	0.03460273
227	0x3d8c9d31	0.068659194
228	0x3d6d9433	0.058002662
229	0x3d3b374d	0.045707036
230	0xbd41edbf	-0.047345873
231	0xbe01ea6e	-0.12687084
232	0x3ddc69fb	0.10762402
233	0x3de6784b	0.11253413
234	0xbdbd1bd0	-0.092338204
235	0x3d2496fd	0.040183056
236	0x3c732138	0.014839463
237	0x3c0a5897	0.008443973
238	0xbbb708c9	-0.005585764
239	0xbb108d5f	-0.002205692
240	0x3b473813	0.0030398413
241	0xbe16b449	-0.14717211
242	0xbdae843e	-0.08521317
243	0xbd4b4ba2	-0.049632676
244	0x3c02c74c	0.007982086
245	0xbdfeaf3e	-0.124357685
246	0xbb6479c0	-0.0034862608
247	0xbd8bdb72	-0.06828965
248	0x3caef2c6	0.021355998
249	0xbde81207	-0.113315634
250	0x3e0b9d1f	0.13634156
251	0x3ddfdd07	0.109308295
252	0x3d11951a	0.035542585
253	0xbce8959e	-0.028391656
254	0xbd70f5c3	-0.058828127
255	0x3e16ff92	0.1474593

latent_to_hidden.0.bias f4 [64]
0	0xbd8e49cc	-0.069476694
1	0x3ced096e	0.02893516
2	0x3e0abfcc	0.13549727
3	0x3de1b05b	0.11019965
4	0x3d350690	0.04419571
5	0x3e157376	0.14594826
6	0x3c90e250	0.01768604
7	0xbdb72922	-0.08943392
8	0xbcf48aa3	-0.029851263
9	0x3dfbb931	0.12291182
10	0x3da86fa8	0.08224422
11	0x3d30a627	0.043127205
12	0x3d438b3a	0.0477402
13	0xbd6b6398	-0.057468027
14	0x3e23feaa	0.16015115
15	0xbdbefcdd	-0.093255736
16	0xbcf7cff1	-0.030250521
17	0x3e2c225a	0.16809979
18	0xbb1b284f	-0.002367515
19	0xbde63e2b	-0.11242326
20	0xbc9070bc	-0.017631881
21	0x3d3b10df	0.045670386
22	0x3b85614d	0.004070437
23	0x3d857b1a	0.065176204
24	0xbe1f8c2d	-0.15580817
25	0x3d831528	0.064005196
26	0x3c36396d	0.01112209
27	0xbde82004	-0.113342315
28	0x3e16fd39	0.14745034
29	0xbdeff323	-0.117162965
30	0xbcaafbc4	-0.020872004
31	0xbe08ebaa	-0.13371149
32	0x3d003f90	0.031310618
33	0xbe2839f1	-0.16428353
34	0x3d232c99	0.039837454
35	0x3e242473	0.1602953
36	0xbe0b3022	-0.1359258
37	0xbda13608	-0.07871634
38	0xbe31d065	-0.17364652
39	0x3d13a0b1	0.03604192
40	0x3e1c879e	0.15286109
41	0xbd37b469	-0.044849787
42	0x3b523a40	0.0032078177
43	0xbd7b929f	-0.061419126
44	0x3d2d4de4	0.04231061
45	0x3e23ea4c	0.16007346
46	0x3d42740d	0.047473956
47	0x3d0d061c	0.034429654
48	0xba5b44f7	-0.00083644636
49	0x3e24a2f2	0.16077784
50	0x3d8655f0	0.0655936
51	0xbe0da9fd	-0.13834377
52	0xbc64b61f	-0.013959437
53	0xbe270fe1	-0.16314651
54	0xbdbfce7d	-0.093655564
55	0x3dfe7e63	0.1242645
56	0x3e2ef4ae	0.17085525
57	0xbca3a731	-0.019977184
58	0xbde3aca2	-0.111169115
59	0x3d2409b3	0.040048312
60	0xbcc9e7f5	-0.024646739
61	0xbe0baa64	-0.13639218
62	0x3caba7c5	0.020954022
63	0xbc2ca9f4	-0.010538567

latent_to_hidden.3.weight f4 [64, 64]
0	0xbd091464	-0.03346671
1	0xbdd6351c	-0.104593486
2	0x3da24118	0.07922572
3	0x3dd2a9e2	0.10286309
4	0xbda64236	-0.081180975
5	0xbdcbfe94	-0.09960666
6	0x3d12bf9c	0.035827264
7	0x3d0223ec	0.03177254
8	0x3ce777a8	0.028255299
9	0x3d3316d0	0.043722928
10	0x3da69d54	0.08135477
11	0x3dd11dee	0.10210787
12	0x3d254234	0.04034634
13	0xbb368b40	-0.0027853996
14	0x3c3bf350	0.011471584
15	0x3c7285d0	0.014802411
16	0x3d094f1c	0.03352271
17	0x3dbb1248	0.09134346
18	0xbdf07a94	-0.1174213
19	0x3d921762	0.07133366
20	0xbbdc5a60	-0.0067246407
21	0x3dbe0614	0.09278503
22	0x3d22d14c	0.039750382
23	0xbdd21254	-0.10257402
24	0x3dfb0338	0.12256473
25	0x3dbb5120	0.09146333
26	0x3d82b914	0.06382957
27	0xbdb4c1ca	-0.08826025
28	0x3dd1605c	0.10223457
29	0xbd531f68	-0.051543623
30	0xbcd038f0	-0.025417775
31	0x3cd31298	0.025765702
32	0x3d960976	0.07326023
33	0x3d9d4386	0.07678895
34	0xbd76a174	-0.060212567
35	0x3bb967e0	0.005658135
36	0xbcb25168	-0.021767333
37	0xbda2cd7a	-0.07949348
38	0x3d346668	0.044042975
39	0x3db24e38	0.08706325
40	0x3d9eec4c	0.07759914
41	0xbd4ee0f8	-0.050507516
42	0xbd05f97c	-0.03270863
43	0x3d2d2d58	0.04227957
44	0xbcda03f0	-0.026613206
45	0x3a22b900	0.0006207377
46	0x3bc05340	0.005869299
47	0xbdbc5a94	-0.09196964
48	0xbd887216	-0.06662385
49	0xbdb638ac	-0.08897528
50	0x3c85a510	0.01631406
51	0x3dec65d0	0.11542857
52	0x3d58deb0	0.052946746
53	0x3d1e0bf4	0.03858562
54	0xbd18d6e4	-0.03731431
55	0xbde707e2	-0.112808004
56	0xbd891dd6	-0.06695144
57	0x3d18e7ac	0.037330315
58	0x3d680178	0.056642026
59	0xbcec37b8	-0.028835163
60	0xbd4f28cc	-0.050576016
61	0x3d96ab52	0.073568955
62	0xbdd31a16	-0.1030771
63	0xbd2b7b04	-0.041865364
64	0x3d309f1c	0.04312049
65	0xbd6f945c	-0.058491096
66	0xbd167010	-0.036727965
67	0x3dc5b588	0.09653765
68	0xbc1c5590	-0.009541884
69	0xbcedaa20	-0.029011786
70	0x3da35d00	0.07976723
71	0xba416b00	-0.000737831
72	0x3dc47b4a	0.09593828
73	0xbb8c2760	-0.004277155
74	0x3c86c558	0.016451523
75	0xbdea4e26	-0.11440687
76	0xbcc53a40	-0.024075627
77	0x3b254c80	0.00252226
78	0x3df1d598	0.11808318
79	0xbd2c5290	-0.042070925
80	0x3da2762a	0.07932694
81	0x3d087edc	0.033324108
82	0x3d759d08	0.05996421
83	0xbcf703c8	-0.03015317
84	0xbdc49aac	-0.09599814
85	0xbd741e90	-0.05959946
86	0x3c312b30	0.010813519
87	0x3dc960d8	0.098329246
88	0xbb1bb4c0	-0.0023758858
89	0xbdfe34ea	-0.12412436
90	0x3da1d86a	0.07902606
91	0xbd99ac34	-0.07503548
92	0x3de848ee	0.11342035
93	0x3d6a9370	0.057269514
94	0x3d3e4d08	0.04646018
95	0x3d21b23c	0.03947662
96	0xbd77a740	-0.060462236
97	0x3dc7cf36	0.09756319
98	0xbde152fc	-0.11002156
99	0xbc1816c0	-0.009282768
100	0x3dd94db6	0.10610525
101	0x3c7f0850	0.015565947
102	0x3cb4a118	0.022049472
103	0xbd505c5c	-0.05086933
104	0xbddaa488	-0.10675913
105	0xbc4c22d0	-0.012459472
106	0xbdf51dd8	-0.11968583
107	0xbd3db098	-0.04631099
108	0xbcd44cb0	-0.025915474
109	0xbda7197a	-0.08159156
110	0x3de5c56e	0.11219297
111	0xbdcba712	-0.099439755
112	0x3cdaa9a8	0.026692227
113	0xbd8ac3e6	-0.06775646
114	0x3bc0d380	0.0058845878
115	0x3ceebe28	0.029143408
116	0xbdae25e4	-0.08503321
117	0x3ddace3e	0.10683869
118	0xbde5e452	-0.11225189
119	0xbc9d0328	-0.019166544
120	0xbdaf0318	-0.08545512
121	0x3dd9f6e8	0.10642797
122	0x3da1c91a	0.07899685
123	0x3c36b100	0.0111505985
124	0xbcf171d0	-0.029473215
125	0xbdcb42c8	-0.09924847
126	0xbbc93180	-0.006139934
127	0x3cc92c30	0.024557203
128	0xbc955798	-0.018230245
129	0x3d4f21a0	0.050569177
130	0xbd7a86e4	-0.061163798
131	0x3de6977a	0.112593606
132	0xbcd57c98	-0.026060387
133	0x3d6d3df4	0.05792041
134	0xbd9a60da	-0.07538004
135	0xbdbc0dd0	-0.09182322
136	0x3dc01584	0.09379104
137	0x3ce746e0	0.028232038
138	0x3da660ee	0.081239566
139	0xbd051688	-0.03249219
140	0xbddd6ae8	-0.108114064
141	0x3d6272d8	0.055285305
142	0x3d9f8036	0.07788126
143	0xbd24bef8	-0.040221184
144	0xbdc127f8	-0.094314516
145	0xbc374070	-0.011184797
146	0xbc8baba0	-0.01704961
147	0xbce6c0a8	-0.028168038
148	0xbd545c54	-0.051845863
149	0xbddc71f0	-0.10763919
150	0xbcca5d88	-0.024702802
151	0x3d08b038	0.03337118
152	0xbdcbbe74	-0.099484354
153	0x3da955e4	0.082683355
154	0xbd13ea2c	-0.036111996
155	0x3d8d9f2a	0.06915124
156	0xbdd2e27a	-0.10297103
157	0x3dca7740	0.098860264
158	0xbda60888	-0.08107096
159	0x3d656284	0.056002155
160	0x3de45dc4	0.11150697
161	0xbd9cf48e	-0.076638326
162	0x3cd27c68	0.025694087
163	0x3de044e8	0.10950643
164	0x3de14d96	0.110011265
165	0x3adb5c80	0.0016735941
166	0x3d865278	0.065586984
167	0xbdb9f2be	-0.090795025
168	0xbd8f5d84	-0.070002586
169	0x3d938520	0.07203126
170	0xbdb312e8	-0.087438405
171	0x3df9677e	0.12177943
172	0xbdf7d738	-0.121015966
173	0x3ca56670	0.020190448
174	0x3dd689ba	0.10475488
175	0x3cfe7ca0	0.031065285
176	0xbddbd7be	-0.10734509
177	0xbdb523f8	-0.08844751
178	0x3d3b06e4	0.04566087
179	0xbdc9889e	-0.09840511
180	0xbd0d8814	-0.034553602
181	0x3d4bc1f0	0.0497455
182	0xbd74dc74	-0.059780553
183	0xbd974bd4	-0.0738751
184	0x3df7877a	0.12086387
185	0x3dab375c	0.08360168
186	0x3d0fac74	0.035076573
187	0xbdaee13e	-0.08539055
188	0x3d9f13da	0.07767458
189	0x3de9bcce	0.11412965
190	0xbd22a020	-0.03970349
191	0xbdf8e72a	-0.12153466
192	0xbce598b8	-0.028026924
193	0x3ce00648	0.027346745
194	0xbcea5690	-0.02860573
195	0xbdc87702	-0.09788324
196	0x3cf636a8	0.030055359
197	0x3cf6c088	0.030121103
198	0x3d0d8064	0.03454627
199	0x3d9daf18	0.07699412
200	0xbd9a569a	-0.07536049
201	0x3df6905e	0.120392546
202	0x3d677c38	0.05651495
203	0xbcdd0cc8	-0.026983634
204	0x3de22062	0.11041333
205	0xbcae0518	-0.021242663
206	0x3dcc1470	0.09964836
207	0x3de8fa38	0.113758504
208	0xbd80f800	-0.06297302
209	0x3d1b49ec	0.037912294
210	0xbdc2dec4	-0.095151454
211	0xbde97fae	-0.11401306
212	0xbd0edd04	-0.034878746
213	0x3dcddf8e	0.10052405
214	0x3d68e4c4	0.056858793
215	0xbbd07340	-0.006361395
216	0xbd220e60	-0.03956449
217	0x3dff6096	0.12469594
218	0x3d981772	0.07426347
219	0x3d5cfaac	0.053949997
220	0xbdf89eca	-0.121396616
221	0x3dd9d714	0.10636726
222	0xbce1a9a8	-0.027546719
223	0xbddabb36	-0.10680239
224	0xbd640d6c	-0.055676863
225	0x3d7b50f8	0.061356515
226	0x3ddf3c04	0.10900119
227	0x3dddb846	0.10826163
228	0x3d3d82fc	0.046267495
229	0xbd49bfb0	-0.049255073
230	0xbd3e6e38	-0.04649183
231	0xbd3ab2f8	-0.045580834
232	0x3df65d5e	0.12029527
233	0x3d6ba6a8	0.057531983
234	0x3c1ccc70	0.009570226
235	0x3be8f280	0.0071089864
236	0xbdf40698	-0.1191532
237	0x3dfce5e8	0.12348539
238	0xbc8cafa0	-0.017173588
239	0x3d8306f8	0.063978136
240	0xbd6fb2dc	-0.058520183
241	0x3dabb596	0.08384244
242	0x3dfae902	0.12251474
243	0x3d1894b0	0.037251174
244	0x3d5aaedc	0.053389415
245	0xbde0e930	-0.10981977
246	0x3dd08f32	0.10183562
247	0xbdd39b20	-0.10332322
248	0xba45d700	-0.0007546991
249	0x3d29fbdc	0.041499957
250	0x3de4ff9c	0.11181566
251	0x3dee921a	0.116489604
252	0x3ddd166a	0.10795291
253	0x3dff2d78	0.12459844
254	0x3d61be1c	0.055112943
255	0xbdf3ab54	-0.118979126

latent_to_hidden.3.bias f4 [64]
0	0x3d2dcd78	0.04243228
1	0xbda7d84a	-0.08195551
2	0x3c891a80	0.016736269
3	0x3d9133e4	0.070899755
4	0xbcf5c460	-0.030000865
5	0xbd8087d6	-0.06275909
6	0xbbc834e0	-0.006109819
7	0xbd632858	-0.055458397
8	0xbd5af758	-0.05345854
9	0xbda9a382	-0.0828314
10	0x3d85c77e	0.06532191
11	0x3db6be62	0.089230314
12	0xbd3070a8	-0.043076187
13	0xbd637820	-0.055534482
14	0x3de97f18	0.11401194
15	0xbd47865c	-0.04871212
16	0xbdc7e1c8	-0.09759861
17	0xbd0a97b4	-0.03383608
18	0x3cc32588	0.023821607
19	0xbdfe5e2e	-0.12420307
20	0x3d2ec940	0.042672396
21	0x391fdc00	0.00015245378
22	0x3dbc03d0	0.09180415
23	0xbc9a8d18	-0.018866107
24	0xbdb15e64	-0.08660582
25	0xbdc10560	-0.09424853
26	0x3d67067c	0.05640267
27	0xbd454390	-0.048160136
28	0x3c95e258	0.018296406
29	0x3d5e28f4	0.054238275
30	0xbdcb46d8	-0.09925622
31	0x3d16cd4c	0.03681688
32	0x3cbc35a8	0.022974804
33	0x3dbcbf88	0.09216219
34	0xbde66df4	-0.11251441
35	0x3d61643c	0.05502723
36	0xbd95eea8	-0.07320911
37	0x3dc8ba3a	0.09801145
38	0x3da0553c	0.07828757
39	0xbd831ba6	-0.06401758
40	0xbcb66d48	-0.022268906
41	0xbd536e1c	-0.05161868
42	0xbda6f5e0	-0.08152366
43	0x3b3c65c0	0.002874717
44	0x3d653fdc	0.055969104
45	0xbcb7f918	-0.022457644
46	0x3d49d410	0.049274504
47	0x3c5209b0	0.0128196925
48	0x3c37c9c0	0.011217535
49	0xbd22b7b0	-0.03972596
50	0x3d98dc12	0.0746385
51	0xbdb65452	-0.089028016
52	0x3d0c6104	0.03427221
53	0x3df149c2	0.11781646
54	0xbde6faee	-0.1127833
55	0x3d98ee82	0.07467367
56	0x3dda1fb6	0.1065058
57	0x3dc0db1e	0.09416793
58	0xbdb97f78	-0.09057516
59	0x3deaa7ee	0.11457811
60	0x3dba9686	0.09110741
61	0x3db96ce0	0.090539694
62	0xbd7d1b2c	-0.06179349
63	0xbddc6af0	-0.10762584
